models/0572484152.pt (torch, 124075 bytes, 24 tensors)

features.0.weight f4 [4, 1, 3]
-0.57242715 -0.45544925 -0.24728781 -0.5462255 -0.032776892 -0.507934 0.33062193 0.2902314
0.106595635 0.44499755 0.04202029 0.38993078
00000000: 968a 12bf a530 e9be 0439 7dbe 6fd5 0bbf
00000010: 1041 06bd f607 02bf 4747 a93e 3699 943e
00000020: d04e da3d b8d6 e33e 781d 2c3d 02a5 c73e

features.0.bias f4 [4]
-0.40432888 -0.113774 -0.50256443 5.615613e-05
00000000: 3204 cfbe 5802 e9bd 10a8 00bf 2f89 6b38

features.2.weight f4 [4]
1.0 1.0 0.9721893 1.0025527
00000000: 0000 803f 0000 803f 66e1 783f a653 803f

features.2.bias f4 [4]
-0.015831789 -0.037871577 -0.043073285 0.054742675
00000000: abb1 81bc 3a1f 1bbd 9d6d 30bd db39 603d

features.2.running_mean f4 [4]
0.0 0.0 0.0011879437 0.04998228
00000000: 0000 0000 0000 0000 c7b4 9b3a 38ba 4c3d

features.2.running_var f4 [4]
1.7586987e-25 1.7586987e-25 0.00018026865 0.011730895
00000000: 63b7 5916 63b7 5916 7f06 3d39 f132 403c

features.3.weight f4 [4, 4, 3]
-0.25312442 0.1935007 0.1346894 0.12990308 -0.0008930318 -0.25120497 0.2970968 -0.25264987
-0.23058029 -0.13179933 -0.06884427 0.105044164 -0.19999078 -0.20372015 -0.11937859 0.19486888
-0.1895366 -0.24023381 -0.23151904 -0.12337464 -0.05717067 -0.26750058 -0.11647604 0.007448905
-0.009427237 -0.09839784 -0.089745164 -0.248135 0.087559424 -0.12987378 -0.14100726 -0.036891703
-0.039032977 0.26677793 0.13206707 -0.16501498 0.005664807 0.30171314 0.23207502 0.12815453
-0.04737454 0.2963779 0.1167516 -0.13658287 0.1634353 -0.013483451 -0.24780513 -0.16808109
00000000: 8699 81be 0c25 463e 05ec 093e 5005 053e
00000010: 5a1a 6aba f09d 80be 121d 983e 535b 81be
00000020: 3d1d 6cbe 67f6 06be 3afe 8cbd 6521 d73d
00000030: 62ca 4cbe 049c 50be c37c f4bd b58b 473e
00000040: e215 42be daff 75be 5413 6dbe d8ab fcbd
00000050: cb2b 6abd d6f5 88be fd8a eebd f215 f43b
00000060: b374 1abc cf84 c9bd 50cc b7bd 1a17 7ebe
00000070: 5b52 b33d a2fd 04be 3564 10be c11b 17bd
00000080: 0be1 1fbd 1e97 883e 973c 073e b0f9 28be
00000090: d89f b93b 257a 9a3e 13a5 6d3e f13a 033e
000000a0: ce0b 42bd d8be 973e 761b ef3d 61dc 0bbe
000000b0: 955b 273e b1e9 5cbc a1c0 7dbe 731d 2cbe

features.3.bias f4 [4]
-0.15635161 -0.25777325 0.058835752 -0.24734473
00000000: a31a 20be dbfa 83be c2fd 703d f047 7dbe

features.5.weight f4 [4]
0.9115659 0.98132586 1.1037331 0.97039855
00000000: 625c 693f 2c38 7b3f 2047 8d3f 0a6c 783f

features.5.bias f4 [4]
-0.034354948 0.06574219 -0.021904536 -0.03198512
00000000: c6b7 0cbd d7a3 863d 2471 b3bc d402 03bd

features.5.running_mean f4 [4]
0.002583843 1.4164041e-24 0.09903965 5.083682e-13
00000000: b155 293b 8c2d db17 4dd5 ca3d ca17 0f2b

features.5.running_var f4 [4]
0.003067514 1.8056013e-25 0.03482997 3.357489e-14
00000000: 5808 493b ca85 5f16 dfa9 0e3d 3635 1729

features.7.weight f4 [8, 4, 3]
0.11632218 0.12969498 0.027611792 0.35592955 -0.012205306 0.12345378 0.22878627 0.15058108
0.087750666 0.21929929 0.059033204 0.15263453 -0.31477204 -0.32123637 -0.29187167 0.079626665
0.30738428 -0.18883781 0.1849345 -0.18836409 -0.2078641 -0.16058232 -0.12436106 0.06717698
-0.24481744 0.22343294 0.050102983 0.15556394 -0.14022672 0.21428777 -0.107021384 -0.17337662
0.06250737 0.12766354 0.035372615 -0.17254376 -0.010506443 -0.22045267 -0.13373409 -0.024105206
0.2551373 -0.118585296 0.108082 0.12000969 -0.24225487 -0.33687752 -0.3099213 -0.36312348
0.17768338 0.18192106 -0.047171887 0.3222115 0.13322219 -0.23179808 -0.34942877 -0.21221903
-0.36444008 -0.15128623 0.09524851 -0.025381256 -0.028738726 0.016428346 0.2274111 -0.07670939
0.0658068 -0.14948907 -0.20594034 0.085133225 0.14430198 0.15855832 -0.22713937 0.034210548
-0.28088984 -0.032503206 -0.02879172 0.091754034 -0.10063429 -0.044655025 0.046641078 -0.25662538
0.18199371 0.24286765 -0.23012133 0.23606893 0.015715824 0.28467697 0.28337818 -0.31302908
0.15131347 -0.05565615 0.13808651 -0.060887817 -0.18990608 0.039821405 0.0729311 0.14760643
00000000: 533a ee3d c3ce 043e 2032 e23c 663c b63e
00000010: c4f8 47bc 56d5 fc3d f346 6a3e ed31 1a3e
00000020: 9fb6 b33d fe8f 603e cdcc 713d 3a4c 1c3e
00000030: cd29 a1be 1879 a4be 3470 95be 4e13 a33d
00000040: 7961 9d3e b35e 41be 785f 3d3e 84e2 40be
00000050: 54da 54be b16f 24be 03b1 febd 1694 893d
00000060: 6cb1 7abe 9bcb 643e c938 4d3d 274c 1f3e
00000070: 9897 0fbe 416e 5b3e 072e dbbd a489 31be
00000080: dd03 803d 3bba 023e e0e2 103d 50af 30be
00000090: 3723 2cbc 58be 61be 97f1 08be 4878 c5bc
000000a0: 5ba1 823e d9dc f2bd 185a dd3d a4c7 f53d
000000b0: a911 78be 367b acbe 01ae 9ebe 52eb b9be
000000c0: a2f2 353e 8449 3a3e 4f37 41bd e8f8 a43e
000000d0: 666b 083e 7a5c 6dbe 54e8 b2be f24f 59be
000000e0: e497 babe c7ea 1abe a711 c33d 5aec cfbc
000000f0: 7a6d ebbc bd94 863c 75de 683e d019 9dbd
00000100: b7c5 863d aa13 19be 06e2 52be 545a ae3d
00000110: e6c3 133e 1d5d 223e 3997 68be 5c20 0c3d
00000120: cbd0 8fbe 1522 05bd 9ddc ebbc 8ae9 bb3d
00000130: 5a19 cebd 30e8 36bd b70a 3f3d 6764 83be
00000140: 8f5c 3a3e 4cb2 783e eda4 6bbe 0ebc 713e
00000150: 79be 803c 2ec1 913e f216 913e 5945 a0be
00000160: ebf1 1a3e b4f7 63bd 8d66 0d3e 8165 79bd
00000170: bd76 42be c51b 233d e75c 953d 2426 173e

features.7.bias f4 [8]
-0.15426195 -0.21896054 0.21110493 0.044728894 0.054103088 -0.16884433 0.0012446531 -0.0029240067
00000000: d8f6 1dbe 3137 60be e42b 583e a535 373d
00000010: 339b 5d3d 87e5 2cbe a123 a33a b1a0 3fbb

features.9.weight f4 [8]
1.0182331 0.9135479 1.0124384 1.152148 1.0395733 1.0429895 0.9789747 0.8981833
00000000: 7655 823f 46de 693f 9597 813f 9679 933f
00000010: bd10 853f ae80 853f 169e 7a3f 57ef 653f

features.9.bias f4 [8]
-0.017568963 -0.009930906 -0.055101287 -0.06646357 -0.02435009 -0.07851968 0.03247556 0.047419433
00000000: c9ec 8fbc 3db5 22bc e3b1 61bd 0d1e 88bd
00000010: d779 c7bc edce a0bd 1805 053d e13a 423d

features.9.running_mean f4 [8]
0.15475954 0.0031063433 0.27860263 0.12791348 0.3493733 0.030086473 0.030356247 0.04002842
00000000: 4979 1e3e cb93 4b3b 01a5 8e3e c0fb 023e
00000010: 0fe1 b23e e877 f63c aaad f83c d7f4 233d

features.9.running_var f4 [8]
0.289181 0.0011716655 0.079874344 0.010875771 0.061449837 0.09452485 0.0019669218 0.20805758
00000000: 880f 943e 9292 993a 2995 a33d 4a30 323c
00000010: d3b2 7b3d 3f96 c13d 79e7 003b 0c0d 553e

features.10.weight f4 [8, 8, 3]
-0.010243442 -0.0047129653 -0.0030290675 -0.0043262653 -0.0033874284 -0.006430959 0.0035754023 -0.005924122
-0.0028960188 -0.005231243 0.015523311 0.012712469 -0.007973167 -0.0020195886 0.007896643 0.00067816186
-0.00078821654 -0.0025770809 0.009581654 -0.011649993 -0.009878108 0.00067954534 0.0008396533 -0.0033999244
0.0008822351 -0.0022906181 -0.0024828908 0.017362766 0.0030921674 0.009203452 0.0005514704 0.004074905
0.005854607 0.0043545095 0.0025167854 -0.0022249767 0.00724077 -0.00019645951 -0.007624802 -0.001873858
0.005832024 0.0011702265 -0.0051497896 0.0015168409 -0.0023010701 0.00052334653 0.0033153847 0.0011312915
-0.0035059778 -0.0030950375 0.00019505549 -0.0003366828 -0.0020408614 -0.009095404 -0.0038256326 0.002854147
0.0033418504 -0.0036716277 -0.002773908 0.006525826 0.01202193 0.0132113565 0.007172246 0.011511317
-0.009079997 -0.0036271706 -0.0012555093 -0.004055142 -0.00017915176 -0.0020273817 -0.005004544 -0.004948687
0.00043641668 0.00048960565 -0.0019440198 0.0012314734 0.0019314695 -0.00017620508 0.013210606 0.0055839284
0.005906999 -0.004509412 -0.001801934 -0.008868679 0.022158293 0.00850907 0.0030455797 -0.003254384
0.0023760812 -0.0085883755 -0.00011706567 0.009871024 0.0053573577 -0.005733017 -6.758301e-05 -0.00012568902
0.0056473305 -0.0008026572 -0.0014771142 -0.0018738074 -0.0028759118 -0.003575662 -0.010271134 -0.010431144
-0.0089104595 -0.017735932 -0.008287913 0.0003702649 0.008732755 -0.003143935 -0.010769511 -0.007989067
-0.0045553786 -0.002571704 0.0021526723 -0.0012320834 0.0034997023 -0.0058711343 -0.000798724 0.003593668
-0.008606072 -0.0071033933 -0.0033390105 -0.001310193 0.0013619617 0.016079152 -0.0011680289 0.0056708823
-0.0015651071 -0.011732087 -0.012096704 -0.019380514 0.011106827 0.0006375485 -0.010803169 -0.005455386
-0.004518923 -0.007884331 0.004646131 0.0048330566 0.0029022226 -0.00782412 -0.0013869806 -0.0017731067
0.0065469225 0.010316849 0.013438204 -0.0015391086 0.009670085 -0.004781946 -0.006409912 -0.009835139
0.004799557 -0.0001920535 0.0013457541 0.003625543 -0.0027910268 -0.0031296373 0.0038624732 -0.0006673878
0.003358523 -0.00017920794 -0.004308319 -0.0043573948 -0.0063434583 -0.0049651014 0.00057778053 0.00024741993
-0.004879563 -0.007556354 -0.0047597243 -0.008067818 0.0017129756 -0.0066770073 -1.8958941e-05 -0.005940893
-0.003789644 -0.0028709685 7.242766e-05 -0.0016948474 -0.0066351136 -0.008799732 0.02227268 -0.00307268
-0.004699756 -0.00031072318 -0.016202541 -0.023422377 -0.01616442 -0.0005450958 -0.0041966205 -0.0050299955
00000000: 1cd4 27bc 386f 9abb 5283 46bb 58c3 8dbb
00000010: 9eff 5dbb cbba d2bb 4c51 6a3b 231f c2bb
00000020: 22cb 3dbb d96a abbb 7c55 7e3c f647 503c
00000030: e3a1 02bc 135b 04bb ec60 013c acc6 313a
00000040: 51a0 4eba 3ee4 28bb 5ffc 1c3c 9ddf 3ebc
00000050: cad7 21bc 8423 323a 2e1c 5c3a 44d1 5ebb
00000060: cc45 673a 321e 16bb ffb7 22bb 5c3c 8e3c
00000070: f6a5 4a3b 13ca 163c 8d90 103a c886 853b
00000080: 01d8 bf3b 46b0 8e3b a7f0 243b ead0 11bb
00000090: fb43 ed3b b300 4eb9 7ad9 f9bb 3e9c f5ba
000000a0: 901a bf3b 4962 993a 91bf a8bb bcd0 c63a
000000b0: 8dcd 16bb 3131 093a ed46 593b d847 943a
000000c0: 8cc4 65bb 1dd6 4abb cf87 4c39 cd84 b0b9
000000d0: f9bf 05bb e404 15bc 77b7 7abb a40c 3b3b
000000e0: f202 5b3b b19f 70bb 74ca 35bb 99d6 d53b
000000f0: a1f7 443c 7274 583c 2905 eb3b f799 3c3c
00000100: 45c4 14bc d3b5 6dbb e78f a4ba ffe0 84bb
00000110: afda 3bb9 d2dd 04bb 28fd a3bb 9828 a2bb
00000120: dbce e439 e158 003a 7bce feba 6469 a13a
00000130: 5d29 fd3a b1c3 38b9 4c71 583c 63f9 b63b
00000140: 808f c13b b1c3 93bb df2e ecba f04d 11bc
00000150: 4f85 b53c a069 0b3c 5998 473b 8147 55bb
00000160: 07b8 1b3b 42b6 0cbc 2781 f5b8 13ba 213c
00000170: c68c af3b 08dc bbbb 5abb 8db8 64cb 03b9
00000180: 3e0d b93b 6a69 52ba ba9b c1ba 8b9a f5ba
00000190: cb79 3cbb a755 6abb 4248 28bc 64e7 2abc
000001a0: 2dfd 11bc f24a 91bc 07ca 07bc 1d20 c239
000001b0: d413 0f3c 7a0a 4ebb 9a72 30bc 93e4 02bc
000001c0: 4945 95bb 098a 28bb d913 0d3b dc7d a1ba
000001d0: 435b 653b a562 c0bb 7661 51ba bf83 6b3b
000001e0: 7b00 0dbc 95c3 e8bb 4dd3 5abb c8ba abba
000001f0: da83 b23a 6db8 833c 8c18 99ba cfd2 b93b
00000200: 4824 cdba f037 40bc 4131 46bc e2c3 9ebc
00000210: 69f9 353c 2821 273a c6ff 30bc 18c3 b2bb
00000220: 7913 94bb 482d 01bc 923e 983b 9e5e 9e3b
00000230: 3733 3e3b bd30 00bc 59cb b5ba 9767 e8ba
00000240: 9187 d63b 0008 293c ea2b 5c3c eabb c9ba
00000250: 476f 1e3c dfb1 9cbb 3d0a d2bb 9023 21bc
00000260: 9a45 9d3b f861 49b9 0464 b03a 859a 6d3b
00000270: a9e9 36bb 9a1a 4dbb 8c21 7d3b a3f3 2eba
00000280: aa1a 5c3b c4e9 3bb9 cd2c 8dbb 7ac8 8ebb
00000290: c9dc cfbb 4ab2 a2bb 3276 173a 24b8 8139
000002a0: bee4 9fbb 4b9b f7bb 76f7 9bbb e22e 04bc
000002b0: ec85 e03a ccca dabb 040a 9fb7 d3ab c2bb
000002c0: ad5b 78bb dc26 3cbb 4ee4 9738 a425 deba
000002d0: 5e6b d9bb c02c 10bc 3275 b63c 045f 49bb
000002e0: 6900 9abb 8fe8 a2b9 31bb 84bc 49e0 bfbc
000002f0: 3f6b 84bc c3e4 0eba ce83 89bb a9d2 a4bb

features.10.bias f4 [8]
-0.0010719036 -0.0014695914 0.0071075843 0.000117435244 0.0027378604 0.0053102993 -0.0011951375 0.00048530262
00000000: 1e7f 8cba 4e9f c0ba bde6 e83b 9147 f638
00000010: ad6d 333b 0502 ae3b 29a6 9cba 3770 fe39

features.13.running_mean f4 [8]
0.009724879 0.0057654497 0.0216509 0.021313904 0.015262025 0.025367862 0.012518811 0.016359517
00000000: 1955 1f3c 19ec bc3b 3a5d b13c 7f9a ae3c
00000010: 930d 7a3c 43d0 cf3c b31b 4d3c 6504 863c

features.13.running_var f4 [8]
0.00065624533 0.0013897602 0.00039401397 0.00057754753 0.00048501932 0.00036231117 0.0013075892 0.00012081141
00000000: e107 2c3a 9d28 b63a a993 ce39 8f66 173a
00000010: 314a fe39 95f4 bd39 6a63 ab3a 225c fd38

classifier.0.weight f4 [17, 1672]
-0.048817668 -0.016671231 -0.03164777 0.022712052 -0.032147758 -0.03855265 -0.012656922 -0.006584261
0.032833748 -0.04110789 0.0358211 0.014003982 0.0601335 0.010938384 0.018394733 -0.00077365834
-0.011672402 -0.017629893 -0.0056325034 -0.06791498 0.01015983 -0.033420436 -0.042112723 -0.034992248
-0.03918368 -0.02825765 -0.023267196 -0.05465103 -0.05942978 -0.050245404 -0.011855744 -0.017718215
0.0066033914 0.021551352 0.043538686 -0.039450046 0.029374482 -0.054754626 0.0061571174 0.02206804
-0.028925411 0.08578562 -0.01590135 -0.04845447 -0.033479296 0.0033055367 0.007282923 -0.015532635
0.029136205 -0.022497142 -0.027470859 0.008700029 -0.05473982 0.0119735 -0.005781878 -0.029134657
-0.027531406 -0.019144472 -0.018900044 0.03944477 -0.03664797 -0.0059175813 -0.0061440244 -0.055311766
-0.0047060456 -0.06693152 -0.05232705 -0.0006196968 -0.02546345 -0.05013471 -0.02959584 -0.01663214
-0.08803501 -0.06883457 0.0055898433 -0.013551014 -0.034857754 -0.050887514 -0.028733118 0.056293648
0.0026790479 0.0051966314 0.059854664 -0.0002552167 0.007226518 0.0039116265 0.05894572 0.027155323
0.040213082 0.017111346 -0.043785863 -0.0149091445 -0.017886719 0.028840808 0.0059590926 -0.052352916
-0.018004047 0.13243888 -0.008247234 -0.04478053 0.0001715137 0.013187257 0.00091235375 -0.008602005
-0.01359115 0.013180307 -0.027469534 0.04280428 -0.039475564 0.042931646 -0.014284466 0.03352339
0.04075479 0.018179923 0.024497792 -0.03569399 -0.014032267 0.05193982 0.021274284 0.048067443
0.06769853 0.02270798 0.059298817 0.025528409 0.035388757 0.059401263 0.077102005 0.05715178
0.0494546 0.055288795 0.035345778 0.036229484 0.042187013 0.03134797 0.07830084 0.03597739
0.017580848 0.046675242 0.02001549 -0.03772752 -0.07375519 -0.044056766 -0.053521927 -0.07902261
-0.01634905 -0.132485 -0.008421177 0.09398703 -0.00938415 0.08528223 -0.0125423055 0.056231692
0.011131223 0.09446811 0.15624575 -0.003457832 0.037666038 0.051542953 -0.09075459 0.011282475
0.007614026 0.02246744 0.047827184 0.054987904 -0.009751556 0.05126487 0.043712847 0.070703015
0.035920765 0.068267524 0.03700998 0.05527294 0.0367295 0.047539297 0.008824008 0.04883964
-0.048350673 0.011912762 -0.011241472 0.010384953 -0.012909445 0.03324426 0.018421978 0.07427667
-0.03783235 -0.023295702 -0.015891537 -0.04633063 -0.028233957 -0.09199931 0.026699811 0.005003238
-0.10080513 -0.065338574 0.03797171 0.00043243784 -0.041414 -0.011562496 0.050596334 0.030388152
0.05951501 0.039234046 0.05018379 0.040658552 0.05830835 0.04504119 0.049668994 0.025497446
0.043837965 -0.027124088 -0.08823902 -0.034474038 -0.02933152 -0.01084487 -0.017615698 -0.0692513
-0.015985478 -0.017917717 -0.0005999452 0.01974352 0.09844553 -0.00023478488 0.018532319 -0.01656243
0.00510079 0.0048171906 0.011334278 -0.034385964 -0.013047971 -0.0728998 -0.025876826 0.0113161
0.015815059 0.06719943 0.015144058 -0.06962613 -0.031273346 -0.03609316 -0.058414947 -0.0014820447
0.009666403 0.012990019 -0.06939537 -0.10627769 0.00829893 0.010732119 0.039393034 0.010145666
0.010461829 0.032278743 0.01952689 -0.036563557 0.006764259 0.027638594 -0.031665303 -0.0015303493
00000000: 09f5 47bd 1b92 88bc 18a1 01bd a00e ba3c
00000010: 5ead 03bd 62e9 1dbd fb5e 4fbc c9c0 d7bb
00000020: ae7c 063d bf60 28bd 25b9 123d f570 653c
00000030: 8b4e 763d e836 333c 8db0 963c 55cf 4aba
00000040: 9a3d 3fbc 916c 90bc dd90 b8bb 0217 8bbd
00000050: 6a75 263c dee3 08bd 647e 2cbd 0854 0fbd
00000060: 117f 20bd 967c e7bc d99a bebc c2d9 5fbd
00000070: a46c 73bd 20ce 4dbd 983e 42bc ca25 91bc
00000080: 4361 d83b 768c b03c 9f55 323d 5f96 21bd
00000090: c1a2 f03c 6346 60bd a5c1 c93b 09c8 b43c
000000a0: fcf4 ecbc 5fb0 af3d 8c43 82bc 3278 46bd
000000b0: 9621 09bd b4a1 583b 96a5 ee3b 987c 7ebc
000000c0: 0daf ee3c ed4b b8bc 910a e1bc 918a 0e3c
000000d0: dd36 60bd 802c 443c e875 bdbb ceab eebc
000000e0: 8b89 e1bc ded4 9cbc 44d4 9abc d790 213d
000000f0: 2f1c 16bd 45e8 c1bb d053 c9bb 978e 62bd
00000100: 2c35 9abb 6513 89bd e454 56bd 2673 22ba
00000110: ba98 d0bc 0e5a 4dbd fa72 f2bc 2040 88bc
00000120: b34b b4bd 24f9 8cbd 012b b73b 1205 5ebc
00000130: 01c7 0ebd 6d6f 50bd b761 ebbc 2b94 663d
00000140: f792 2f3b 8148 aa3b 2a2a 753d 9bce 85b9
00000150: 6dcc ec3b 1a2d 803b 1171 713d d774 de3c
00000160: 79b6 243d 182d 8c3c ce58 33bd 7c45 74bc
00000170: 2b87 92bc 8f43 ec3c 7e44 c33b 0370 56bd
00000180: 397d 93bc 0f9e 073e 681f 07bc ca6b 37bd
00000190: 5cd8 3339 5d0f 583c 062b 6f3a 6def 0cbc
000001a0: 6aad 5ebc 37f2 573c ca07 e1bc 8a53 2f3d
000001b0: 21b1 21bd 18d9 2f3d 6509 6abc d24f 093d
000001c0: 7fee 263d 10ee 943c 98af c83c dc33 12bd
000001d0: 98e7 65bc d9be 543d 6847 ae3c 5ee2 443d
000001e0: 87a5 8a3d 1606 ba3c 51e3 723d f420 d13c
000001f0: cdf3 103d bd4e 733d a8e7 9d3d fc17 6a3d
00000200: e890 4a3d 8176 623d bcc6 103d 5e65 143d
00000210: 4acc 2c3d bb66 003d 315c a03d 075d 133d
00000220: b605 903c 8a2e 3f3d 86f7 a33c 2c88 1abd
00000230: f60c 97bd de74 34bd cf39 5bbd 9bd6 a1bd
00000240: 71ee 85bc 26aa 07be faf8 09bc 467c c03d
00000250: fabf 19bc 73a8 ae3d 3e7e 4dbc 3453 663d
00000260: bc5f 363c 7f78 c13d e3fe 1f3e cb9c 62bb
00000270: b447 1a3d b41e 533d 8bdd b9bd 21da 383c
00000280: 147f f93b a30d b83c 70e6 433d ff3a 613d
00000290: fec4 1fbc 1dfb 513d 3e0c 333d becc 903d
000002a0: a721 133d d8cf 8b3d c797 173d e165 623d
000002b0: ac71 163d 91b8 423d 9292 103c 130c 483d
000002c0: 5b0b 46bd bf2d 433c 272e 38bc a625 2a3c
000002d0: 2382 53bc 222b 083d b0e9 963c 5e1e 983d
000002e0: 18f6 1abd a1d6 bebc f82e 82bc 30c5 3dbd
000002f0: e64a e7bc 226a bcbd 90b9 da3c 34f2 a33b
00000300: ec72 cebd 3bd0 85bd 3988 1b3d d3b8 e239
00000310: baa1 29bd a070 3dbc 1a3e 4f3d 93f0 f83c
00000320: 03c6 733d e1b3 203d 858d 4d3d 9589 263d
00000330: bdd4 6e3d 1c7d 383d b771 4b3d 05e0 d03c
00000340: 708f 333d 5633 debc a9b6 b4bd a634 0dbd
00000350: a848 f0bc aeae 31bc cc4e 90bc a0d3 8dbd
00000360: faf3 82bc 2dc8 92bc a445 1dba 2abd a13c
00000370: cf9d c93d 9630 76b9 17d1 973c efad 87bc
00000380: 8724 a73b 86d9 9d3b 68b3 393c 4cd8 0cbd
00000390: 28c7 55bc 7e4c 95bd a3fb d3bc 2a67 393c
000003a0: 958e 813c db9f 893d c81e 783c 2598 8ebd
000003b0: 7b18 00bd 6cd6 13bd 8344 6fbd 2b41 c2ba
000003c0: d55f 1e3c 17d4 543c 291f 8ebd 1ea8 d9bd
000003d0: 3cf8 073c c5d5 2f3c 975a 213d 023a 263c
000003e0: 1768 2b3c b736 043d dbf6 9f3c abc3 15bd
000003f0: b8a6 dd3b 556a e23c 7ab3 01bd 0096 c8ba

classifier.0.bias f4 [17]
-0.057327338 -0.07799766 -0.01528581 -0.0083104735 -0.053983137 -0.06646018 -0.03610073 -0.032204688
-0.026682047 -0.08575096 -0.044900034 -0.010562237 -0.03877675 -0.08878196 -0.021985762 -0.04038271
-0.04056801
00000000: 12d0 6abd 3dbd 9fbd 5671 7abc a728 08bc
00000010: 6c1d 5dbd 461c 88bd 5cde 13bd 10e9 03bd
00000020: 4f94 dabc 339e afbd 19e9 37bd 3c0d 2dbc
00000030: 5fd4 1ebd 51d3 b5bd 7c1b b4bc 5768 25bd
00000040: a42a 26bd
