models/0773684280.pt (torch, 124075 bytes, 24 tensors)

features.0.weight f4 [4, 1, 3]
0.086051084 0.3920921 0.54097724 -0.23494655 0.01593703 0.16667628 0.46079016 -0.5610819
0.09058815 -0.44658127 0.46503505 0.22802405
00000000: 8d3b b03d 4cc0 c83e 7c7d 0a3f d495 70be
00000010: 608e 823c 30ad 2a3e b0ec eb3e 10a3 0fbf
00000020: 4886 b93d 4da6 e4be 1319 ee3e 237f 693e

features.0.bias f4 [4]
-0.34385103 -0.4478969 -0.5751004 0.4541482
00000000: 3e0d b0be be52 e5be c839 13bf 1d86 e83e

features.2.weight f4 [4]
0.99139076 1.0 1.0 1.061052
00000000: c9cb 7d3f 0000 803f 0000 803f 8dd0 873f

features.2.bias f4 [4]
-0.030555395 -0.027768508 0.045747798 -0.009781666
00000000: 4f4f fabc c87a e3bc 0b62 3b3d 4843 20bc

features.2.running_mean f4 [4]
0.009258179 0.0 0.0 0.46737885
00000000: 9eaf 173c 0000 0000 0000 0000 484c ef3e

features.2.running_var f4 [4]
0.003618253 2.0150185e-23 2.0150185e-23 0.0012502931
00000000: 3620 6d3b 71e1 c219 71e1 c219 e0e0 a33a

features.3.weight f4 [4, 4, 3]
0.17682967 -0.10721508 0.014761388 -0.16601567 -0.1642671 0.031490017 -0.25503787 0.024587965
0.13897292 -0.23532501 -0.1192317 -0.05526877 0.12121399 -0.0305494 -0.28627354 -0.18010275
-0.36292842 -0.12012012 -0.007296986 0.36562952 0.0730786 0.17971848 -0.26970738 -0.153309
0.16474733 0.11329629 0.008033731 -0.1802721 0.13260195 0.26374784 -0.00093569857 0.17598337
-0.17651689 0.15438175 0.120164625 0.28896624 0.12609847 0.2637657 -0.043641116 -0.026931394
-0.056109376 -0.058377005 -0.1850803 -0.14969453 -0.03522983 -0.19017702 -0.2858247 -0.14429207
00000000: d612 353e 9493 dbbd c0d9 713c 0300 2abe
00000010: a235 28be adfb 003d 5394 82be b36c c93c
00000020: eb4e 0e3e 0af9 70be c02f f4bd 8161 62bd
00000030: 0a3f f83d bc42 fabc 7292 92be db6c 38be
00000040: c1d1 b9be 8a01 f6bd 8e1b efbb cb33 bb3e
00000050: 3caa 953d 1f08 383e 1617 8abe 09fd 1cbe
00000060: 86b3 283e e307 e83d e99f 033c 4099 38be
00000070: cec8 073e f509 873e ab49 75ba fc34 343e
00000080: d8c0 34be 4016 1e3e df18 f63d 62f3 933e
00000090: f51f 013e 4c0c 873e 07c1 32bd 3a9f dcbc
000000a0: f2d2 65bd ba1c 6fbd b185 3dbe 8649 19be
000000b0: 274d 10bd c4bd 42be 9d57 92be 4dc1 13be

features.3.bias f4 [4]
-0.0092078885 -0.2050294 0.086219266 0.32209733
00000000: afdc 16bc 3af3 51be ba93 b03d f1e9 a43e

features.5.weight f4 [4]
1.0031867 0.9333677 1.056806 1.010949
00000000: 6c68 803f 30f1 6e3f 6b45 873f c766 813f

features.5.bias f4 [4]
0.027922397 0.014875956 -0.043737058 -0.051631197
00000000: 83bd e43c 48ba 733c a125 33bd 3c7b 53bd

features.5.running_mean f4 [4]
0.09718837 0.004907264 0.19779612 0.38238585
00000000: b20a c73d 1dcd a03b 118b 4a3e 14c8 c33e

features.5.running_var f4 [4]
0.004834863 0.0044282754 0.58678997 0.034099575
00000000: c56d 9e3b 111b 913b de37 163f ffab 0b3d

features.7.weight f4 [8, 4, 3]
-0.12261519 -0.1636635 0.1611666 0.03467761 0.06576019 -0.18046093 -0.23372088 -0.16644427
-0.3145751 -0.12441526 -0.075837396 0.12407852 0.01970331 -0.2480139 0.013494401 -0.13598126
0.12586075 0.2016145 -0.21553132 -0.07132682 -0.025960386 0.17149013 -0.124414384 0.271078
-0.27558836 0.23287623 0.00841877 0.18611485 0.25366652 -0.05636583 -0.04342785 0.14089294
-0.28644836 -0.0151270265 0.010278125 -0.21937414 -0.2312803 0.18367799 0.11324445 -0.052861124
-0.17037112 -0.1922978 0.1595094 -0.15911843 -0.14505672 -0.08416947 0.023570105 -0.019848717
0.059623957 0.32226548 0.26312014 0.19298379 0.027259262 0.10615391 0.031695396 0.25825137
0.13142346 -0.047287364 0.09476491 0.15608679 -0.21223435 -0.13419849 -0.09269747 0.060346615
-0.09844464 0.024761708 -0.012141346 0.0054237284 0.034227412 -0.10434785 0.05296031 -0.23130873
-0.10720631 0.20276785 0.024879923 -0.013192007 -0.037248738 -0.10451107 0.021868011 0.22279853
0.058814038 -0.24548183 -0.13156492 -0.075904265 0.21755528 -0.113839306 0.07223795 -0.102273576
-0.047114935 -0.30182463 -0.07972372 -0.3249184 0.14371276 -0.2246307 -0.25437868 0.03608127
00000000: ac1d fbbd 6897 27be db08 253e 1c0a 0e3d
00000010: 47ad 863d c0ca 38be 8754 6fbe 5e70 2abe
00000020: fd0f a1be 6ecd febd a350 9bbd e11c fe3d
00000030: d668 a13c 5bf7 7dbe 9f17 5d3c ac3e 0bbe
00000040: a4e1 003e 0874 4e3e 3eb4 5cbe cc13 92bd
00000050: e0aa d4bc 1c9b 2f3e f8cc febd bcca 8a3e
00000060: eb19 8dbe 1b77 6e3e e1ee 093c e494 3e3e
00000070: 94e0 813e dbdf 66bd 67e1 31bd 3d46 103e
00000080: 5ca9 92be 59d7 77bc 9565 283c 9da3 60be
00000090: bed4 6cbe 1516 3c3e b5ec e73d e884 58bd
000000a0: c475 2ebe b7e9 44be 6f56 233e f1ef 22be
000000b0: c089 14be 0b61 acbd 1816 c13c c799 a2bc
000000c0: 4038 743d fbff a43e afb7 863e 8b9d 453e
000000d0: d14e df3c 3967 d93d 08d3 013d 8639 843e
000000e0: df93 063e 65b0 41bd 1b14 c23d 37d5 1f3e
000000f0: f653 59be 546b 09be 2cd8 bdbd 032e 773d
00000100: 589d c9bd 11d9 ca3c 7fec 46bc 88b9 b13b
00000110: 0b32 0c3d 53b4 d5bd e9ec 583d 32dc 6cbe
00000120: fb8e dbbd 60a2 4f3e fbd0 cb3c 4a23 58bc
00000130: 2292 18bd e609 d6bd 8b24 b33c 4c25 643e
00000140: fde6 703d 975f 7bbe f4b8 06be b273 9bbd
00000150: d0c6 5e3e 9524 e9bd 7ef1 933d cf74 d1bd
00000160: 97fb 40bd c288 9abe 3146 a3bd b45b a6be
00000170: 7029 133e 9705 66be ec3d 82be f4c9 133d

features.7.bias f4 [8]
0.022610428 0.16129638 0.2673038 0.014281911 -0.033814512 0.19837014 0.061810743 0.26807028
00000000: 8139 b93c e12a 253e 0bdc 883e adfe 693c
00000010: 1681 0abd 8b21 4b3e 432d 7d3d 8240 893e

features.9.weight f4 [8]
1.1091945 0.9329725 0.8639831 1.1682466 0.8852204 1.0325133 1.0823444 1.0129316
00000000: 16fa 8d3f 49d7 6e3f ff2d 5d3f 1b89 953f
00000010: ce9d 623f 6529 843f 438a 8a3f bea7 813f

features.9.bias f4 [8]
-0.034237888 -0.04931198 0.088432975 -0.04961566 0.01548951 -0.03008788 0.006106379 0.10228988
00000000: 073d 0cbd 5cfb 49bd 591c b53d ca39 4bbd
00000010: b7c7 7d3c dc7a f6bc 0518 c83b 5b7d d13d

features.9.running_mean f4 [8]
0.1732482 0.2503134 0.31047317 0.07997476 0.30717722 0.3255516 0.19664495 0.33582148
00000000: fa67 313e 1429 803e 57f6 9e3e cfc9 a33d
00000010: 5546 9d3e b3ae a63e 4b5d 493e cbf0 ab3e

features.9.running_var f4 [8]
0.023719912 0.08022845 0.27855876 0.0067578643 0.5540787 0.26107818 0.24195477 0.043897755
00000000: 4350 c23c d04e a43d 419f 8e3e 1371 dd3b
00000010: 1ad8 0d3f 0aac 853e fec2 773e 22ce 333d

features.10.weight f4 [8, 8, 3]
0.0011680075 -0.014899869 -0.009365019 -0.0032248462 -0.0035151197 0.010145654 0.0018560407 0.0068939324
0.0010284877 -0.000834628 0.00024637658 -0.00037139357 0.0047588847 0.0016719906 0.0017067784 0.008159924
0.00962089 -0.000776424 0.00088004733 0.006357617 -0.000878172 0.010894917 0.0018493498 0.0006663335
-0.009644869 0.0054104556 0.013682963 -0.0038957244 -0.0008095962 -0.0013432576 -0.005541582 0.0022991698
0.007807618 -0.021489903 -0.01113351 0.00068112864 -0.0011896655 0.0011283738 0.0016245059 -0.0010682489
-0.0026043775 -0.0038169355 -0.0019802228 -0.008526233 -0.010463823 0.007477868 0.0027239593 0.007870133
0.005635586 0.0060694204 0.0025222455 -0.0036282938 -0.00638941 -0.0029276342 -0.0027692658 0.0018672725
-0.0005275594 -0.0046047396 -0.0022017632 -0.0059675267 0.0017847576 0.004520461 0.006103885 0.011558626
0.004201 -0.00034523095 0.011793361 0.013598151 0.004359007 -0.002800086 -0.0015776288 -0.0064317835
-0.002309846 -0.00443678 -0.010568621 0.0028345028 -0.004770159 0.002561111 0.006871987 0.0027405315
-0.006266991 -0.010387693 -0.015042263 -0.019399026 -0.006010087 -0.0020052332 -0.008287776 -0.002427421
0.0024832229 -0.004703111 -0.008728173 -0.0013570739 0.002119686 -0.004653697 0.006231925 -0.0030331607
-0.008864472 0.009597238 0.0043604434 -0.010148806 -0.00947228 -0.0024400125 0.005473206 0.0017340084
0.00037441662 -0.004168878 0.006770648 0.006252847 -0.0018130529 -0.00069890445 -0.004349322 0.005158132
0.003398386 0.003444851 0.009068409 0.010846169 -0.0076926663 -0.0031773723 0.0018920319 -0.0058799614
-0.007348431 -0.015531116 -0.019578017 -0.0017248524 -0.0029691083 -0.016135475 8.6609376e-05 -0.0048437454
0.0008208181 0.0033693216 -0.007923551 0.004834695 0.007813168 0.00022582771 0.0030509431 -0.0019763277
-0.0028741586 0.0021006477 0.0013156354 -0.0058134617 -0.011579024 -0.006736864 -0.00096725987 -0.002533454
0.005753951 0.009326728 0.0032147185 -0.0036498893 -0.0019707358 -0.00062399404 0.010295756 0.008325748
-0.0027330127 0.0081251515 0.0149476435 0.009211442 -0.006414709 0.0027133436 0.0002206669 -0.0077902474
-0.0041625793 -0.0064782994 0.0035851086 0.00073381874 -0.00092102215 -0.0032631108 -0.004209611 -0.002386863
0.004681165 -0.0017399547 -0.014457146 -0.008325613 0.001852064 -0.0022018189 -0.005863104 -0.00623447
0.006102873 0.004471364 0.007669698 0.001374063 -0.007239305 -0.0023751988 0.00380547 0.0064209173
0.002247815 0.0029625208 -0.0032184478 -0.0057351245 0.00036872676 0.015010159 -0.0042565595 -0.010044189
00000000: d417 993a 951e 74bc bd6f 19bc f157 53bb
00000010: ec5d 66bb f539 263c 6446 f33a 7fe6 e13b
00000020: 52ce 863a f0ca 5aba 1b2c 8139 9ab7 c2b9
00000030: 6bf0 9b3b b226 db3a fbb5 df3a 34b1 053c
00000040: f0a0 1d3c ef88 4bba fab2 663a 8f53 d03b
00000050: 2035 66ba 9880 323c e265 f23a e2ac 2e3a
00000060: 8305 1ebc 314a b13b 822e 603c 694f 7fbb
00000070: 153b 54ba 3f10 b0ba 2996 b5bb abad 163b
00000080: 0cd7 ff3b 980b b0bc 5369 36bc c58d 323a
00000090: 8dee 9bba f1e5 933a 5fed d43a 7c04 8cba
000000a0: 34ae 2abb 8d25 7abb a0c6 01bb 9db1 0bbc
000000b0: 7470 2bbc e708 f53b 7484 323b bbf1 003c
000000c0: b9aa b83b fde1 c63b 424c 253b abc8 6dbb
000000d0: 415e d1bb 8ddd 3fbb 927c 35bb 45bf f43a
000000e0: e94b 0aba 5be3 96bb 754b 10bb 3e8b c3bb
000000f0: 87ee e93a 6020 943b 1903 c83b 6460 3d3c
00000100: 8ba8 893b 1d00 b5b9 f138 413c c7ca 5e3c
00000110: 00d6 8e3b a681 37bb 70c8 ceba b6c1 d2bb
00000120: c960 17bb 6862 91bb 0228 2dbc 11c3 393b
00000130: fe4e 9cbb 50d8 273b 682e e13b 7d9a 333b
00000140: 555b cdbb 2431 2abc d373 76bc b5ea 9ebc
00000150: 44f0 c4bb 3b6a 03bb 74c9 07bc 5e15 1fbb
00000160: 91bd 223b 8e1c 9abb 9c00 0fbc d8df b1ba
00000170: 6eea 0a3b 0a7e 98bb 2d35 cc3b fec7 46bb
00000180: 4a3c 11bc bc3d 1d3c 0de2 8e3b 2d47 26bc
00000190: 9f31 1bbc 9ee8 1fbb 9458 b33b ab47 e33a
000001a0: 594d c439 159b 88bb 50dc dd3b afe4 cc3b
000001b0: f6a3 edba af36 37ba c284 8ebb 8c05 a93b
000001c0: 75b7 5e3b 02c3 613b aa93 143c 21b4 313c
000001d0: c312 fcbb 763b 50bb 0efe f73a b1ac c0bb
000001e0: 1bcb f0bb 3976 7ebc 1462 a0bc 7114 e2ba
000001f0: 5f95 42bb 8b2e 84bc 0ea2 b538 48b8 9ebb
00000200: 2c2c 573a d6cf 5c3b c8d1 01bc 5c6c 9e3b
00000210: cd02 003c 2acc 6c39 55f2 473b 4785 01bb
00000220: 615c 3cbb 05ab 093b 6671 ac3a da7e bebb
00000230: f2b5 3dbc e9c0 dcbb b68f 7dba 4e08 26bb
00000240: a48b bc3b 22cf 183c 07ae 523b fb32 6fbb
00000250: 7627 01bb 8893 23ba 88af 283c b868 083c
00000260: 581c 33bb 5b1f 053c f6e6 743c 97eb 163c
00000270: 7b32 d2bb 5ad2 313b d262 6739 5545 ffbb
00000280: 3f66 88bb ea47 d4bb 24f4 6a3b be5d 403a
00000290: c070 71ba ead9 55bb c7f0 89bb eb6c 1cbb
000002a0: 7564 993b 310f e4ba aadd 6cbc 2768 08bc
000002b0: f5c0 f23a 644c 10bb 481f c0bb 864a ccbb
000002c0: 9cfa c73b 8584 923b 1752 fb3b e719 b43a
000002d0: b137 edbb 39a9 1bbb 3165 793b 8f66 d23b
000002e0: 1450 133b da26 423b 98ec 52bb b6ed bbbb
000002f0: ab51 c139 2ced 753c 9c7a 8bbb 6290 24bc

features.10.bias f4 [8]
-0.0056275306 0.0014962538 0.004768769 -0.0063690357 -0.004687648 -0.0022267352 0.0015313568 0.012769368
00000000: 2667 b8bb f21d c43a 5543 9c3b 58b3 d0bb
00000010: d79a 99bb 6bee 11bb cfb7 c83a 9c36 513c

features.13.running_mean f4 [8]
0.014652374 0.023530563 0.018461913 0.01657194 0.014317349 0.021914227 0.021643091 0.021407528
00000000: 8310 703c 2bc3 c03c 703d 973c e1c1 873c
00000010: 5093 6a3c 7785 b33c da4c b13c d75e af3c

features.13.running_var f4 [8]
0.0012519469 0.00086813385 0.0015650962 0.00050346524 0.0008342174 0.00052888296 0.0014294814 0.00068094593
00000000: 5e18 a43a 7a93 633a ea23 cd3a fbfa 033a
00000010: 62af 5a3a bca4 0a3a 705d bb3a 8281 323a

classifier.0.weight f4 [17, 1672]
-0.08363103 -0.027659072 -0.0483049 -0.027779667 -0.0059268246 0.016335418 -0.0014732952 -0.04455382
-0.006917762 0.017368251 0.057280097 0.047184758 -0.024015252 -0.009526652 -0.010443353 0.014947225
-0.012342488 -0.024101693 -0.02671241 0.00093922176 0.016341047 -0.050646774 -0.0011634951 -0.033399567
-0.002730691 -0.03864456 -0.033901215 -0.02203256 0.005929126 -0.01802803 0.006446676 0.017676102
0.002345696 -0.020312926 0.028755201 -0.01534718 -0.014846298 0.042568885 0.032024436 0.033798795
0.02777975 0.010821485 0.022801785 0.036412396 0.025513152 0.03240778 0.02094392 -0.010341461
0.038011007 0.07075696 0.024894273 0.08917655 0.012985577 0.042274542 -0.04487624 -0.012681425
-0.001189988 -0.02514718 -0.036210865 -0.001584787 -0.040019352 0.02201929 -0.021030817 -0.07762632
-0.07395889 -0.014392906 -0.020740554 0.0008376294 -0.020239716 -0.030834122 -0.052550673 -0.018837435
-0.014140566 0.002518633 -0.016371915 -0.04219852 -0.013277042 -0.023025151 -0.039721128 -0.04277587
-0.016526712 0.01611745 0.052229807 -0.013134372 0.006144985 -0.033462863 -0.04391777 -0.055212688
-0.06922847 0.0072840443 -0.016662477 -0.020279953 -0.028273394 -0.027882956 0.01781888 0.03290316
0.004332763 0.011813971 0.0132638 0.04008306 -0.0067478237 0.055411927 0.02106635 0.019401366
-0.0131069105 -0.042028733 -0.03946061 -0.06418205 -0.044327468 -0.032677498 -0.00026402497 -0.0068470114
-0.0016951656 -0.013125406 -0.020333977 0.007381828 0.007223728 -0.00017450156 0.032436952 0.044300117
0.01002305 0.017390246 0.027968206 0.036662407 0.017751789 0.023136191 0.040057752 0.012671348
0.011335206 0.044524346 -0.0070600025 -0.0021097532 0.024468046 0.02762927 0.06409087 0.045095623
-0.004371451 0.00054600614 -0.0087483935 -0.013059003 -0.052669585 -0.038481764 -0.028262295 -0.056430392
-0.002443617 0.038271397 0.04706007 0.06550213 0.08119416 0.023763446 0.022342857 0.013858123
0.15368803 0.029885625 -0.0050223386 0.016957974 -0.03480861 0.022524593 0.053156238 -0.012709652
-0.06121552 -0.006838589 0.015539441 0.048978113 0.037106305 0.022562122 0.02887267 -0.005850721
0.00053790834 0.013984862 -0.002178849 -0.021350188 -0.0122622475 0.01580933 -0.0065930067 0.0054397634
0.0133164795 -0.022454817 0.012338481 0.00020645314 -0.012008611 0.011010185 -0.044580773 -0.012235738
-0.03967071 0.010331638 0.00025966277 0.0062391874 -0.025620483 -0.01800263 -0.06026032 -0.0037239322
-0.0902067 -0.069211684 -0.02973847 -0.040116318 -0.002907856 -0.028448878 0.057522807 0.03499532
0.030042376 0.04758759 0.0021800217 0.008834454 0.028749162 0.039223265 0.024993481 0.045843467
0.030537799 0.007825841 0.018736007 0.026589941 0.03253271 -0.014319491 -0.029350853 0.035058353
-0.012105888 -0.011891607 0.009653619 0.006988685 -0.0053113 7.75189e-05 -0.023441928 -0.037318137
-0.0067982487 -0.01848086 -0.035467774 0.018943524 -0.0135715995 0.07892061 -0.0037842395 -0.020736387
0.020014629 0.039869554 0.037271913 -0.036383092 -0.04496741 -0.075217634 -0.058009274 0.063670106
-0.0360465 -0.053142883 0.019363737 -0.023918439 0.024113307 0.0010981776 -0.08194576 -0.0322798
0.02296979 0.01613973 0.06370605 -0.091749504 -0.043699976 -0.03256055 -0.0069496483 -0.09371162
00000000: bf46 abbd 4795 e2bc 5cdb 45bd 2f92 e3bc
00000010: cf35 c2bb dbd1 853c 951b c1ba 117e 36bd
00000020: 65ae e2bb dd47 8e3c 899e 6a3d ce44 413d
00000030: a2bb c4bc ad15 1cbc 991a 2bbc 35e5 743c
00000040: 2638 4abc ea70 c5bc fcd3 dabc 1b36 763a
00000050: a9dd 853c fe72 4fbd 6b80 98ba fccd 08bd
00000060: 65f5 32bb c249 1ebd 00dc 0abd a17d b4bc
00000070: 1d49 c23b 85af 93bc a33e d33b 79cd 903c
00000080: 40ba 193b 4b67 a6bc 0790 eb3c bd72 7bbc
00000090: e33d 73bc b65c 2e3d 0e2c 033d 9b70 0a3d
000000a0: 5c92 e33c 994c 313c cfca ba3c 2a25 153d
000000b0: f500 d13c 05be 043d 9592 ab3c 3b6f 29bc
000000c0: 6eb1 1b3d 06e9 903d 13ef cb3c 32a2 b63d
000000d0: 75c1 543c 1228 2d3d 26d0 37bd c0c5 4fbc
000000e0: 5ff9 9bba 7501 cebc d851 14bd a1b8 cfba
000000f0: 55eb 23bd cc61 b43c d248 acbc 8cfa 9ebd
00000100: c277 97bd 39d0 6bbc 18e8 a9bc 5c94 5b3a
00000110: c3cd a5bc d797 fcbc 603f 57bd f750 9abc
00000120: d5ad 67bc a60f 253b 651e 86bc 5bd8 2cbd
00000130: f387 59bc 3e9f bcbc 9fb2 22bd c035 2fbd
00000140: 0763 87bc be08 843c ecee 553d 8d31 57bc
00000150: df5b c93b 5b10 09bd 1fe3 33bd b326 62bd
00000160: a8c7 8dbd feae ee3b bf7f 88bc 2522 a6bc
00000170: 9b9d e7bc cc6a e4bc e6f8 913c 77c5 063d
00000180: daf9 8d3b 638f 413c 6950 593c 222e 243d
00000190: d91c ddbb 9ef7 623d 5793 ac3c 9def 9e3c
000001a0: 5ebe 56bc 5226 2cbd 73a1 21bd e171 83bd
000001b0: b890 35bd d7d8 05bd d56c 8ab9 e55c e0bb
000001c0: 5230 deba f10b 57bc 7193 a6bc 43e3 f13b
000001d0: 06b5 ec3b 68fa 36b9 9cdc 043d 0a74 353d
000001e0: b837 243c fd75 8e3c 941d e53c 522b 163d
000001f0: 336c 913c 1c88 bd3c 9913 243d 7c9b 4f3c
00000200: 4db7 393c 295f 363d 9857 e7bb c943 0abb
00000210: 3671 c83c c756 e23c 1342 833d 30b6 383d
00000220: 643e 8fbb da21 0f3a 6c55 0fbc 6ef5 55bc
00000230: 10bc 57bd 0e9f 1dbd 5486 e7bc 8e23 67bd
00000240: 1725 20bb 78c2 1c3d 0fc2 403d fb25 863d
00000250: 2049 a63d 8fab c23c 5e08 b73c 2e0d 633c
00000260: 6560 1d3e b3d2 f43c 6e92 a4bb 73eb 8a3c
00000270: 7993 0ebd 7f85 b83c 5bba 593d 253c 50bc
00000280: 20bd 7abd 3e16 e0bb 2499 7e3c 469d 483d
00000290: c8fc 173d 33d4 b83c 6186 ec3c 68b7 bfbb
000002a0: 6b02 0d3a c320 653c 05cb 0ebb 97e6 aebc
000002b0: 98e7 48bc 9182 813c 260a d8bb 0b40 b23b
000002c0: 5d2d 5a3c 2af3 b7bc 5727 4a3c 587b 5839
000002d0: c4bf 44bc 1064 343c 549a 36bd 6878 48bc
000002e0: c17d 22bd 0846 293c 5923 8839 1972 cc3b
000002f0: 0ce2 d1bc 407a 93bc 86d3 76bd 370d 74bb
00000300: 4abe b8bd dbbe 8dbd 189e f3bc 0251 24bd
00000310: ba91 3ebb 9f0d e9bc 099d 6b3d 4157 0f3d
00000320: 6e1b f63c 34eb 423d b2de 0e3b 63be 103c
00000330: 5d83 eb3c 93a8 203d 21bf cc3c 5cc6 3b3d
00000340: 682a fa3c f537 003c 417c 993c 26d3 d93c
00000350: 0541 053d 4c9c 6abc 3371 f0bc 5999 0f3d
00000360: c657 46bc 04d5 42bc 362a 1e3c 5701 e53b
00000370: 6a0a aebb a491 a238 4909 c0bc e7da 18bd
00000380: d8c3 debb 2c65 97bc a846 11bd 732f 9b3c
00000390: 6a5b 5ebc 21a1 a13d 0101 78bb 5bdf a9bc
000003a0: b8f5 a33c 424e 233d 6faa 183d 7006 15bd
000003b0: bf2f 38bd b40b 9abd 229b 6dbd 7965 823d
000003c0: 7fa5 13bd 5aac 59bd b3a0 9e3c 9af0 c3bc
000003d0: 4589 c53c baf0 8f3a 2ed3 a7bd d337 04bd
000003e0: 242b bc3c 7837 843c 5178 823d 2ae7 bbbd
000003f0: bffe 32bd 365e 05bd e0b9 e3bb e1eb bfbd

classifier.0.bias f4 [17]
-0.063027754 -0.054572087 -0.012735958 -0.036631253 -0.04627824 -0.043523747 0.006426673 -0.061067782
-0.017617086 -0.106573075 -0.058851726 -0.034107715 -0.04323266 -0.070578784 -0.03944511 -0.0319632
-0.03797371
00000000: b214 81bd fb86 5fbd 7baa 50bc a70a 16bd
00000010: 408e 3dbd f545 32bd d796 d23b 3622 7abd
00000020: b551 90bc fc42 dabd 820e 71bd 88b4 0bbd
00000030: bb14 31bd 9c8b 90bd 3291 21bd d8eb 02bd
00000040: 528a 1bbd
