models/1660121033.pt (torch, 124075 bytes, 24 tensors)

features.0.weight f4 [4, 1, 3]
00000000: a033 383e 4c17 6abe 802a bebc 6905 8f3e
00000010: c6cf ee3e 09c4 013f fc92 85be 0e7f 0c3f
00000020: d4cd c2bd 96c5 d2bd cffc 073f 8379 b13d
0.17988443 -0.2286045 -0.023213625 0.27933815 0.46642894 0.5068975 -0.26088703 0.5488137
-0.09511915 -0.10291593 0.5312013 0.08665755

features.0.bias f4 [4]
00000000: d8f5 d5be 7f71 b3be e206 063c ccd0 51bc
-0.41789126 -0.35047528 0.008180352 -0.012806129

features.2.weight f4 [4]
00000000: 0000 803f 1a0f 7e3f 3113 7f3f 780d 813f
1.0 0.99241793 0.9963866 1.0082235

features.2.bias f4 [4]
00000000: a5f9 0f3d 452a 59bc fcfe 063c 8643 8b3c
0.03515019 -0.013254707 0.008239504 0.016999971

features.2.running_mean f4 [4]
00000000: 0000 0000 1b83 723c defd 9f3c baff b53c
0.0 0.014801766 0.019530233 0.022216666

features.2.running_var f4 [4]
00000000: 18c4 0b24 a4de f03b 718e 293a 021b 803b
3.0306918e-17 0.0073507596 0.0006468064 0.0039094696

features.3.weight f4 [4, 4, 3]
00000000: 9e18 993d a772 cbbc 92d3 083d 450c 063d
00000010: a9cf 883d ae73 1f3e 1bde 993e 704c b93d
00000020: 06aa 883b b322 7fbe 928c 523e 2cd0 3b3e
00000030: a5b6 7b3e 06aa ef3c 500a 3f3d 7161 d63d
00000040: dc51 833e 7b45 4d3e 965b c03d 80fc 4bbd
00000050: 4cdd 0dbe dd94 833c f2e7 343e 0204 1bbc
00000060: 3387 a23e 3500 04be 045e 653e c227 a23d
00000070: 98d5 55be 1e6c b53d 9263 01be 7c07 733e
00000080: e4d5 2f3e c75d 85be abdf 133e 12ad 303d
00000090: a3e0 193e bba0 1a3e 86c3 f9bc 1d2c f9bd
000000a0: 6e19 91bd 7621 dabd d792 8fbe f626 463d
000000b0: 08c7 12be 396d 9e3d c7ff 91bd d9c1 5c3e
0.074753985 -0.024834944 0.033404894 0.032726545 0.06680233 0.15571472 0.30052266 0.090477824
0.004170659 -0.2491558 0.20561436 0.1834113 0.24581392 0.029255878 0.046640694 0.10467804
0.2564839 0.20046036 0.09392469 -0.04980135 -0.1385395 0.016062194 0.17666605 -0.009461405
0.31743774 -0.12890704 0.22399145 0.079177395 -0.20882261 0.08858512 -0.1263564 0.23733324
0.17171437 -0.2604811 0.14440791 0.043133803 0.15027098 0.15100376 -0.03048874 -0.12166617
-0.070849285 -0.106509134 -0.28041717 0.048377 -0.14333737 0.07735676 -0.07128864 0.21558322

features.3.bias f4 [4]
00000000: b18c 9b3d 84f9 96be e713 4d3d d696 dbbc
0.07595194 -0.2948724 0.05006781 -0.026805323

features.5.weight f4 [4]
00000000: 580a 843f 4213 7c3f 95e7 7e3f b0a4 7d3f
1.0315657 0.98466885 0.99572116 0.9907942

features.5.bias f4 [4]
00000000: 323d 993c d209 523b 32a4 f5bb 1266 65bb
0.018705938 0.003204931 -0.0074963802 -0.0035003466

features.5.running_mean f4 [4]
00000000: 6916 443e 394f c63d a415 a03d 0185 8d3d
0.19149174 0.09683079 0.078166276 0.06910134

features.5.running_var f4 [4]
00000000: 14cb 063f b2a1 ab3e 179f 3c3d 6923 ed3a
0.5265362 0.335218 0.046050157 0.0018092218

features.7.weight f4 [8, 4, 3]
00000000: 229f e0bd cf44 923e df9b aa3d c6a8 7bbd
00000010: 38a9 7cbe 745f 893e 215d 31be 6b2e 203d
00000020: 7dea 413e 1a19 93be 8f63 9a3d b7eb 843e
00000030: 52f5 0cbe 9336 cebd 4c3c 92be 7200 8dbe
00000040: 6d1d 95bd 13fb 293e 05a4 d0bc 5726 55be
00000050: 7b54 383e f93f ff3c b161 603e 258b a4be
00000060: 1a4c 8bbe dbbc e43c c925 6bbe 1aa7 80be
00000070: 023d 3a3e ba2d 84be e9fc 9bbe f4df 893d
00000080: 3075 0b3e a62f 543e 37cf e0bd ed7b 38bd
00000090: 3606 6ebe e5b7 c23c 7611 fd3c 01db 13be
000000a0: 6dcb 463e c301 92bc e046 cdba c137 ebbc
000000b0: 10d5 61bd a0cd c1bd 52b3 8b3d 3570 2e3e
000000c0: 57c0 243c c5d4 7c3e 35a1 c8bd c290 fe3d
000000d0: 095a 92be c5cc f93d baa8 9f3d ac0e c23d
000000e0: 6a13 5fbe 6bc3 833e ec2e e6bd 216c 63bc
000000f0: 6cdf 573e 0d3b 84be 95c2 523e 5e85 c1bd
00000100: 3c93 80be 2502 43be 31ef 49be dcad 863e
00000110: 1ef9 323e 73e3 45be 2a91 b83d ba1c c63d
00000120: 2478 533c 91ce 223e 85a9 7bbe aa1d 2f3e
00000130: dabc 433e ad59 553b 0f16 48bb 8626 57bd
00000140: d6af 6abc 2b59 5ebe 32f2 623d 4970 983c
00000150: 4778 14bc 014d 923e 195a 46bb 30a3 97be
00000160: c1ea 6f3c 952d 7bbe f700 52be c15f 06be
00000170: eab8 76be fd6f 5ebe 7755 57bd 5689 583d
-0.10967852 0.28568122 0.08330511 -0.06144025 -0.24673927 0.26830637 -0.17320682 0.039106768
0.18937106 -0.28730088 0.075385205 0.25961086 -0.13765457 -0.10069003 -0.28561628 -0.27539402
-0.07281003 0.16599683 -0.025468836 -0.20815407 0.18000977 0.031158434 0.21912266 -0.3213741
-0.27206498 0.027922085 -0.22963633 -0.25127488 0.18187335 -0.25816137 -0.30466393 0.06732169
0.13618922 0.20721301 -0.10977023 -0.04504006 -0.23244557 0.023769328 0.030892115 -0.14439012
0.19413538 -0.017823106 -0.0015661381 -0.028713109 -0.055134833 -0.09463048 0.06821312 0.17034991
0.010055623 0.2469054 -0.09796373 0.12429954 -0.28584316 0.1219726 0.07795854 0.09475455
-0.2178475 0.2573503 -0.112394184 -0.01388076 0.21081322 -0.25826302 0.2058204 -0.09449266
-0.2511233 -0.19043787 -0.1972015 0.2630452 0.17477843 -0.19325046 0.09012063 0.09673448
0.012907062 0.15899111 -0.24576385 0.1710116 0.1911501 0.0032554672 -0.0030530726 -0.052526973
-0.014324149 -0.21713702 0.055406757 0.01860823 -0.0090618795 0.28574374 -0.0030266105 -0.2961669
0.014643372 -0.24529107 -0.2050818 -0.13122465 -0.24093977 -0.21722408 -0.05257174 0.05286535

features.7.bias f4 [8]
00000000: dcb3 cf3d baff 093d 52a1 1a3d 15fb 843e
00000010: 1aca 463c 25b4 a53b a2d2 953d 9933 553c
0.10141727 0.033691145 0.037751503 0.2597281 0.012133146 0.0050568753 0.07315566 0.01301279

features.9.weight f4 [8]
00000000: 4787 6a3f 43dd 873f f94e 713f 7277 873f
00000010: 9b84 813f 1b0d 713f 81e2 813f 37d1 8b3f
0.91612667 1.0614399 0.9426113 1.0583327 1.0118593 0.9416062 1.0147249 1.0923222

features.9.bias f4 [8]
00000000: e224 483d 5d63 a2bd a716 65bc 02ae a1bd
00000010: 0c87 abbc fd15 bc3c 0686 6abd 611a 7ebd
0.0488633 -0.07929108 -0.0139824515 -0.078945175 -0.020938419 0.022959704 -0.05725672 -0.062036876

features.9.running_mean f4 [8]
00000000: 88d9 1f3e 940e 263e 7d06 643e 43a6 a23e
00000010: 9802 bf3d 8aa7 c53d deda ec3d 9f99 d73d
0.15610325 0.16216499 0.222681 0.31767473 0.093266666 0.09651096 0.11565183 0.10527348

features.9.running_var f4 [8]
00000000: eb4a 3f3e 0332 473c 7eb1 803c fef1 073d
00000010: f03b 0b3d 31e3 8e3d 5937 1c3e 16e0 5c3c
0.18680923 0.01215792 0.015709635 0.033189766 0.033992708 0.06976927 0.15255488 0.013481161

features.10.weight f4 [8, 8, 3]
00000000: 76e0 86bb 2810 7e3b 21af 4a3b 7cc8 383b
00000010: a899 c93b 0ee9 783b 68b0 893c 21a0 273c
00000020: bbb4 1b3a e9d7 9abb 7ae7 19bc a1b0 88bc
00000030: eb7c e0bb 3975 47bc 8447 46bb e465 d3bb
00000040: ddcf 8a3b 3c65 ea3b ff94 233b 542f 66bb
00000050: eecd 1dbc 0947 05bc e5b3 0fbc 09a4 b9bb
00000060: 2ad5 033a 74a7 973a 6e0e 33bc 5cba b03b
00000070: de92 8dbb d4ed a33b 2053 073c fe46 313b
00000080: 4a6b 3d3b f09d 37b9 8913 81bb d86f 68bc
00000090: 228e 15bc 5ba1 073b 3c83 3a3c 9cc3 993a
000000a0: fabc eebb 9ede e7bb 1676 773b 9570 303a
000000b0: 4334 ce3b 5bfc acbb b534 32ba 2bb9 643c
000000c0: 9a88 203b 8b8b 76bc 727c d6bb d41b 0abc
000000d0: bba6 f3bb 7af4 b0bc c543 35bc d20f 13bc
000000e0: cc7c fcbb a0ae 84bb e215 fbbb a401 c33b
000000f0: 9b56 9f3b db1d 0b3b 3f24 a039 d16f 1f3b
00000100: b6ce 0fbb 18eb 68bc 0526 9fbb 2764 aab9
00000110: d7af f9b9 4e8b f4bb 4c18 8fbc 124a 2abc
00000120: 9642 9d3b 5b6d deba 4cc7 82bc 7f3d 453b
00000130: 4c8b 23bb fda1 b83a e42c a03b 61a7 d43b
00000140: 3878 0e3b 7578 f03a 2974 50ba 47a5 a2bb
00000150: 4854 77ba 34a4 b83b be86 913b cacc 623c
00000160: 5c14 a23c 1197 20bb cdd9 673a 052c 97bb
00000170: 972f 07bc d43c a839 7a90 f6bb 2345 17bc
00000180: 604c 4abb 7b82 553b 43d3 5f3b 6680 80bc
00000190: 1e2a 02bc 4f91 b6bb df4a 44bc 0f9e 12bc
000001a0: dbce b73b 50b4 41ba 5462 bdb9 8297 803b
000001b0: b2fe 9c3b a453 1fbb 23f4 74bb 1e1f 3e3b
000001c0: 1245 143c 0d63 6cbb b612 00bb 823f 36bb
000001d0: 13a1 1abc 7208 593c f9c9 013c 6965 05bb
000001e0: 85aa 443b 758b e33b f121 213c 8ba9 003b
000001f0: 7f8d 15bb 214d e5bb 7b55 2aba efc4 1ebc
00000200: a53a 123c 3698 7cba a965 733a 78d3 42b8
00000210: c3fe 5d3c 00bd bb3b d658 023b 4c75 1f3c
00000220: 599a 0f3b 11ab 4cbb 61b0 173c 48a8 053c
00000230: 0427 e839 ed59 343a 1bf0 6eb9 dcb1 06bc
00000240: a90d 153a 7857 4cbb fb71 2c3c 845e 0abc
00000250: 500f f53b fe9a 66bc 5a7c 31bb 8951 4ebb
00000260: 52b0 7ebc be59 b03c 5c7a 143b 461a 2a3c
00000270: c483 7bbc 272f d7bb f54c 30bc af7f febb
00000280: 0c3f 56bc 7c1f 643b 9116 38bb 6337 9a3b
00000290: 4586 95bb 7b25 383c fb53 c33b 9378 1dbb
000002a0: fd84 1e3c 145a edba c05d 2cbb eb77 0ebc
000002b0: 68c7 cabb a567 e8ba ef8f ae3b 04d0 0fbc
000002c0: 4e1c e0bb 1114 07bc 844b 46bc 78b0 38bc
000002d0: fb71 d5bb 4737 70bc a87c e2bb f852 8e3b
000002e0: 38f4 09bc 0a20 88bb a526 533b e4c9 483b
000002f0: 15e7 2dbb 0ca6 06ba 403b 873b 42f5 e33b
-0.0041161133 0.0038766954 0.003092714 0.002819567 0.0061523505 0.0037980708 0.01680775 0.010231049
0.00059397117 -0.0047254455 -0.009393567 -0.016685786 -0.006850829 -0.012173944 -0.003025503 -0.0064513553
0.004236205 0.0071531814 0.0024960635 -0.0035123425 -0.009631617 -0.008134612 -0.008770918 -0.0056653065
0.00050290173 0.0011570291 -0.010928733 0.0053933095 -0.0043204864 0.0050027166 0.008259565 0.0027050371
0.002890306 -0.00017511076 -0.0039390964 -0.014186822 -0.009128125 0.002069554 0.011383828 0.001173127
-0.0072857114 -0.0070760986 0.0037759594 0.0006730643 0.006292851 -0.0052791066 -0.0006798015 0.013960163
0.0024495483 -0.015047918 -0.0065455968 -0.008429486 -0.0074356473 -0.02160095 -0.011063521 -0.00897594
-0.0077053066 -0.0040491372 -0.0076625207 0.0059511233 0.004862619 0.0021227512 0.00030544584 0.0024328122
-0.0021943278 -0.014216207 -0.004856827 -0.00032499546 -0.00047623992 -0.0074628955 -0.01746764 -0.010393636
0.0047991974 -0.0016969846 -0.015964173 0.003009647 -0.0024954854 0.0014086362 0.004888164 0.0064896797
0.0021739136 0.0018346446 -0.00079518795 -0.0049635503 -0.0009434861 0.005634809 0.0044411113 0.013842771
0.019785099 -0.0024504105 0.00088444055 -0.004613402 -0.008251092 0.00032088778 -0.007524547 -0.009232792
-0.0030868277 0.0032578993 0.0034153021 -0.015686225 -0.007944612 -0.0055715214 -0.011980741 -0.008948817
0.005609376 -0.00073892344 -0.0003612215 0.003924311 0.0047911042 -0.0024311328 -0.0037376962 0.0029010247
0.009049671 -0.003606978 -0.0019542403 -0.002780885 -0.009437817 0.013246642 0.007921689 -0.0020354635
0.0030008864 0.006944115 0.009834752 0.0019632305 -0.0022819934 -0.00699772 -0.0006497723 -0.009690507
0.008925115 -0.00096357183 0.0009284863 -4.645015e-05 0.013549509 0.0057293177 0.0019889376 0.009732556
0.0021912067 -0.0031229893 0.009258361 0.008157797 0.00044279557 0.0006879855 -0.00022786895 -0.008221116
0.00056859344 -0.0031180065 0.010525222 -0.008445386 0.007478632 -0.014075039 -0.0027082176 -0.0031481704
-0.015544968 0.021527167 0.002265594 0.010382241 -0.01535124 -0.0065669003 -0.0107605355 -0.007766686
-0.013076555 0.0034808805 -0.0028089623 0.0047063096 -0.0045631253 0.011239405 0.005960939 -0.0024028167
0.009675262 -0.001810851 -0.0026300997 -0.008695583 -0.006188322 -0.0017731084 0.005327217 -0.008777622
-0.0068393117 -0.00824453 -0.012102965 -0.011272542 -0.0065138317 -0.014661617 -0.006911833 0.0043433867
-0.008420043 -0.00415421 0.003221908 0.0030637914 -0.002653544 -0.0005136437 0.004126936 0.0069567272

features.10.bias f4 [8]
00000000: 1dcc 9abb b1d2 9e3c cf8d 713a 45ef e23a
00000010: 7b1d ac3b c05e bcbb 6d35 5cbb 2ceb bd3b
-0.004724039 0.019387575 0.00092145515 0.001731374 0.005252538 -0.0057486 -0.003360118 0.005795857

features.13.running_mean f4 [8]
00000000: 051b b23c 21db e83c bb46 d83c 73ee 9b3c
00000010: d935 cf3c 5861 8a3c 14ff 8e3c 9e7f d43c
0.0217414 0.028424801 0.026400914 0.0190346 0.025294231 0.01689212 0.017455615 0.025939759

features.13.running_var f4 [8]
00000000: bf5f b83a 6dba 723a a66d aa3a 16b8 8f3a
00000010: 0ac2 be3a f9e4 2d3b cc27 eb39 d1a9 b73a
0.001406662 0.0009259347 0.0013002648 0.0010964896 0.0014553678 0.0026534183 0.00044852344 0.0014012401

classifier.0.weight f4 [17, 1672]
00000000: ff11 52bd ec85 34bc 0769 9c3c 97ef 8bbc
00000010: 0444 823d 799c fdbb f7da 50bb 3a9e cabc
00000020: 199f 623c 6f00 d83c 2d71 8a3c 5a4f 59bb
00000030: 2d8f ba37 404f 7bbc 5d67 0abd 0b70 51bd
00000040: ec2c 45bc f2e3 48bd b651 02bd 4e28 d9bc
00000050: 27e1 15bd 9289 4c3c 0610 02bd 96a3 aa3c
00000060: 75b2 bbbb 8a56 d3bc b670 9fbd 2530 e4bc
00000070: f366 42bd cc72 03bc d2a6 bd3c f420 c23c
00000080: b75b b1bc 8d70 9f3c 3daa c43a 148b ef3c
00000090: 5463 703c 22be 123d 99d2 e7bb 060d f7bb
000000a0: 0415 52bd 5d0f b33a 4af5 f33c 553a 6cbd
000000b0: 888c 60bc babb 3cbd 60e9 e13b 91b5 dabb
000000c0: 25c9 cd3b a89f 293d 0d68 653c 3646 8e3b
000000d0: 8d22 563d 385b 74bd 950b b9bc 3337 dbba
000000e0: 1450 0abd ad19 873a 4410 9ebc a885 41bb
000000f0: 55bc 613c c628 00bd 1050 d2bb 20c7 80ba
00000100: 6636 b8bc 0ff0 a03b bbc7 813c d767 2e3b
00000110: e879 123d 1873 543c 7135 0fbc f016 eb3c
00000120: 597b bd3c 60e9 92bc 9f1d c23c 15d2 23bd
00000130: 6f9d 57bc 82b2 9bbc 7ec1 7ebd a910 90bc
00000140: 4c04 97bc a629 443c 06a6 2fbb 71de 09bd
00000150: b4d8 ebbc 8da3 23bb 78cc fa3c b0de e03c
00000160: d20c 603c cc84 2dbc a77e 0e3d 36e8 343c
00000170: 8e2a 96bc efed fabc b127 863b 2e42 9f3b
00000180: e9a1 983b a9d3 f73c 0d49 b73c c62d 99bb
00000190: ff47 66bc a52e a73c 1a63 913c 81c0 10bc
000001a0: faf1 2cbd d03f 12bd bd8b e73b 75dc ee3c
000001b0: 523e f53c a501 a6ba 7e72 9d3b 5220 303d
000001c0: 880b f9ba 9cd0 ddbc fddb a33c f655 6e3b
000001d0: e3d8 e93b d0d5 e6bb 6ff3 363c 45ff 513d
000001e0: 2ee3 1c3d 138a 353c c11b ef3c 1c0c 063c
000001f0: b383 f43c d203 1b3d 6b29 3cbc f014 143d
00000200: 099f 163c 9f36 ad3c 7af4 1b3d 7be4 393d
00000210: 3353 5e3d 8ca1 713d 9d74 2e3d b48c d1bc
00000220: cad4 61bc fdbd f3bd 47c7 01be 642c 04bd
00000230: 0465 983a d0c0 b1bc d363 e9bc 76f9 48bd
00000240: 86b3 023d 11da 343c 77ba c23d a6ff 0a3e
00000250: 2aa4 e43c f525 803c 67b9 c23d 8cf0 8d3d
00000260: ea7d df3d d42a 8f3c c675 b2bc 28d5 cd3c
00000270: 5e18 153d bcc2 94b9 6b04 8d3d 4492 af3c
00000280: a40a 493a cd64 c2bc d323 b8bc 3dec 533c
00000290: 2541 423d 0d7a 53bc 0d9f c63c c345 aa3c
000002a0: 5e3f 2e3c 0bed 933c d553 a93c aadb 00bc
000002b0: 2c67 0abd 2825 e1bc 2f2d 53bb 2c0a 853c
000002c0: 3c45 8a3c 26a5 afbc 4c05 ab3b 81a2 c5bb
000002d0: d5e8 203d 4dd3 29bb 78a7 3f3b ae0c 9cbc
000002e0: e55c e43c 1aa4 a83c dac0 fd3a c780 263c
000002f0: 2814 74bd f623 f7bc fc00 b0bd 6a0c 103c
00000300: 9ad0 823c f70a afbc c656 583c b189 e33b
00000310: f7e8 42b9 9ee6 9b3c c586 c23c d184 4d3d
00000320: 8c81 9ab7 46a4 263c 6c47 953c 62eb 00ba
00000330: 9d91 f13c 2e25 543c dd08 f13c d971 af3b
00000340: f28f 933d c4ef febc b433 e9bc dfaf 123c
00000350: 5008 8e3c 5e8a 04bb 49a2 a3bc 926e ff3c
00000360: efcd 173d e852 8ebc 3fcf 2d3c 1bd6 6b3d
00000370: 6e12 9f3c 4108 373c 9e75 c63b 1705 773b
00000380: 6e9d 4e3c a2a0 303c ae69 eb3c 71ef 0c3b
00000390: bfeb d23b 9af7 b33b 7ff8 6ebd 90b2 483d
000003a0: 7563 97bc 5d5b 723c 0a23 0a3d b0df ffbc
000003b0: 7070 64bd 2684 96bd 8861 c93b 1480 c7bc
000003c0: 0096 0fbd b685 08bd 3e35 aa3c f822 afbb
000003d0: 1237 403b b080 483c 7628 d9bb 4310 a03c
000003e0: 217f 183d 7061 d33c 1923 05bb 702f 79bd
000003f0: ba50 0cbd bcfb 683c ba7a 913b 9533 1b3d
-0.051286694 -0.011018258 0.01909305 -0.017082019 0.06360629 -0.0077396003 -0.0031868794 -0.024733651
0.013831877 0.026367394 0.01689967 -0.003315887 2.22396e-05 -0.015338719 -0.03378998 -0.051132243
-0.012034636 -0.04904551 -0.031816207 -0.026508477 -0.036591675 0.012483971 -0.031753562 0.020829957
-0.005728061 -0.025798101 -0.0778517 -0.027854988 -0.04746146 -0.008022975 0.023150835 0.023697354
-0.021650178 0.019462848 0.0015004348 0.029241122 0.014672119 0.035825856 -0.0070746657 -0.0075393943
-0.051289573 0.0013661195 0.029780049 -0.057672817 -0.01370538 -0.046077468 0.0068942755 -0.0066744764
0.006280082 0.041412026 0.014001858 0.004341866 0.052279044 -0.059657305 -0.02258853 -0.0016724825
-0.033767775 0.0010307335 -0.019294865 -0.0029529128 0.013777812 -0.031288885 -0.0064182356 -0.0009824969
-0.022486877 0.0049114297 0.01584231 0.0026612186 0.03576079 0.012966894 -0.008740769 0.02869746
0.023130106 -0.017933547 0.023695765 -0.03999527 -0.013160094 -0.019006018 -0.062196247 -0.01758607
-0.018434666 0.01197282 -0.0026801839 -0.033659402 -0.028789856 -0.002496931 0.030615076 0.027449936
0.013674932 -0.010590743 0.034788754 0.0110416915 -0.018330839 -0.030631034 0.004094087 0.004860184
0.004657973 0.030252295 0.0223737 -0.004674646 -0.014055251 0.020407984 0.01774745 -0.008834959
-0.042222954 -0.035705388 0.0070662186 0.029157856 0.029936943 -0.0012665285 0.0048049083 0.042999573
-0.0019000629 -0.027077012 0.02000236 0.0036367155 0.0071364506 -0.0070445314 0.0111664375 0.051268835
0.038302593 0.011080283 0.029188039 0.008181598 0.029847955 0.03784544 -0.011484484 0.03615278
0.00919319 0.02114421 0.038074948 0.04538391 0.054278564 0.058991954 0.04259168 -0.025579788
-0.013783643 -0.11901472 -0.12673675 -0.032268897 0.0011626785 -0.021698385 -0.028489983 -0.04906603
0.03190949 0.011038319 0.095082216 0.13574085 0.02791031 0.0156431 0.09508019 0.06930646
0.10912688 0.017476477 -0.021784674 0.025126055 0.03640019 -0.00028373848 0.06885608 0.02143205
0.0007669127 -0.023729706 -0.02247802 0.012934742 0.047425408 -0.012907517 0.024245763 0.020785218
0.010635225 0.018057367 0.020669857 -0.007864872 -0.0337898 -0.027483538 -0.0032222976 0.016240202
0.016878717 -0.021441054 0.0052191373 -0.006031335 0.039284546 -0.0025913299 0.0029244106 -0.019049015
0.027876327 0.020586062 0.0019359842 0.010162539 -0.059589535 -0.030168515 -0.08593938 0.008792022
0.01596861 -0.021367533 0.013204282 0.0069439043 -0.00018588068 0.019030865 0.023745904 0.05017549
-1.8418556e-05 0.010171002 0.018222533 -0.0004917887 0.02948838 0.012948317 0.029423172 0.005354148
0.0720519 -0.031120189 -0.028467037 0.008953064 0.017337948 -0.0020224075 -0.019974845 0.031180654
0.037061628 -0.017373517 0.010608493 0.057577234 0.019417968 0.0111714015 0.0060565015 0.0037692243
0.012610776 0.010780485 0.028736915 0.0021505023 0.0064367945 0.005492163 -0.058342453 0.048998415
-0.018480042 0.0147922905 0.033724822 -0.031234592 -0.05577129 -0.07349424 0.00614566 -0.024353065
-0.03505516 -0.03333064 0.020777341 -0.005344745 0.00293297 0.012237713 -0.006627138 0.019539004
0.037230615 0.025803298 -0.002031511 -0.060836256 -0.034256674 0.014220174 0.004439679 0.03789099

classifier.0.bias f4 [17]
00000000: c2b3 41bd c952 4cbd 491e 07bc af85 a4bc
00000010: a266 09bd d832 0fbd d37a 43bc d0bc 8fbd
00000020: dc12 62bd 6346 39bd dd24 34bd c250 f9bc
00000030: d61b 26bd 824a 9dbd 1e70 cdba 2d1d debb
00000040: bfe6 90bc
-0.04729057 -0.049883638 -0.008246967 -0.020083277 -0.033545144 -0.034960598 -0.011931139 -0.07018435
-0.055193767 -0.04523314 -0.043980468 -0.030434016 -0.04055389 -0.07680227 -0.0015673672 -0.0067783804
-0.017688153
