models/2305109416.pt (torch, 124075 bytes, 24 tensors)

features.0.weight f4 [4, 1, 3]
0	0x3e9f5eec	0.31127107
1	0xbe6e1819	-0.2325138
2	0xbdf879bf	-0.12132596
3	0x3e844404	0.25833142
4	0xbf0e84f0	-0.55671597
5	0x3ea1a995	0.31574693
6	0xbe003f89	-0.12524237
7	0x3e91bee5	0.28465953
8	0x3d791ba7	0.060817387
9	0xbd83f94f	-0.06444036
10	0x3e2da50f	0.16957496
11	0x3cec9ab6	0.028882366

features.0.bias f4 [4]
0	0x3e3a49d5	0.18192227
1	0xbe831f43	-0.25609788
2	0xbd725f6e	-0.05917304
3	0xbd5bf3ef	-0.05369943

features.2.weight f4 [4]
0	0x3f7aece5	0.9801772
1	0x3f799328	0.9749017
2	0x3f8543a4	1.0411267
3	0x3f81f09a	1.0151551

features.2.bias f4 [4]
0	0x3d0e7fcb	0.03478984
1	0xbc0cc42d	-0.008591694
2	0xbd32011e	-0.043458097
3	0x3b934b75	0.004495079

features.2.running_mean f4 [4]
0	0x3e383759	0.17989863
1	0x3283acaa	1.5328926e-08
2	0x3b38c34c	0.0028192578
3	0x3a83a012	0.0010042212

features.2.running_var f4 [4]
0	0x390f1051	0.00013643621
1	0x30723a4f	8.812195e-10
2	0x398c9f21	0.0002682144
3	0x385f355f	5.321705e-05

features.3.weight f4 [4, 4, 3]
0	0x3d915fa3	0.070983194
1	0x3d17f266	0.037096404
2	0x3e80ea25	0.25178638
3	0x3db56922	0.08857943
4	0xbde5ecef	-0.11226832
5	0xbe37693e	-0.1791124
6	0xbdcb7f91	-0.09936441
7	0xbdfd6ad5	-0.12373892
8	0xbdc9cdd9	-0.098537154
9	0xbd0a994b	-0.033837598
10	0x3e3978e8	0.18112528
11	0x3e193e12	0.14965084
12	0xbe8f866e	-0.2803225
13	0x3e25c0ed	0.16186877
14	0x3db99ed4	0.09063497
15	0x3e55ad6a	0.20866933
16	0x3e270e4d	0.16314049
17	0xbe9896b7	-0.29802486
18	0xbe854433	-0.26028594
19	0xbe01e735	-0.12685855
20	0x3e97a66e	0.29619163
21	0xbdcebcd4	-0.1009461
22	0x3dba97bc	0.09110972
23	0xbdfecbf3	-0.12441244
24	0x3e742897	0.23843609
25	0xbd330f4f	-0.04371577
26	0x3e871cc2	0.26389128
27	0xbcae645c	-0.02128809
28	0xbe350732	-0.17678526
29	0x3e0b402b	0.13598697
30	0xbe5f8ef7	-0.2183188
31	0x3d625bec	0.055263445
32	0xbdf4a31c	-0.11945173
33	0xbde16337	-0.11005252
34	0xbe96cdef	-0.2945399
35	0xbe2906e0	-0.16506529
36	0x3dbb0d43	0.09133389
37	0xbe1ae566	-0.15126571
38	0x3e6cc12d	0.23120566
39	0x3e6db2b2	0.23212698
40	0x3d36bc6a	0.04461328
41	0xbe1828e8	-0.14859354
42	0x3e8cd5b2	0.27506787
43	0x3e32fc38	0.17479026
44	0xbe09ec91	-0.13469149
45	0x3e4520cc	0.19250792
46	0x3e325b4f	0.17417644
47	0x3e83ee67	0.25767824

features.3.bias f4 [4]
0	0xbdfdd47b	-0.12394043
1	0xbcaf2aa4	-0.021382637
2	0x3ce75ddd	0.028243
3	0xbba31287	-0.004976574

features.5.weight f4 [4]
0	0x3f7e4a65	0.9933227
1	0x3f6a032e	0.914111
2	0x3f88f478	1.0699606
3	0x3f7e7c68	0.9940858

features.5.bias f4 [4]
0	0xbdb0c763	-0.0863178
1	0xbd5eb51f	-0.05437195
2	0x3cd56955	0.026051203
3	0x3d0b2971	0.03397507

features.5.running_mean f4 [4]
0	0x3c73a634	0.014871169
1	0x3c98554a	0.018595356
2	0x3e6aca71	0.22928788
3	0x3dfadd08	0.122491896

features.5.running_var f4 [4]
0	0x3bf5af09	0.0074976725
1	0x3b286b86	0.0025698855
2	0x3cb07de9	0.021544414
3	0x3f2cf165	0.6755584

features.7.weight f4 [8, 4, 3]
0	0xbe59db33	-0.21275024
1	0xbe3b7391	-0.18305804
2	0x3e27ac85	0.16374405
3	0x3cb15914	0.021648921
4	0x3e2b48ba	0.16726962
5	0x3c1186a4	0.0088821985
6	0xbda40d1d	-0.08010314
7	0xbcfc411f	-0.03079277
8	0x3e2cbdd0	0.16869283
9	0x3e1b6613	0.15175657
10	0xbe8866ad	-0.26640835
11	0x3dd95e10	0.10613644
12	0xbe7376f0	-0.2377584
13	0xbe2d5134	-0.16925508
14	0xbd1c3cad	-0.038143802
15	0x3b0ff458	0.0021965709
16	0x3d988628	0.07447463
17	0xbdbd0f7e	-0.092314705
18	0xbeb4db20	-0.3532343
19	0x3e273a6d	0.16330881
20	0xbd8c3cc2	-0.06847526
21	0x3e07b93c	0.13254255
22	0x3d89df39	0.067320295
23	0xbe6be004	-0.23034674
24	0x3de22707	0.110426
25	0x3d442c99	0.047894094
26	0xbe53e852	-0.20694092
27	0xbe0e9414	-0.13923675
28	0x3e016523	0.12636237
29	0xbc3a5b06	-0.011374241
30	0xbc2ed428	-0.010670699
31	0xbd5a3d80	-0.053281307
32	0x3e5093a1	0.20368816
33	0xbd191230	-0.03737086
34	0x3e81b0b7	0.25330135
35	0x3e374bde	0.17900035
36	0xbe81babc	-0.2533778
37	0xbe87bf9e	-0.2651338
38	0x3ddae747	0.10688644
39	0xbd8531f1	-0.06503666
40	0x3df78f18	0.1208784
41	0x3d240074	0.040039495
42	0x3e88aec0	0.26695824
43	0x3e930488	0.28714395
44	0x3e7aecaa	0.24504343
45	0xbe22b1e8	-0.15888178
46	0x3c9fda59	0.019513296
47	0x3e81a05d	0.2531766
48	0x3e1a2980	0.15054893
49	0x3e33fa09	0.1757585
50	0xbe491a3b	-0.19638912
51	0xbe85efa8	-0.26159406
52	0xbe7c45bb	-0.24635975
53	0x3cf8aec0	0.030356765
54	0x3e87feaf	0.26561496
55	0xbe009e94	-0.12560493
56	0x3e78fd50	0.24315381
57	0xbe6ed767	-0.23324357
58	0xbe957573	-0.2919117
59	0xbdcf59cc	-0.10124549
60	0x3e25dc88	0.16197407
61	0x3e8834fc	0.26602924
62	0xbdfe3473	-0.12412348
63	0x3de8a1da	0.11358996
64	0x3e7aaa66	0.24479064
65	0x3e097845	0.13424785
66	0x3e2a07f6	0.166046
67	0x3e63ae9b	0.22234575
68	0x3e7a4719	0.24441184
69	0xbcdec713	-0.027194535
70	0xbea1b931	-0.31586602
71	0xbe8da4a3	-0.2766467
72	0xbe3bb9ba	-0.18332568
73	0xbd6868c2	-0.05674053
74	0xbe5e83a8	-0.2172991
75	0x3d87d7bc	0.06632945
76	0x3dc73d58	0.09728497
77	0xbb4f51c1	-0.0031634422
78	0x3e00144e	0.12507746
79	0x3daf6f95	0.085662045
80	0x3e1d91f2	0.15387705
81	0x3e744bd7	0.23857056
82	0xbde77a50	-0.11302626
83	0x3e54c35f	0.20777653
84	0xbdfa52ac	-0.122228
85	0xbde37d10	-0.11107838
86	0xbeb87540	-0.36026955
87	0xbe371e80	-0.17882729
88	0xbe702c26	-0.23454341
89	0xbe2ddc64	-0.16978604
90	0x3e41e524	0.18935066
91	0xbba2b54e	-0.004965461
92	0xbe487593	-0.19576101
93	0xbd7b56a2	-0.061361916
94	0xbc01f341	-0.007931531
95	0x3dc7e601	0.09760667

features.7.bias f4 [8]
0	0xbdfd632e	-0.12372433
1	0x3e34794d	0.17624398
2	0xbda7f29b	-0.0820057
3	0xbd1350f1	-0.035965864
4	0xbe29140f	-0.16511558
5	0xbdebd57b	-0.115153275
6	0xbd1d3cc2	-0.03838802
7	0x3e55029c	0.20801777

features.9.weight f4 [8]
0	0x3f733011	0.9499522
1	0x3f85266c	1.040235
2	0x3f8a6a79	1.0813743
3	0x3f8e3136	1.1108768
4	0x3f7f984d	0.9984177
5	0x3f6993e7	0.91241306
6	0x3f7f9448	0.99835634
7	0x3f8c4abe	1.096031

features.9.bias f4 [8]
0	0x3e29e4a3	0.16591124
1	0x3d75b958	0.05999121
2	0x3d77d3e0	0.060504794
3	0xbe4d2861	-0.20034935
4	0x3d2bf521	0.04198182
5	0x3ca421c9	0.020035641
6	0xbd6e1f4f	-0.058135327
7	0xbd8b88ca	-0.068132

features.9.running_mean f4 [8]
0	0x3d980857	0.07423466
1	0x3e84e499	0.25955656
2	0x3d9b0d1d	0.075708605
3	0x3e5c4865	0.21511991
4	0x3ddcd5f4	0.10782996
5	0x3e6a714a	0.22894779
6	0x3de097f3	0.10966482
7	0x3ecafbfa	0.39645368

features.9.running_var f4 [8]
0	0x3dd18e6a	0.102322415
1	0x3d0fa4a6	0.03506913
2	0x3e15d380	0.14631462
3	0x3d84fe06	0.064937636
4	0x3e2ae57a	0.16689101
5	0x3f4ff7f7	0.8123774
6	0x3d3c9a75	0.04604574
7	0x3d47c84c	0.048775002

features.10.weight f4 [8, 8, 3]
0	0x380159c9	3.0839616e-05
1	0xbabb384c	-0.0014283746
2	0x3c24c648	0.01005704
3	0x3bf38f10	0.007432826
4	0x3c2a4c9d	0.010394243
5	0x3b69fb19	0.0035702644
6	0xb9eaec95	-0.00044808225
7	0x3c22bbbe	0.009932457
8	0x3b000258	0.0019532647
9	0xbbde56ec	-0.0067852642
10	0xbc321bd8	-0.010870896
11	0xbbd07c93	-0.0063625067
12	0xbb3fea28	-0.0029283855
13	0x3b27740d	0.002555135
14	0xbba33593	-0.004980752
15	0x3b579b37	0.0032898912
16	0xbac138e1	-0.0014741683
17	0xbb52e8dd	-0.0032182254
18	0xbba57dc1	-0.0050503914
19	0xbb9ccdb3	-0.0047852634
20	0xbb420f98	-0.0029611345
21	0x3b1f88cd	0.0024343014
22	0x3c2ae1b5	0.010429789
23	0xbaad1cf0	-0.0013207477
24	0x3a456700	0.0007530302
25	0x3c20c666	0.009812927
26	0x3bfa5cd5	0.007640461
27	0xbb64c3cf	-0.003490675
28	0xbab0ca12	-0.0013487956
29	0xbaf41473	-0.0018621817
30	0x3bc922d9	0.0061381874
31	0x3b769fac	0.0037631793
32	0x3b1bd661	0.0023778903
33	0xbba833eb	-0.005133142
34	0xbb7bf2fb	-0.0038444388
35	0xba0cf9e9	-0.00053778157
36	0x380a0c9b	3.2913504e-05
37	0xb6236569	-2.4347921e-06
38	0x3a0fa009	0.0005478864
39	0xbbc1b256	-0.005911152
40	0xbb949854	-0.0045347605
41	0x3b4bdbb8	0.0031106304
42	0x3bcd4de0	0.006265387
43	0x3bc3ed75	0.005979235
44	0x3bd52de5	0.006505715
45	0xbc5f078c	-0.013612639
46	0x3b6ccbb1	0.0036132152
47	0x3c7f8720	0.015596181
48	0xbb4ae837	-0.0030961165
49	0x3c1ee0e8	0.0096971765
50	0xbba2ac6b	-0.0049644015
51	0xbb22b61c	-0.0024827784
52	0xbaa1e28c	-0.0012350841
53	0xbaa6b4c7	-0.0012718671
54	0x3b535be6	0.003225082
55	0x3c136de1	0.008998365
56	0x3bc382aa	0.005966504
57	0x3bb29460	0.0054498166
58	0x3b4d5278	0.0031329673
59	0xbba36e35	-0.004987503
60	0x3c668b27	0.014071262
61	0x3a4ace66	0.0007736444
62	0x3bff0380	0.0077823997
63	0xbbd105ee	-0.0063788807
64	0xbbc7681d	-0.0060854093
65	0x3b8c1ce2	0.004275904
66	0xbb5d7e49	-0.0033797196
67	0xbc2d5ca6	-0.010581171
68	0xbb2da8c7	-0.0026498304
69	0xbadb88e0	-0.0016749166
70	0x3b80c392	0.003929564
71	0x3b8bfd16	0.0042721136
72	0x3b25a8ea	0.0025277683
73	0xbbd48be7	-0.006486404
74	0xbbc4ca31	-0.0060055484
75	0xbc078acb	-0.008272837
76	0xbb87c6de	-0.00414358
77	0x3c11eaea	0.0089061055
78	0x3b5b0aed	0.003342326
79	0x3b351b63	0.0027634732
80	0xba195025	-0.0005848429
81	0x3bd173a9	0.0063919616
82	0x3bb2299b	0.0054370887
83	0xbb593081	-0.0033140483
84	0x3b190e41	0.0023354443
85	0x3b95396d	0.004553965
86	0x3a70583c	0.00091684214
87	0x3b7e3266	0.0038787364
88	0x3c1a41be	0.009415088
89	0xbaf03cc1	-0.0018328653
90	0xba3d535e	-0.00072222005
91	0x3c421e2b	0.011848013
92	0x3b5746f4	0.0032848688
93	0xbb9c746c	-0.0047746208
94	0xbb55d14d	-0.0032625974
95	0xbc073b02	-0.008253815
96	0x3c6c0ee5	0.014407848
97	0xbb34ce82	-0.0027588909
98	0xbb6f017b	-0.0036469388
99	0x3b534cea	0.003224189
100	0x3bafebc1	0.00536868
101	0x3bbf9248	0.0058462955
102	0xbb289974	-0.002572623
103	0x3aa3321f	0.001245085
104	0xbb6526bf	-0.0034965721
105	0xbc2ba8f5	-0.010477294
106	0xbc802a55	-0.015645185
107	0xbb29004f	-0.0025787537
108	0x3aca6084	0.0015440141
109	0xbb315d5b	-0.00270637
110	0x3b9b548d	0.004740304
111	0xba58415a	-0.0008249484
112	0x3a615564	0.0008595793
113	0xbaed423c	-0.0018101404
114	0xbc1d1ec1	-0.009589852
115	0x3b967cbf	0.0045925076
116	0x3b2bd874	0.0026221545
117	0x3bfd8281	0.0077365045
118	0xbbae418e	-0.0053178733
119	0xbc11f1e3	-0.008907768
120	0x3bf52722	0.0074814716
121	0x3b7e1f28	0.0038775895
122	0x3acec93f	0.0015776529
123	0xbba376f1	-0.004988544
124	0xbc583604	-0.013196472
125	0xbbed7b07	-0.007247332
126	0x39b95299	0.0003534749
127	0xbbc39d90	-0.0059697106
128	0xbbbb33fb	-0.0057129837
129	0xbc10068f	-0.008790626
130	0xb92c8a06	-0.00016454616
131	0xbab3ccc1	-0.0013717638
132	0xbbb3baaf	-0.005484901
133	0xba7603a0	-0.00093846954
134	0xbc231768	-0.009954311
135	0x3be04b4e	0.0068449145
136	0x3b10b10c	0.0022078184
137	0x37add3af	2.072178e-05
138	0xbbf5aae7	-0.00749718
139	0xbbb2fe25	-0.0054624253
140	0xbc23d6f9	-0.009999984
141	0x3c37ace0	0.01121065
142	0x3beb9618	0.0071895234
143	0xbc8a8193	-0.016907489
144	0x3b779260	0.0037776455
145	0x3a83aae6	0.0010045439
146	0x3c927925	0.017880032
147	0x3ba9781d	0.0051717893
148	0xbb098399	-0.002098298
149	0x3b4375d2	0.0029824865
150	0xbc7170c4	-0.014736358
151	0xbc0762c7	-0.008263296
152	0x3a57ebe9	0.00082367525
153	0x3a61cbf5	0.0008613461
154	0xbc0ac508	-0.0084698275
155	0xb9dac454	-0.00041726476
156	0xbbfe58c3	-0.007762046
157	0x3be90a68	0.007111836
158	0x3baad35e	0.005213185
159	0x3c1338f9	0.008985751
160	0x3bc36159	0.0059625325
161	0xbb21eaa8	-0.0024706516
162	0x3b15a2c0	0.0022832602
163	0xbb82e489	-0.0039945287
164	0xbb411fb4	-0.002946836
165	0xba825867	-0.0009944559
166	0xbba64765	-0.005074429
167	0xb815a081	-3.567385e-05
168	0xbb6b7808	-0.0035929698
169	0xbc0964cf	-0.008385851
170	0xbc2bc636	-0.010484269
171	0x3c6b31fe	0.014355181
172	0xbb66d2e0	-0.0035220906
173	0xbc5203ba	-0.012818271
174	0xbbb2d28b	-0.0054572276
175	0xbbad4658	-0.0052879266
176	0xbc42c96e	-0.011888845
177	0xbae86ac9	-0.001773202
178	0x3c01004b	0.007873605
179	0x3b796e83	0.0038060255
180	0xbbf0e35b	-0.0073513216
181	0xbaba9f6e	-0.0014238188
182	0x3bdc01f0	0.006714098
183	0xbb23a54b	-0.0024970348
184	0x3afa5230	0.001909798
185	0xbb99d5e5	-0.0046946877
186	0xbb6ce252	-0.003614564
187	0x3922255d	0.00015463443
188	0x3a78907f	0.0009481981
189	0xbc9bd8dd	-0.019024307
190	0x3a29b570	0.00064738747
191	0x3b70078f	0.00366256

features.10.bias f4 [8]
0	0x3bad27a2	0.0052842656
1	0x3ba45934	0.0050155167
2	0xbb6c8b84	-0.00360939
3	0xbb6913d0	-0.0035564788
4	0x3bc9ecb6	0.0061622513
5	0x3c1d5fb9	0.009605342
6	0xbc7019f8	-0.014654629
7	0xbabcf471	-0.0014416111

features.13.running_mean f4 [8]
0	0x3cc421a3	0.02394182
1	0x3c9a40c7	0.018829716
2	0x3c09af73	0.008403647
3	0x3c47e9ad	0.012201709
4	0x3cc76288	0.024338976
5	0x3cc6dd79	0.024275528
6	0x3c2244c1	0.0099040875
7	0x3c3b4589	0.011430153

features.13.running_var f4 [8]
0	0x3a432e5b	0.0007445567
1	0x3a9fe64f	0.0012199375
2	0x3a800b78	0.0009769043
3	0x3ad113b8	0.0015951311
4	0x3a66f302	0.00088100147
5	0x39eb6eff	0.0004490539
6	0x3a445268	0.0007489086
7	0x39c48068	0.00037479703

classifier.0.weight f4 [17, 1672]
0	0x3bc7b9e8	0.00609516
1	0xbcd4da97	-0.025983138
2	0xbccdc387	-0.025117649
3	0x3d727739	0.05919573
4	0x3d3f4982	0.046700962
5	0x3d7a0d07	0.06104758
6	0x3d031c65	0.0320095
7	0x3cb23b86	0.021756899
8	0xbc281848	-0.010259695
9	0x3c61fa93	0.013792652
10	0x3d4bbb93	0.04973943
11	0x3db7ee08	0.08980948
12	0x3d2e75e7	0.04259291
13	0x3d77c2c3	0.060488474
14	0xbc0257fd	-0.007955548
15	0xbbef634e	-0.007305539
16	0x3cde8455	0.02716271
17	0xbb8e5067	-0.004343081
18	0xbbba9492	-0.0056939805
19	0x3ca5100b	0.020149251
20	0xbcf6584b	-0.030071398
21	0xbd921b78	-0.071341455
22	0x3d0d737a	0.034533955
23	0xbc4c6c7f	-0.012477039
24	0x3cc95115	0.024574796
25	0xbb897825	-0.0041952305
26	0x3d15dbc7	0.03658655
27	0xbd4eed5a	-0.050519325
28	0xbd8974a5	-0.06711701
29	0xbca4020d	-0.02002051
30	0x3db2bce9	0.08727438
31	0x3d071472	0.032978483
32	0x3d9f320f	0.0777322
33	0xbb2f868f	-0.0026783084
34	0x3d001a71	0.031275216
35	0x3d1e673f	0.038672682
36	0x3cce231f	0.025163231
37	0x3dbc70b8	0.09201187
38	0x3d41d7e5	0.047325034
39	0x3d72f123	0.059311997
40	0x3dee3a8e	0.11632262
41	0x3d80809b	0.062745295
42	0x3d383fdd	0.04498278
43	0x3d2fb226	0.042894505
44	0x3d91543c	0.070961446
45	0x3d056ce6	0.032574557
46	0x3d2f95c3	0.042867433
47	0x3cc541e6	0.024079274
48	0xbc8e139d	-0.017343337
49	0x3d0903b7	0.03345081
50	0x3cfcf31c	0.030877642
51	0x3d614f7d	0.055007447
52	0x3c82c9ee	0.015965428
53	0xbcf8b4d8	-0.03035967
54	0xbd3201a0	-0.04345858
55	0xbcaed582	-0.021342043
56	0xbd8d8f5a	-0.06912108
57	0xbd924670	-0.07142341
58	0xbd899831	-0.06718481
59	0xbda7cdd2	-0.08193554
60	0xbd395196	-0.045243822
61	0xbdf86cd1	-0.1213013
62	0xbdef39b4	-0.11680928
63	0xbde7d485	-0.11319832
64	0xbdd63145	-0.10458616
65	0xbda8f3a6	-0.08249597
66	0xbc92423f	-0.017853854
67	0xbcbea91c	-0.023273997
68	0xbc2d8fd3	-0.010593372
69	0x3d09f2a7	0.033678677
70	0xbba214e3	-0.0049463375
71	0x3d5fafeb	0.054611128
72	0x3cd62ba2	0.026143853
73	0x3d9182bf	0.07105016
74	0xbceaaddc	-0.028647356
75	0x3d19ce3e	0.037550204
76	0x3d610d59	0.05494437
77	0x3c842704	0.016131885
78	0x3cd6d0fd	0.0262227
79	0x3dac2a06	0.08406453
80	0x3d9ff541	0.0781045
81	0x3ba86284	0.005138697
82	0x3d2f5458	0.042805046
83	0xbc9a529d	-0.018838221
84	0xbd28e477	-0.041233506
85	0xbcd69044	-0.026191838
86	0xbd23e49b	-0.040012937
87	0xbbf4ff8f	-0.007476754
88	0xbd8b8950	-0.068133
89	0xbd9df592	-0.077128544
90	0xbcae4e56	-0.021277588
91	0xbd3799a7	-0.04482427
92	0xbd467cd6	-0.048458897
93	0xbd1ec5e0	-0.038762927
94	0xbdb36ba3	-0.087607644
95	0xbd5346a1	-0.05158103
96	0xbbc71ec7	-0.006076667
97	0x3ce2460b	0.02762129
98	0xbc50f408	-0.012753494
99	0xbd9740de	-0.07385419
100	0xbbe2abdb	-0.0069174594
101	0x3d1c9c41	0.038234953
102	0x3d382038	0.0449526
103	0x3d3ebc07	0.046566036
104	0xbc005648	-0.007833071
105	0xbcae343d	-0.021265144
106	0x3c144b3e	0.009051142
107	0x3c58a3dc	0.013222661
108	0x3c772c0b	0.015086184
109	0xbd244318	-0.040103048
110	0xbcae8cca	-0.021307368
111	0x3d08f4ab	0.03343646
112	0x3d08eda3	0.033429753
113	0xbd0ffeea	-0.035155214
114	0xbdb10aff	-0.086446755
115	0xbb8e7e8b	-0.004348581
116	0xbc9d5fef	-0.019210784
117	0xbcc4d928	-0.02402933
118	0xbbd3377b	-0.006445823
119	0xbcf155bb	-0.029459825
120	0xbcd18685	-0.02557684
121	0xbdb3f0f4	-0.087861925
122	0xbd4a1324	-0.04933466
123	0x3b921023	0.00445749
124	0x3c767a68	0.015043832
125	0x3c135ab9	0.008993798
126	0xbc87a769	-0.01655932
127	0x3a06da69	0.000514424
128	0x3c91a6b9	0.017779695
129	0x3bef4544	0.0073019583
130	0x3b7aecb8	0.0038288068
131	0x3d8e6f96	0.06954877
132	0x3d82caf9	0.0638637
133	0x3d8f18d3	0.06987157
134	0x3d8a4edd	0.06753323
135	0x3d3ed46e	0.046589307
136	0x3d916318	0.07098979
137	0xbcef5696	-0.029216092
138	0xbd8ec19a	-0.0697052
139	0x3d8d245f	0.06891703
140	0x3d9c5948	0.076342165
141	0xbcfb7c55	-0.030698935
142	0xbd2d6554	-0.042332962
143	0xbd8f0f70	-0.06985366
144	0xbd984948	-0.07435852
145	0xbcb1cdf7	-0.021704657
146	0x3dd31fcb	0.103087984
147	0x3dd0ea2c	0.10200915
148	0x3d85a0f2	0.065248385
149	0x3d26b059	0.040695522
150	0x3d517bf1	0.05114359
151	0x3ca8d7c1	0.020610692
152	0x3d89309a	0.06698723
153	0x3b7722f4	0.0037710043
154	0xbccd384a	-0.025051255
155	0xbde19c51	-0.11016143
156	0xbdd29c01	-0.10283662
157	0xbd9ea55a	-0.07746382
158	0xbdca89c5	-0.09889559
159	0xbd80bb2d	-0.06285701
160	0xbdb11728	-0.08646995
161	0xbce7c932	-0.02829418
162	0xbc98062b	-0.018557629
163	0x3c2d0f74	0.010562766
164	0x3d94a904	0.072588
165	0x3ccd855c	0.025088005
166	0xbd02a696	-0.03189715
167	0x3abf0784	0.0014574383
168	0xbc535493	-0.012898582
169	0xbd203754	-0.039115265
170	0xbd2e3292	-0.042528696
171	0xbd0e9f34	-0.034819797
172	0xbd17ca66	-0.037058257
173	0xbd1b1e5c	-0.03787075
174	0xbd5392be	-0.051653616
175	0xbd12b154	-0.035813645
176	0xbd25a869	-0.04044381
177	0xbd2fcf09	-0.042922053
178	0xbcce1786	-0.025157701
179	0xbd5a7534	-0.05333443
180	0xbc62e4dc	-0.01384851
181	0xbcf2c09a	-0.029632855
182	0xbbd8cee1	-0.0066164588
183	0xbd1bf97a	-0.038079716
184	0xbc619b18	-0.013769887
185	0xbd319331	-0.043353263
186	0xbd1c16b0	-0.038107574
187	0x3c317436	0.0108309295
188	0xbb8d979b	-0.0043210513
189	0x3bb8497b	0.005623994
190	0xbd19c0db	-0.037537437
191	0x39824775	0.00024848772
192	0x3db76483	0.08954718
193	0x3d9f65fd	0.077831246
194	0x3cff1a18	0.031140372
195	0x3b31f6ac	0.0027155085
196	0x3d96057a	0.07325263
197	0xbd1400ec	-0.03613369
198	0x3cde52c3	0.027139073
199	0x3c9cb83c	0.019130819
200	0xbc2f247d	-0.010689852
201	0xbc972fab	-0.018455347
202	0x3ba7d0aa	0.0051213102
203	0x3c5e99da	0.013586486
204	0xbbf7e538	-0.007565167
205	0x3bfbada2	0.0076806108
206	0x3c5a7c59	0.013335311
207	0xba9cf298	-0.0011974154
208	0x3d01d982	0.031701572
209	0xbdd1305f	-0.10214304
210	0xbd174558	-0.036931366
211	0x3ca6db76	0.020368319
212	0x3dc282e3	0.09497621
213	0xbd8a99c0	-0.06767607
214	0xbc48dd66	-0.012259817
215	0x3cd36a30	0.02580747
216	0xbc172d13	-0.009227055
217	0xbcade314	-0.021226443
218	0xbc0739b0	-0.0082535
219	0x3dcc590b	0.09977921
220	0x3d59e949	0.053200994
221	0x3d920aae	0.07130943
222	0x3b647182	0.0034857695
223	0x3c296955	0.0103400545
224	0x3c391173	0.011295664
225	0x3bdd7e34	0.0067594294
226	0xbc5b00c9	-0.013366886
227	0xbd2903fd	-0.04126357
228	0xbd6d5e18	-0.057951063
229	0xbdd1b077	-0.10238736
230	0xbd935ac8	-0.071950495
231	0xbbabe955	-0.005246321
232	0x3d809c10	0.062797666
233	0x3d1ce00a	0.038299598
234	0x3c3f33ef	0.011670097
235	0x3d28b516	0.041188322
236	0xbdb8ec60	-0.0902946
237	0xbc977030	-0.018486112
238	0xbc8a9d5e	-0.016920742
239	0xbae32c74	-0.0017331974
240	0xbc692648	-0.014230318
241	0x3d09c073	0.0336308
242	0x3ca87ec8	0.020568267
243	0xba058947	-0.0005094003
244	0x3bb624b2	0.0055585736
245	0x3d49b317	0.04924306
246	0x3d25993d	0.040429343
247	0x3db14022	0.086548105
248	0x3d907f3d	0.07055519
249	0x3cdd9c31	0.027052017
250	0x3d13d80b	0.036094707
251	0xbacacb9a	-0.0015472055
252	0x3d3012f3	0.04298682
253	0x3d22be9f	0.03973257
254	0xbbe4d555	-0.006983439
255	0x3d202f9c	0.039107904

classifier.0.bias f4 [17]
0	0xbcdd1015	-0.026985208
1	0xbd804ed7	-0.062650375
2	0xbb6d2e3b	-0.0036190886
3	0x3b39fc1f	0.0028379036
4	0xbd08c5c2	-0.03339172
5	0xbd164512	-0.036686964
6	0xbb48b4c1	-0.0030625316
7	0xbd69f872	-0.0571217
8	0xbcaafbca	-0.020872016
9	0xbd9b884e	-0.075943574
10	0xbdab30fc	-0.083589524
11	0xbd3bb229	-0.045824204
12	0xbd635ac0	-0.055506468
13	0xbdcf7cf5	-0.101312555
14	0xbd61c890	-0.055122912
15	0xbd0ca3bb	-0.034335833
16	0xbd67c925	-0.05658831
