models/3028357577.pt (torch, 124075 bytes, 24 tensors)

features.0.weight f4 [4, 1, 3]
0.040325046 -0.34779212 0.18384182 0.18116128 -0.30858037 -0.08653164 -0.33822793 0.14980662
-0.15551952 0.50212526 0.5100011 0.11760278
00000000: e02b 253d cf11 b2be 0841 3c3e 5882 393e
00000010: 3ffe 9dbe 8037 b1bd 362c adbe e866 193e
00000020: 8240 1fbe 488b 003f 6f8f 023f bad9 f03d

features.0.bias f4 [4]
-0.24613711 -0.33911315 -0.06340438 0.00053973007
00000000: 5e0b 7cbe 3da0 adbe 28da 81bd ac7c 0d3a

features.2.weight f4 [4]
1.0 1.0 1.0 0.9996882
00000000: 0000 803f 0000 803f 0000 803f 91eb 7f3f

features.2.bias f4 [4]
-0.057411794 0.08828297 0.10775189 -0.12519486
00000000: a128 6bbd b4cd b43d 06ad dc3d 1533 00be

features.2.running_mean f4 [4]
0.0 0.0 0.0 0.06462264
00000000: 0000 0000 0000 0000 0000 0000 e058 843d

features.2.running_var f4 [4]
8.9074476e-36 8.9074476e-36 8.9074476e-36 0.019690061
00000000: c270 3d05 c270 3d05 c270 3d05 0d4d a13c

features.3.weight f4 [4, 4, 3]
0.19613653 -0.17759874 0.34020808 -0.29924354 0.14825523 -0.12292912 0.07963102 0.043635122
-0.056776263 -0.0022717118 0.17518678 0.0059212483 0.05630497 -0.32015777 0.1086529 0.20952202
0.1832907 0.15004806 0.28724465 0.41165397 0.08229065 -0.032889567 -0.029436417 -0.14979951
0.07322288 -0.20831852 -0.2197093 0.31931874 0.3344016 0.10344356 -0.019101808 -0.0063775675
0.1676386 -0.25669068 -0.18500939 0.2904341 0.24496773 -0.05717819 -0.26812115 0.05193264
-0.090252176 0.04349014 0.16696337 0.15345651 -0.008184076 0.06107594 0.09743734 -0.2141165
00000000: 04d8 483e 72dc 35be c12f ae3e 7336 99be
00000010: 38d0 173e 43c2 fbbd 9715 a33d beba 323d
00000020: 3a8e 68bd 00e1 14bb 2a64 333e 0807 c23b
00000030: 0aa0 663d b8eb a3be 6985 de3d f18c 563e
00000040: 8fb0 3b3e 33a6 193e bb11 933e 4fc4 d23e
00000050: 0088 a83d 36b7 06bd a424 f1bc 0b65 19be
00000060: e1f5 953d 7351 55be 7afb 60be bf7d a33e
00000070: b036 ab3e 38da d33d 657b 9cbc eafa d0bb
00000080: 74a9 2b3e f66c 83be 1a73 3dbe c7b3 943e
00000090: d2d8 7a3e ae33 6abd 2d47 89be 52b7 543d
000000a0: 22d6 b8bd b822 323d 72f8 2a3e b423 1d3e
000000b0: 8116 06bc c42a 7a3d 3a8d c73d 5b41 5bbe

features.3.bias f4 [4]
-0.16228826 0.08862652 -0.10215143 -0.090003565
00000000: e52e 26be d281 b53d c534 d1bd ca53 b8bd

features.5.weight f4 [4]
0.9947483 1.1578501 0.94724435 0.8288065
00000000: d3a7 7e3f 6f34 943f 9b7e 723f aa2c 543f

features.5.bias f4 [4]
0.041323658 -0.112974785 0.0039039133 -0.041459765
00000000: ff42 293d 535f e7bd ccd8 7f3b b7d1 29bd

features.5.running_mean f4 [4]
0.022904074 0.28525093 0.060769707 0.0007751507
00000000: 53a1 bb3c 690c 923e a8e9 783d 7c33 4b3a

features.5.running_var f4 [4]
0.013505467 0.010462314 0.001289529 9.215245e-05
00000000: 0946 5d3c 206a 2b3c 6a05 a93a f841 c138

features.7.weight f4 [8, 4, 3]
0.113040425 0.15366146 -0.06373558 -0.11413754 0.19937241 -0.12515469 -0.13091162 0.25938
0.08189806 -0.009168711 0.026926557 -0.10994402 0.3096238 -0.20789513 -0.07792836 -0.100183725
-0.17214513 -0.0943735 0.20062013 0.14269754 -0.04317111 0.16467488 -0.18646704 -0.17774308
0.14610125 -0.017343197 -0.28763407 -0.24895775 -0.13974532 0.32588992 0.12201563 0.10189436
-0.21863227 -0.17641447 -0.11701704 -0.015465837 -0.0032457288 -0.15241762 0.20507897 -0.100568384
-0.21817432 0.1587129 -0.06250463 0.13456377 -0.061538935 -0.033969678 0.10783705 -0.19703017
-0.14310305 -0.1253996 -0.17939928 0.08012987 0.06336324 -0.19901244 0.16176367 -0.13954751
0.03325243 -0.022132915 -0.17444426 -0.013924285 0.11717366 0.09095614 -0.19204217 -0.09177156
-0.2815683 0.17889236 0.26547247 0.11883409 -0.2564404 0.08119105 0.16096231 -0.117874175
0.01483554 0.12114332 0.014127289 -0.10155699 -0.31669605 -0.21209261 0.016723014 -0.07196739
0.15529579 -0.009967919 -0.033446886 -0.33183837 -0.25808004 0.14234057 0.29834872 0.0152069405
-0.22247799 0.1916346 0.1524883 -0.26116377 -0.059869952 0.07790477 -0.11220964 -0.21069087
00000000: bd81 e73d 6e59 1d3e cd87 82bd f1c0 e9bd
00000010: 4828 4c3e 8d28 00be b20d 06be 75cd 843e
00000020: 2cba a73d 5c38 16bc 1595 dc3c 552a e1bd
00000030: 0387 9e3e 76e2 54be e798 9fbd 202d cdbd
00000040: d046 30be e546 c1bd 5d6f 4d3e 4e1f 123e
00000050: 31d4 30bd 88a0 283e 37f1 3ebe 4802 36be
00000060: 919b 153e 5213 8ebc c644 93be c8ee 7ebe
00000070: 6619 0fbe 0bdb a63e 55e3 f93d fdad d03d
00000080: 23e1 5fbe ffa5 34be a1a6 efbd 6c64 7dbc
00000090: 4bb6 54bb 5d13 1cbe 3900 523e ccf6 cdbd
000000a0: 1769 5fbe a285 223e 6d02 80bd 16cb 093e
000000b0: 4010 7cbd ca23 0bbd acd9 dc3d 47c2 49be
000000c0: 9b89 12be c168 00be 72b4 37be 211b a43d
000000d0: 96c4 813d ebc9 4bbe 60a5 253e 8be5 0ebe
000000e0: b333 083d 1650 b5bc 84a1 32be af22 64bc
000000f0: bef8 ef3d 3647 ba3d b4a6 44be baf2 bbbd
00000100: b829 90be 8f2f 373e 02ec 873e 4a5f f33d
00000110: 284c 83be 7e47 a63d 4ed3 243e 0468 f1bd
00000120: c410 733c fd19 f83d 2576 673c 1cfd cfbd
00000130: fc25 a2be ce2e 59be b4fe 883c a463 93bd
00000140: dc05 1f3e 7c50 23bc 9aff 08bd b8e6 a9be
00000150: 1123 84be bac1 113e 2ac1 983e 8826 793c
00000160: 45d1 63be dc3b 443e e525 1c3e 42b7 85be
00000170: 323a 75bd 898c 9f3d 2bce e5bd 59bf 57be

features.7.bias f4 [8]
0.062504716 -0.21786039 -0.01827782 -0.15754285 0.15750858 0.058700386 0.33472043 -0.19268008
00000000: 7902 803d cb16 5fbe 5ebb 95bc ea52 21be
00000010: ee49 213e d16f 703d 7a60 ab3e ed4d 45be

features.9.weight f4 [8]
0.95581585 0.9073847 1.1170422 0.998163 1.0243838 1.0837245 1.0066886 1.0525831
00000000: 59b0 743f 5d4a 683f 3dfb 8e3f 9c87 7f3f
00000010: 021f 833f 7cb7 8a3f 2cdb 803f 0bbb 863f

features.9.bias f4 [8]
0.11943981 0.13407066 -0.07504107 -0.022909153 0.083821975 -0.049854487 0.028140591 -0.14576541
00000000: dc9c f43d d249 093e 22af 99bd faab bbbc
00000010: dbaa ab3d 3834 4cbd 1987 e63c 8743 15be

features.9.running_mean f4 [8]
0.13706055 0.07273954 0.05150658 0.049905613 0.23481685 0.12498354 0.41746742 0.06875265
00000000: 9a59 0c3e 78f8 943d 90f8 523d d469 4c3d
00000010: d473 703e 5ff7 ff3d 4abe d53e 30ce 8c3d

features.9.running_var f4 [8]
0.044664 0.07210305 0.01781552 0.033821363 0.011020509 0.15119493 0.49508703 0.08395933
00000000: 99f1 363d c4aa 933d daf1 913c 4588 0a3d
00000010: 5d8f 343c d8d2 1a3e 0c7c fd3e dff2 ab3d

features.10.weight f4 [8, 8, 3]
-0.0030265653 0.0011727731 -0.0016505868 -0.0030182838 0.0051423716 0.008136452 -0.0019771615 0.012827359
0.007653082 0.00024207152 0.0010908104 0.0052246647 -0.0036147842 -0.0011604724 -0.01188148 -0.000650128
-0.00081907335 -0.0019541755 0.0027876012 0.008184951 0.003269704 -0.008718462 -0.0032506369 -0.01262543
-0.0061373916 -0.0040669953 -0.0023153243 -0.007031676 -0.0012582929 0.0071494374 -0.0046195677 -0.011267795
-0.008396078 -0.0027252762 0.0013166476 -0.0022102906 0.0061413236 0.006915091 0.0015362717 -0.0072796447
0.0052731526 0.014269881 -0.0009971214 0.005425353 0.010146898 0.0036029723 0.005438601 0.0051143533
-0.0061730854 -0.0077433414 -0.0027539658 -0.0051410617 -0.014914717 -0.007669338 0.0003130119 0.0051710517
0.009089961 -0.0011997498 -0.008367577 -0.002502524 0.009437909 0.017500173 0.009331781 0.0070217936
0.0066896556 0.004211685 -0.0023577542 -0.00010255643 0.0058312616 -0.0025445102 -0.0035997275 0.0033444632
-0.0022016694 0.0048259543 0.0020477527 -0.009445163 -0.006369388 0.0018956731 -0.007869563 0.01205683
0.005886333 0.006533981 -0.019259864 0.00092733966 0.005054735 0.010706016 -0.004771252 0.005751574
0.0053046863 0.017839352 -0.0037103018 -0.009416403 -0.0011568321 -0.0007273304 -0.0021375893 -0.0067491676
0.0034008943 0.00921118 -0.008367542 -0.0016611377 0.0015239896 0.00831884 -0.012321557 -0.011052893
-0.012603661 -0.005322475 -0.006969607 0.005014355 0.0067238295 0.013656723 -0.001648009 -0.010249139
-0.015451482 -0.0012778924 -0.0035366407 -0.00330623 0.002385632 -0.0024555058 -0.006926325 -0.00040547075
0.0015084968 -0.008572277 -0.00064685766 -0.00779138 -0.0030815394 -0.0036930963 -0.0019504783 0.012943573
0.0143185975 -0.002464625 0.008665458 -0.0012526212 0.0020942304 -0.0017153102 -0.0063257264 -0.005117237
-0.0012486837 -0.001351305 -0.0053839143 -0.0052902782 -0.006630774 0.0027498594 0.0030135284 0.015770186
0.0059988904 0.0062690866 0.0071586063 -0.0023553192 -0.0008628296 0.0011073053 -0.0071191345 -2.0619142e-07
-0.010228334 -0.003953037 -0.004438584 -0.0022441535 -0.010820387 0.00012522732 0.006560068 -0.009891843
-0.0032603072 -0.008831231 -0.0063238014 -0.007142328 -0.008219474 -0.0076627303 -0.004579413 -0.0016998029
0.007973814 0.0043100137 0.0035985657 -0.0040091965 -0.00033082734 0.0027667703 -0.0051083835 0.0012913886
-0.0037115063 0.0038646662 -0.004843897 0.0012455108 -0.0036741043 -0.0036010626 -0.011367088 -0.0071025584
-0.004295431 0.0052083232 0.007480612 0.0023971056 0.0052672625 0.007833599 -0.0051269867 -0.0016343866
00000000: 5759 46bb bcb7 993a 8158 d8ba 66ce 45bb
00000010: 5781 a83b c14e 053c 4493 01bb d829 523c
00000020: b4c6 fa3b 94d4 7d39 86f9 8e3a aa33 ab3b
00000030: 04e6 6cbb fe1a 98ba 8aaa 42bc 5a6d 2aba
00000040: 15b7 56ba a011 00bb 30b0 363b 2c1a 063c
00000050: 8848 563b e1d7 0ebc a308 55bb e4da 4ebc
00000060: 2c1c c9bb 6e44 85bb b2bc 17bb f969 e6bb
00000070: 4eed a4ba d445 ea3b be5f 97bb 8f9c 38bc
00000080: b48f 09bc 8c9a 32bb 5d93 ac3a 86da 10bb
00000090: 283d c93b fd97 e23b b95c c93a 168a eebb
000000a0: 69ca ac3b 38cc 693c d8b1 82ba 29c7 b13b
000000b0: 2d3f 263c d81f 6c3b 4b36 b23b 4e96 a73b
000000c0: 9847 cabb dbbb fdbb e17b 34bb 5a76 a8bb
000000d0: db5c 74bc 124f fbbb bf1b a439 ed71 a93b
000000e0: 0fee 143c ec40 9dba 2918 09bc 6301 24bb
000000f0: 76a1 1a3c 865c 8f3c 54e4 183c 1317 e63b
00000100: e634 db3b 2d02 8a3b 8d84 1abb 9013 d7b8
00000110: 2b14 bf3b ccc1 26bb 68e9 6bbb c82e 5b3b
00000120: e249 10bb 0a23 9e3b 9733 063b e3bf 1abc
00000130: 4db6 d0bb 3c78 f83a 57ef 00bc 038a 453c
00000140: 24e2 c03b 011b d63b ddc6 9dbc b618 733a
00000150: 31a2 a53b 4968 2f3c 2a58 9cbb b377 bc3b
00000160: efd2 ad3b d523 923c 8928 73bb 4247 1abc
00000170: d8a0 97ba 51aa 3eba cc16 0cbb 1f28 ddbb
00000180: 8ae1 5e3b 7dea 163c 0418 09bc 88ba d9ba
00000190: 9bc0 c73a be4b 083c 5be0 49bc 3117 35bc
000001a0: 967f 4ebc 2868 aebb 4d61 e4bb 754f a43b
000001b0: 9253 dc3b 73c0 5f3c 0202 d8ba 01ec 27bc
000001c0: 3628 7dbc f47e a7ba fcc6 67bb 56ad 58bb
000001d0: 4358 1c3b 8dec 20bb 3af6 e2bb 5d95 d4b9
000001e0: c1b8 c53a bc72 0cbc e291 29ba d54e ffbb
000001f0: a7f3 49bb e007 72bb 31a7 ffba 4811 543c
00000200: 8d98 6a3c 8c85 21bb 91f9 0d3c fe2e a4ba
00000210: 5b3f 093b 42d4 e0ba 0a48 cfbb 7fae a7bb
00000220: dfaa a3ba 461e b1ba 8c6b b0bb 125a adbb
00000230: f746 d9bb fc36 343b 9e7e 453b 7a30 813c
00000240: 5792 c43b e96c cd3b be92 ea3b b35b 1abb
00000250: 842f 62ba 0023 913a a147 e9bb 7765 5db4
00000260: be94 27bc 7a88 81bb 8b71 91bb a612 13bb
00000270: fe47 31bc 744f 0339 d7f5 d63b 6611 22bc
00000280: e1aa 55bb deb0 10bc e437 cfbb 310a eabb
00000290: f9aa 06bc a417 fbbb e70e 96bb eccb deba
000002a0: 9aa4 023c 043b 8d3b ead5 6b3b 945f 83bb
000002b0: e572 adb9 b452 353b 3a64 a7bb d043 a93a
000002c0: be3c 73bb 5746 7d3b 8eb9 9ebb 6840 a33a
000002d0: 3ec9 70bb ceff 6bbb 063d 3abc 94bc e8bb
000002e0: b0c0 8cbb 95aa aa3b ec1f f53b c218 1d3b
000002f0: 0099 ac3b 7f58 003c 4800 a8bb ea38 d6ba

features.10.bias f4 [8]
0.00888351 -0.0019301723 -0.0044248495 0.0012585764 0.00038662422 -0.0016946812 0.0024135096 -0.0029969525
00000000: 248c 113c d6fd fcba 54fe 90bb d1f6 a43a
00000010: d3b3 ca39 1120 deba f92b 1e3b 8568 44bb

features.13.running_mean f4 [8]
0.018074948 0.010953634 0.0114266565 0.012521024 0.027308442 0.008848959 0.028712897 0.010331747
00000000: ea11 943c df76 333c df36 3b3c fb24 4d3c
00000010: f4b5 df3c 39fb 103c 4f37 eb3c 7d46 293c

features.13.running_var f4 [8]
0.0013090475 0.0010720994 0.0004806978 0.0008727338 0.00041097662 0.00064510363 0.0003122327 0.001417383
00000000: 5894 ab3a b085 8c3a 2b06 fc39 2dc8 643a
00000010: 5978 d739 2c1c 293a 2ab3 a339 7bc7 b93a

classifier.0.weight f4 [17, 1672]
-0.034296483 -0.027842794 0.019994764 -0.036409788 -0.069294624 0.03623272 0.013033096 0.067560874
0.0047811484 -0.020727942 -0.04039014 -0.01657613 -0.008027422 -0.0037853715 0.0024610544 -0.03173017
-0.008282708 0.008869165 0.035244968 0.010196954 2.3547522e-05 -0.00016159164 -0.04445657 -0.05261397
-0.041732743 -0.025336493 0.00020034726 0.03894448 -0.0005803076 -0.02621306 -0.013584511 -0.025440611
0.045248587 0.09700302 0.043911476 -0.010688261 -0.025075102 0.017724585 0.0029183498 0.0228147
-0.033079375 0.044492967 0.032660067 -0.007552513 0.016789408 -0.0045584776 0.036716204 0.07674156
0.042289816 0.041671306 0.038878936 0.06494963 0.014798626 0.019870447 0.038699247 0.030849682
0.011445514 0.011479563 0.024969347 -0.01754172 -0.0120145595 -0.0028376994 -0.052343458 -0.07241085
-0.02326272 -0.026074558 -0.059777215 -0.024921173 -0.013581782 -0.09091927 -0.08567914 -0.051939417
-0.029623305 -0.03894448 0.008694887 0.0019645048 0.03843237 0.031493153 0.01643025 0.011156425
0.04956694 0.06835937 0.062444758 0.013097461 -0.041521315 -0.020982752 -0.020668058 0.034889076
0.010563352 0.010892045 -0.005498093 -0.009475083 -0.03981045 -0.033374377 -0.049424645 -0.060489193
-0.013270548 0.08765015 0.06635548 -0.030102195 -0.055193108 -0.006558746 -0.01937783 -0.0012566353
-1.606017e-05 -0.0049750186 -0.03324308 0.01823293 0.022631502 -0.01652253 0.004649868 -0.042291842
0.0020957373 -0.009410516 0.017736346 -0.008274857 -0.009639462 -0.0060616527 0.017766157 0.03871514
0.016903328 0.015611743 -0.005744612 0.029584633 0.040142387 -0.00020026755 0.00628691 0.015857093
0.00031220797 -0.004320886 0.020077273 0.012208844 0.03229634 0.04450121 0.059350166 0.05016415
0.016585961 0.017158488 -0.0027773185 -0.05216758 0.04920814 0.012311303 0.030510638 0.040507708
-0.024301132 -0.032159247 0.043485478 0.11232247 0.07721112 0.08918289 0.010966256 -0.051371507
-0.048600905 0.11143661 0.11154597 -0.07504308 -0.010436826 0.0064531686 -0.056101106 -0.03137818
-0.013357332 -0.04759659 -0.044131614 -0.017747577 0.0073135355 -0.007868508 0.031139983 -0.0070145773
-0.0064269924 -0.022180567 -0.0094969245 0.015108696 0.012501301 -0.041802537 -0.029514553 -0.020038359
-0.0065460014 -0.004843066 0.020818185 0.004857279 -0.040728472 0.00094121054 -0.005674495 -0.0018955148
-0.065100476 -0.016750801 -0.04026196 -0.045989327 -0.07699129 -0.006575434 -0.029013656 -0.04824053
-0.02690459 0.03046776 -0.016964193 -0.014991833 0.015004197 0.0028773071 0.027848262 0.016387966
0.013446127 0.038537495 0.0034493152 0.04477705 0.036331967 0.03844158 0.0050377212 0.026488472
0.009967431 -0.12410939 -0.07104235 -0.022123773 -0.042596575 0.013677503 -0.03960541 -0.04370388
0.012110314 -0.0027226906 -0.0077796625 0.07225256 0.068029426 0.019013423 0.0052705705 -0.009355744
0.043727588 0.00083544967 0.05970601 -0.008988696 -0.090713926 -0.012255908 -0.071122296 0.04037174
-0.005369845 -0.035192806 0.04011627 -0.066427566 -0.061275877 0.0012537123 -0.019711412 0.005456457
0.037989598 0.022080922 -0.04579661 -0.013885218 0.015703933 0.044846885 0.02296745 0.016630774
0.0020087939 0.025756994 0.024557212 -0.0095007615 0.014673597 -0.025844794 -0.010443074 -0.028802458
00000000: 787a 0cbd 9216 e4bc 0fcc a33c 6e22 15bd
00000010: 57ea 8dbd c368 143d c488 553c 5b5d 8a3d
00000020: 2eab 9c3b a5cd a9bc 2270 25bd aaca 87bc
00000030: 7385 03bc ff13 78bb a449 213b 7ff7 01bd
00000040: 32b4 07bc f94f 113c 075d 103d 2011 273c
00000050: eb87 c537 ed70 29b9 1818 36bd bf81 57bd
00000060: f4ef 2abd 7a8e cfbc 4f14 5239 3f84 1f3d
00000070: c91f 18ba c5bc d6bc 9291 5ebc d468 d0bc
00000080: 9556 393d 85a9 c63d 85dc 333d d11d 2fbc
00000090: 4d6a cdbc 2633 913c c941 3f3b e5e5 ba3c
000000a0: 3d7e 07bd 423e 363d 90c6 053d 127b f7bb
000000b0: f189 893c 485f 95bb bb63 163d ae2a 9d3d
000000c0: 1638 2d3d 88af 2a3d 853f 1f3d 5004 853d
000000d0: f075 723c 59c7 a23c 1a83 1e3d 79b8 fc3c
000000e0: f785 3b3c c714 3c3c 848c cc3c a7b3 8fbc
000000f0: b7d8 44bc b2f8 39bb 1866 56bd 244c 94bd
00000100: 7691 bebc 509a d5bc f4d8 74bd 7d27 ccbc
00000110: 1f86 5ebc e233 babd 8c78 afbd 6dbe 54bd
00000120: 93ac f2bc 3f84 1fbd 0075 0e3c ecbe 003b
00000130: 436b 1d3d f7fe 003d bb98 863c 70c9 363c
00000140: b406 4b3d ffff 8b3d 13c6 7f3d bc96 563c
00000150: 4112 2abd 05e4 abbc 0f50 a9bc d9e7 0e3d
00000160: e911 2d3c 8c74 323c 5929 b4bb 613d 1bbc
00000170: 4810 23bd 92b3 08bd 7f71 4abd 84c3 77bd
00000180: b66c 59bc ec81 b33d 62e5 873d e198 f6bc
00000190: 2b12 62bd c0ea d6bb 41be 9ebc afb5 a4ba
000001a0: f4b8 86b7 7b05 a3bb e529 08bd 3a5d 953c
000001b0: b365 b93c 425a 87bc eb5d 983b 363a 2dbd
000001c0: a358 093b 912e 1abc d04b 913c 4493 07bc
000001d0: d6ee 1dbc d4a0 c6bb 558a 913c c493 1e3d
000001e0: d978 8a3c 65c8 7f3c 4c3d bcbb 795b f23c
000001f0: 586c 243d e9fe 51b9 6c02 ce3b bce6 813c
00000200: d8af a339 3896 8dbb 1879 a43c 9a07 483c
00000210: 2b49 043d e746 363d 2919 733d ec78 4d3d
00000220: 48df 873c f58f 8c3c ac03 36bb acad 55bd
00000230: 798e 493d 59b5 493c 72f1 f93c 69eb 253d
00000240: 2b13 c7bc 6ab9 03bd d41d 323d 5309 e63d
00000250: dd20 9e3d 85a5 b63d d0ab 333c ee6a 52bd
00000260: be11 47bd e138 e43d 3772 e43d 30b0 99bd
00000270: 39ff 2abc 1a75 d33b 46ca 65bd 6886 00bd
00000280: b6d8 5abc a4f4 42bd 5ac3 34bd 5e63 91bc
00000290: 62a6 ef3b eaea 00bc 4719 ff3c 8ada e5bb
000002a0: 8599 d2bb 05b4 b5bc fd98 1bbc 778a 773c
000002b0: 42d2 4c3c 2339 2bbd 81c8 f1bc 7c27 a4bc
000002c0: d77f d6bb 95b2 9ebb e68a aa3c cf29 9f3b
000002d0: e6d2 26bd 92bb 763a 1df1 b9bb ec72 f8ba
000002e0: 6653 85bd fa38 89bc bae9 24bd 4e5f 3cbd
000002f0: 9cad 9dbd bd76 d7bb 0cae edbc dd97 45bd
00000300: 0467 dcbc 8697 f93c 7ef8 8abc 4ea0 75bc
00000310: 2ad4 753c 3491 3c3b 0a22 e43c 0e40 863c
00000320: 254d 5c3c 7ed9 1d3d e80d 623b 2468 373d
00000330: d4d0 143d eb74 1d3d 7813 a53b 5afe d83c
00000340: 704e 233c 102d febd a77e 91bd ea3c b5bc
00000350: bf79 2ebd 9b17 603c 4839 22bd d702 33bd
00000360: 576a 463c 2b6f 32bb 8aec febb 26f9 933d
00000370: 0353 8b3d 0ac2 9b3c c0b4 ac3b d648 19bc
00000380: b31b 333d 1402 5b3a 4a8e 743d 5345 13bc
00000390: 39c8 b9bd 01cd 48bc 91a8 91bd d65c 253d
000003a0: 86f5 afbb 5526 10bd f550 243d 2d0b 88bd
000003b0: 6afc 7abd 9b53 a43a d479 a1bc 14cc b23b
000003c0: fb9a 1b3d 0de3 b43c 3a95 3bbd d37e 63bc
000003d0: 89a5 803c 5eb1 373d 3c26 bc3c 433d 883c
000003e0: f8a5 033b 5500 d33c 352c c93c 15a9 1bbc
000003f0: 8769 703c 76b8 d3bc 6d19 2bbc 22f3 ebbc

classifier.0.bias f4 [17]
-0.051373772 -0.03282187 -0.010065188 -0.041419655 -0.0072170687 -0.07480735 -0.0039084987 -0.015277416
-0.023852333 -0.07615997 -0.055992562 -0.026379317 -0.025449354 -0.08336511 -0.022376597 -0.053159162
-0.047450125
00000000: 4e6d 52bd 3a70 06bd 75e8 24bc a8a7 29bd
00000010: 297d ecbb 9934 99bd dd12 80bb 214e 7abc
00000020: f865 c3bc c2f9 9bbd 7558 65bd 7019 d8bc
00000030: 2a7b d0bc 54bb aabd 204f b7bc 6cbd 59bd
00000040: 105b 42bd
