models/3245072406.pt (torch, 124075 bytes, 24 tensors)

features.0.weight f4 [4, 1, 3]
00000000: b374 053e 98dd f33d 13f1 013f 288f f93d
00000010: 1a55 8bbe 5008 08be f9f5 523e e683 9c3e
00000020: b7d4 b03d a79e d7be d86f 41be f7a7 a6bd
0.13032798 0.119075 0.50758475 0.12185508 -0.27213365 -0.13284421 0.20601644 0.3056938
0.08634322 -0.4211323 -0.18890321 -0.081375055

features.0.bias f4 [4]
00000000: 5eea 4e3e 5eba a53e dfbb a0be c311 983e
0.20206591 0.3236875 -0.31393334 0.2970105

features.2.weight f4 [4]
00000000: 88e5 7b3f 1f5f 7d3f 0e98 713f cfab 783f
0.9839711 0.9897327 0.9437264 0.9713716

features.2.bias f4 [4]
00000000: 0a14 8b3b adcc b9bc 45e0 3f3d 897d 33bd
0.004244332 -0.022680605 0.04684474 -0.04382089

features.2.running_mean f4 [4]
00000000: fd5a 793e 4458 9d3e 93e3 1d3b 7870 863e
0.24351116 0.30731404 0.0024091944 0.26257682

features.2.running_var f4 [4]
00000000: 26de 0f3c 05ae aa3a 856c e839 a082 863b
0.008780992 0.0013021833 0.00044331342 0.004104927

features.3.weight f4 [4, 4, 3]
00000000: 0763 633e f24b b43d f9ad fabc a0dd 63bd
00000010: d946 62be 3a9e 2dbe 839f 02be 6774 f93d
00000020: 59b7 043c 7b56 c1bd 491e 4fbe 779a 1b3e
00000030: f80e 25be 9335 99bc 0ac1 6c3c 5f57 8fbe
00000040: f16c 2f3e abb9 82be 0143 0f3e eff6 c93d
00000050: 1867 e1bd ffdc f4bd c036 5d3e b671 18be
00000060: 7a6c 7a3e 3d79 44bc 9499 813e 8d68 463e
00000070: a4af 88bd ce53 08bd e213 cebc dfa1 073e
00000080: 2a62 24bd 4317 e8bd afdf c7bc ecba 34bd
00000090: 021a 883e eda6 143e 59aa 43be 2894 5bbe
000000a0: 2389 25be bbb4 113e 6d1f ae3c f9fb 03be
000000b0: 282f 323d 4812 3b3e fd7a b3bc 7845 9e3d
0.22205745 0.08803548 -0.030600535 -0.05563128 -0.22097339 -0.1695489 -0.12756161 0.12180405
0.008100354 -0.09440323 -0.20226397 0.15195642 -0.16118991 -0.018702304 0.014450321 -0.27996346
0.17131402 -0.25532278 0.13990404 0.09861552 -0.11005992 -0.11956214 0.21602917 -0.14887127
0.24455443 -0.011991796 0.25312483 0.1937582 -0.06674126 -0.033283047 -0.025155965 0.13245343
-0.04013268 -0.11332562 -0.024398653 -0.044123575 0.26582342 0.14516802 -0.19107951 -0.21443236
-0.16165595 0.142291 0.02125522 -0.12889089 0.043502003 0.18268692 -0.021909231 0.07728094

features.3.bias f4 [4]
00000000: a898 afbd 8260 f33d 4302 723e e026 49bd
-0.08574039 0.11883642 0.23633675 -0.04910934

features.5.weight f4 [4]
00000000: 4cd5 803f 9eed 7f3f 1228 813f 4688 783f
1.0065093 0.9997195 1.0090353 0.97082937

features.5.bias f4 [4]
00000000: a576 f9bb bff4 a439 1fce 2e3d 7874 8bbd
-0.0076130205 0.00031462868 0.04267704 -0.06809324

features.5.running_mean f4 [4]
00000000: c0f9 653e ec49 0a3e b0ed 813e 31f7 253d
0.22458553 0.13504761 0.25376654 0.040518943

features.5.running_var f4 [4]
00000000: 1385 0d3f d5d5 d83d b907 b03e 33f8 173d
0.5528118 0.1058766 0.34380892 0.037101936

features.7.weight f4 [8, 4, 3]
00000000: e717 e1bd 3f50 cfbd 4237 4439 fe2c 13be
00000010: ae05 963e 787d 333e a20e 62be 8ba4 51bd
00000020: 2808 8b3e dfc7 1abe 1244 8ebe bf27 fb3d
00000030: ee0e 5abe ea17 91bd 494e 0dbe ce2a 1bbe
00000040: 1714 893e 7f41 183e 090e 01be b212 cbbb
00000050: 56b9 c0bd b281 83bd 1b8d ca3d d971 89bd
00000060: a27e ae3d 431a 91bd 9050 8abe a543 693e
00000070: ec9e 7e3e f482 0abe 654b d5bd 0d70 38be
00000080: a1ef 283e e8ef 2e3e 6986 953d 00c1 0abe
00000090: fdaa 073b 772f 3b3e c43b ed3d 95ed 623e
000000a0: ce7d 9b3d 4280 78be 0d03 82be 4b30 263e
000000b0: 256e 13bd 4ff7 05be ed06 263e 6b8a 37bd
000000c0: 81a3 6dbe d75a bfbd 3c90 f9ba 376c 0fbd
000000d0: 92fc 833d c994 fcbd 6b7f 973e 968c d83d
000000e0: d3b5 42be 5d19 32be c6e2 eebd dbe9 2d3e
000000f0: e08d f8bd ef2b 2cbc 41a7 453e 7a7f 91bd
00000100: 43ad 3cbd be50 73be 5ca7 853e b3a6 e73d
00000110: a18d 1fbd 3dfc 23be c781 3c3e caa6 803d
00000120: 5add a03d 485e e23d f593 843e 5076 c53d
00000130: 07ff 82be 15a8 35be 05b6 febd 68d3 763e
00000140: 0118 1e3e 4277 16be 68af fd3d 5f94 30be
00000150: 5e40 823e 74ba cdbd 1525 b13d 2e6a 103e
00000160: 1933 093e 92c3 1bbe 212b 923e c068 c93d
00000170: ce71 e7bc 25f6 a9be f23d 34bd 58d0 fdbc
-0.10990887 -0.101227276 0.00018712602 -0.14372632 0.29301208 0.17528331 -0.22075894 -0.05118231
0.2715466 -0.15115307 -0.2778631 0.1226344 -0.21294758 -0.07084639 -0.13799395 -0.15153047
0.2677314 0.14868735 -0.1260301 -0.006197297 -0.0941035 -0.06421222 0.09890195 -0.06711168
0.08520247 -0.07085087 -0.2701459 0.2277971 0.24865311 -0.13526517 -0.10414771 -0.18011494
0.16497661 0.17083704 0.07301027 -0.13550186 0.0020701282 0.18279825 0.11583665 0.22160943
0.07592355 -0.24267676 -0.25392953 0.1622936 -0.035993714 -0.13082622 0.1621358 -0.04480974
-0.23206903 -0.09343498 -0.0019040178 -0.03501531 0.06444658 -0.12333066 0.295894 0.1057369
-0.19014673 -0.17392488 -0.11664347 0.1698374 -0.121364355 -0.010508521 0.19302084 -0.07104392
-0.046063673 -0.2376127 0.26104248 0.11311092 -0.038953427 -0.1601419 0.18408881 0.062818125
0.078547195 0.11053139 0.25894132 0.09641707 -0.25585195 -0.177399 -0.12437061 0.24104083
0.15438844 -0.14693931 0.12386972 -0.17244099 0.25439733 -0.10045329 0.08649651 0.14103004
0.13398398 -0.15211323 0.2854853 0.098344326 -0.028252508 -0.33195606 -0.04400439 -0.030983135

features.7.bias f4 [8]
00000000: ddf6 c73d 7f0d d6bd f4b9 793e 40d2 14be
00000010: c534 8dbd 950f 0ebd 44e3 d0bd 8906 aabd
0.09763882 -0.10451793 0.24387342 -0.14533329 -0.068948306 -0.03468283 -0.101995975 -0.08302028

features.9.weight f4 [8]
00000000: 3fdb 8a3f 16c3 8e3f bf4e 703f 57c4 7b3f
00000010: f2d9 713f 2133 783f e7d7 783f 8ff4 6d3f
1.0848159 1.1153286 0.93870157 0.98346466 0.94473183 0.96953017 0.9720444 0.9295129

features.9.bias f4 [8]
00000000: b496 8ebd 29f3 3abc fe04 be3c 97b4 3f3c
00000010: e280 ad3d 3e25 8f3d 8c83 18bd 7c93 973d
-0.06962338 -0.011410513 0.02319574 0.011700771 0.08471848 0.06989525 -0.037234828 0.07401177

features.9.running_mean f4 [8]
00000000: 4857 413e 2dec ba3c a324 843e b78e 583d
00000010: b7db d73c a93e 343d 9ab9 883d 8c43 f03d
0.18880951 0.022817696 0.25809202 0.05287048 0.026349885 0.04400507 0.06676026 0.117316335

features.9.running_var f4 [8]
00000000: 8159 603d 25b0 9439 3e15 dc3d 6478 5f3d
00000010: 92e7 663a 5d29 ef3c 5008 6b3d 3431 ec3d
0.054772858 0.00028359998 0.10746239 0.054558173 0.00088083104 0.029194528 0.057380974 0.11532822

features.10.weight f4 [8, 8, 3]
00000000: 6a4e c73b b03b b33a e9b9 e2bb 3341 5a3a
00000010: 24a8 5f3b 4d9c 193b f19c afbb 9965 10bc
00000020: cd71 a13b e72d 0fba 5776 663b 3902 003c
00000030: 43ae 613b 8466 093b fc98 15bb a375 fc3a
00000040: b795 383c 852c db3b 9942 9b3b 11c8 b9b9
00000050: 17dd b63b 38eb 873a 33b7 c03b a764 783b
00000060: 77ff 333c 2fb3 d0bb 697a 89bc 4bff f5bb
00000070: 9ad7 6bbc 681f 3cbc 559d e0ba 03b4 3d3b
00000080: 1f3c 99b9 b0c3 67ba 88e4 55bb 7a0e d539
00000090: 0135 edba 9751 14bb d52d 773b a84b 513b
000000a0: 46ca 863b 4072 cdba 7ba0 473b 5f47 50b9
000000b0: 6490 7cbb 8b98 443b b478 8b3b 0c1d b73b
000000c0: c170 8dbb e5f8 a5bc c11c afbc 0e4e feba
000000d0: e4e2 3fbc 1df1 faba 6f11 c7bb d27b cfba
000000e0: e3ae 06bb 5c35 383b 691b daba 7486 a7bb
000000f0: 38ca fd3b 6064 e738 f596 29bc 58e8 b839
00000100: 40c3 333b 363c 17bc f046 ba3b 44aa 0f3b
00000110: 98c7 91bb cfa5 a4bb dd63 ac3a a46f 04bb
00000120: e572 0cba 45f3 0abc 5901 febb 89dd 7c3b
00000130: c8a2 42bb 6cf4 34bc 34b7 1fbc b6bd 7a3b
00000140: ad1c 9b3a 9ae8 f6bb df41 ffba f6c1 44bb
00000150: 6786 ad3a 3766 073c f95b a13c 3926 8dba
00000160: dc9f 8cbb 34b3 03bc ef5a 39bb 22e5 89bb
00000170: 4d53 fcba 824e 2fbb 5379 50ba 5aff 75bb
00000180: 91a2 0abb 6816 0b3b f83a 57ba 2471 0c3c
00000190: 2234 443c 55ae 013c b6c9 c4ba 9583 0abb
000001a0: 6f77 43ba c58c a5ba 6815 03bb b137 bfba
000001b0: 42ff e5ba 0c39 5fbc 0634 0abc 2bd2 0cbb
000001c0: 4f6d 2abb eb75 88ba bf63 0cbb 7c7b 28bb
000001d0: 40dc 8039 ba10 a8ba 5d77 feba 7fe5 56ba
000001e0: 3d21 4b3a c6a9 43bb 33a4 94ba 9ff2 a23b
000001f0: 9b94 883c dfc4 d23b 9807 2aba 3c3b 1a3b
00000200: 9997 463c 0843 97b9 1f39 7c3b 6086 49bb
00000210: 7159 933c 3573 4a3a da42 46bc 3013 1c3b
00000220: b0a0 9f3b 6f4a babb 88a1 53bb 5785 6739
00000230: 88d5 adbb d94b 1d3b 2ebd 2538 658c 19bb
00000240: 3a1d 6fb8 6ec4 9bbb fc3c b3b9 c3e4 423b
00000250: d456 c43a 16c0 123c b611 cc3a 75ce dd3b
00000260: 50d0 fb3a 4bce dd3b f7f2 553c 8d39 423b
00000270: 6b60 fbbb 57e1 99bb b2af a8bb 9c45 4239
00000280: c67b 063c 9dea 87ba 7674 2bbb 1ea5 f33b
00000290: 6abb 153c c357 df3b 3d01 033c d3e7 0938
000002a0: 7c64 953c f2b1 29bb 2f32 32bc dcb3 913b
000002b0: 20c5 00bc ed43 8cbc b0c9 053c 1bdc 33bb
000002c0: cbb6 4bbc abac 84bb 4156 a3bb a820 ffbb
000002d0: f373 00ba 3192 47bc 1f48 acb9 fc7a b6bb
000002e0: 73b6 bfba ede6 133b cb22 1cbc e539 adb9
000002f0: 4ac2 883b f6bf b6b9 8fcb 9c3a 1e68 973b
0.0060823457 0.0013674404 -0.006919135 0.00083257555 0.003412732 0.002343911 -0.005359285 -0.008813285
0.004926896 -0.0005461857 0.003516575 0.00781303 0.0034436143 0.0020965645 -0.0022826781 0.0019261133
0.011266164 0.0066886568 0.0047381637 -0.0003543501 0.005580555 0.0010369783 0.005881214 0.003790179
0.0109862005 -0.0063690166 -0.016782003 -0.00750724 -0.014394665 -0.011482097 -0.0017136732 0.0028946407
-0.00029227228 -0.00088411104 -0.0032637436 0.00040637312 -0.0018097461 -0.002263164 0.0037716527 0.0031935964
0.0041134683 -0.0015674308 0.0030460644 -0.00019863014 -0.0038538212 0.002999815 0.0042563323 0.0055881795
-0.00431642 -0.020260284 -0.021376016 -0.0019401924 -0.01171181 -0.0019145344 -0.0060750763 -0.0015829748
-0.0020551018 0.0028107977 -0.0016640249 -0.0051124636 0.0077450536 0.00011033635 -0.010350932 0.00035268324
0.002742961 -0.009230664 0.005684726 0.0021921555 -0.0044488423 -0.0050246487 0.001315232 -0.0020208145
-0.0005357697 -0.008480852 -0.0077516255 0.0038584194 -0.0029699076 -0.011044603 -0.009748269 0.003826005
0.0011834108 -0.0075350525 -0.0019474587 -0.0030022836 0.0013238908 0.008264116 0.019697176 -0.0010768838
-0.0042915177 -0.008038331 -0.002828296 -0.004208223 -0.00192509 -0.0026749675 -0.0007952649 -0.0037536235
-0.0021154026 0.0021223072 -0.0008210386 0.008571897 0.01197532 0.007915099 -0.0015013728 -0.0021135558
-0.00074564567 -0.0012630454 -0.0020001773 -0.0014588741 -0.0017547386 -0.013624441 -0.008435255 -0.0021487575
-0.0026005094 -0.0010411119 -0.0021421758 -0.0025708368 0.00024578162 -0.0012822368 -0.0019414235 -0.000819765
0.00077487883 -0.0029855832 -0.0011340439 0.0049727703 0.016672423 0.0064321603 -0.0006486117 0.0023533842
0.012121105 -0.00028850907 0.0038486195 -0.003075026 0.017986985 0.00077228557 -0.0121009 0.0023815148
0.0048714504 -0.0056851427 -0.0032292325 0.0002207955 -0.005304996 0.0024001508 3.9515253e-05 -0.002342963
-5.700926e-05 -0.004753641 -0.00034186977 0.0029738403 0.001497949 0.00895693 0.0015569243 0.0067689964
0.0019211862 0.006768977 0.013058416 0.0029636354 -0.007671406 -0.004696052 -0.0051478976 0.00018527213
0.008208221 -0.0010369603 -0.0026161945 0.007435455 0.009138921 0.006815882 0.007995901 3.287925e-05
0.018236391 -0.0025893417 -0.0108762225 0.0044464897 -0.007859498 -0.017122233 0.008165762 -0.0027444426
-0.012433718 -0.004048904 -0.0049846475 -0.0077858754 -0.000490009 -0.012180851 -0.0003286013 -0.00556886
-0.0014626518 0.0022568062 -0.00952978 -0.00033040266 0.0041735517 -0.00034856767 0.0011962521 0.004620566

features.10.bias f4 [8]
00000000: b7f6 bbba 5751 e7bb 7d74 86ba dd12 62bc
00000010: b166 af3b c4ad b53b eccc 5abb 2fa6 eabb
-0.0014340495 -0.007059257 -0.0010258105 -0.013798443 0.005352818 0.005544396 -0.0033386303 -0.007160924

features.13.running_mean f4 [8]
00000000: e45e 6d3c 11e9 8b3c 7624 a53c 5c20 463c
00000010: ed60 af3c ecba a33c 64c1 833c bbe1 0e3c
0.014487956 0.017078908 0.020158987 0.012092676 0.021408523 0.019986592 0.016083427 0.0087208105

features.13.running_var f4 [8]
00000000: 9560 253b c5d0 963a b530 d039 5b88 253a
00000010: cd5e 0c3a 1d6b 513a 88d2 343b afb7 f839
0.002523457 0.001150631 0.0003970914 0.0006314569 0.00053547026 0.00079886784 0.0027591307 0.000474391

classifier.0.weight f4 [17, 1672]
00000000: 7c53 c7bd a47c f4bc f6e0 87bb 6c93 38bc
00000010: 2799 1bbd f556 133d 27c2 633d 4ce3 32bd
00000020: 6192 5ebd e9b7 d73c 3992 283d c71b a63c
00000030: 2e14 f13c c0f1 163b 76a7 5ebd 37e9 533c
00000040: 7e93 86bb f085 613c b4c2 90bd b6f9 ebbc
00000050: 68d6 23bd 5656 18bd 6678 01bd 5d40 e939
00000060: 73ef 34bd 6846 90bc ced1 1bbd 86df 89bd
00000070: 5e02 17bc f9b5 173c 0fa5 c43b 7733 fdba
00000080: a967 0d3b 7664 e93b 3b41 58bb d364 25bc
00000090: 6c86 433d 96b8 64bb 9539 6c3d fc4f 583c
000000a0: ee66 9f3c 8690 6cbb f44d 1cbc eded 263d
000000b0: 8d62 153d bbb1 133c 6df3 f83c aaf0 a03c
000000c0: 5874 acbc 8feb ad3c b99b f03c 9828 00bd
000000d0: 7fd6 223b a86b ae3c ca5c d8ba 039f 4dbd
000000e0: 6362 7dbb 9b48 f83c 23ba 0abd f977 09bd
000000f0: 84e8 73bc f75a 8b3c c6e5 583b edad 11bd
00000100: aa78 7cbc e72e 6d3b f461 24bc 0e03 87bc
00000110: 215b 45bd 570d 45bc e951 543c 94b5 5abd
00000120: 0383 d0bb ee07 e4bb 6ed0 ee3c 16f4 103c
00000130: c0e4 a2bc fba2 6bbc ffea 3b3d 9be3 1bbd
00000140: f210 2e3b 2936 993c 6856 e73c b966 173c
00000150: b05a 3c3c fb07 3b3d 68d9 383c da9c a7bc
00000160: 5c0a aebc e750 53bd c6a9 18bd 84c7 53bc
00000170: e83f 2e3d 2841 823c 6a25 c9bb 29d8 9e3c
00000180: cfa2 1a3a c336 403c 21c6 76bc 6448 e43c
00000190: be2a 2f3d aebc d3bc 6a73 db3b 58c1 053d
000001a0: 4e80 833c f0bd b43a eb4d dcbc b7e7 29bd
000001b0: bef3 67bb 32ae c2bb f786 11bc c89c 92bc
000001c0: f3c1 57bc 155e 403c e993 37bb bea4 ad3c
000001d0: 43f3 483d 25e4 153d b622 1c3d bc41 373d
000001e0: c756 5e3d ce30 493d ce55 2d3d 6b0f 843c
000001f0: 46e3 343d bda0 443d 16f9 cb3b 02ad 573c
00000200: 05f6 ec3c d6a5 da3c fc7b 073d 906d 873c
00000210: e2c9 b03c ad9d 363c c79d d53c a469 533d
00000220: 7b91 db3c 8711 24ba 6c58 b3bc a0b2 14bd
00000230: 9724 95bd a858 86bd 05db e7bc bd4a 92bb
00000240: 0c70 47bb d987 863d 99bf 453d 85a9 a13c
00000250: 8b38 9a3d 4c6f 9a3c 039f 4e3c a845 803c
00000260: 92ac 7e3d 3035 053e bfe7 73bd 3a1b 95bc
00000270: 8812 3e3d 6637 8fbd 6568 ebbc ac3f 603a
00000280: c41e 0f3b 240a 4abd 6a9d 463d 02a5 183d
00000290: 8669 0a3d f44e d1ba b008 7a3c b525 bf3b
000002a0: a238 6dbb d1aa 4d3b a9e8 ba3c 556f 203c
000002b0: b895 8a3c 935d 63bd c449 19bd a6fb 6fbc
000002c0: 0ce0 99bb fe78 143d a8ae 9a3c ec12 7e3c
000002d0: 992b 01bb 2e2e 283c 1085 e9bb 9ca0 c0bc
000002e0: 2c99 72bd 56cd 40bc 5122 3b3c 44d4 17bd
000002f0: 6308 22bd a881 59bd 971e a7bc d41d a7bd
00000300: b5b7 013c 6084 49bd b293 6abd e86b 41bd
00000310: b3db ebbc dbd5 143d c4b2 103d 1b38 3f3d
00000320: f67d aa3a 4e92 a53b a52b b23c 107b b13b
00000330: 2a1d 003d b4e6 233d e191 a4ba 5450 023c
00000340: c285 9b3c 4605 ecbd 1a25 a3bd 352a 74bd
00000350: ebce 033c ff6f 093c 481a d6bc bd83 8fbc
00000360: df14 9b3b 50c2 45ba 9d73 5a3c 6027 733d
00000370: 39c0 5d3d a044 bf3c d064 183d b079 d4bb
00000380: 4cb7 37bc d575 493c e5d1 ed3c a1f7 a2bc
00000390: 6e3f 81bc 0227 11bd 3666 e0bc ff36 3bbd
000003a0: fdae e7bc e509 6bbc 1a36 673c 6612 5e3c
000003b0: abfb 89bd f355 12bc f478 a33c 776e 11bd
000003c0: fafe de3a a4b9 f93c 5bc4 01bd 0454 08bb
000003d0: d4d5 efbb 5cc9 0b3c 069c 463d 6f60 313c
000003e0: 9873 253d 098c a13c e177 f03c 07dc bbbc
000003f0: 2d47 3e3c 0c88 343a 2451 143c 73fe 643c
-0.0973272 -0.02984459 -0.0041466905 -0.011265617 -0.037987854 0.0359716 0.05560508 -0.0436738
-0.054338817 0.026332812 0.041155074 0.020276917 0.029428568 0.0023032278 -0.054358922 0.012934021
-0.004106938 0.013764843 -0.07068387 -0.028805595 -0.039999396 -0.03719171 -0.03160896 0.00044489178
-0.04417367 -0.017611697 -0.038041882 -0.06732087 -0.009216873 0.009259694 0.006001122 -0.0019317706
0.002157668 0.0071225716 -0.0032997865 -0.010094839 0.047735617 -0.003490006 0.057672102 0.0132026635
0.01945826 -0.0036096885 -0.00954007 0.040754247 0.03647094 0.009014542 0.030389512 0.019646008
-0.02105157 0.021230487 0.02937113 -0.031288713 0.0024847088 0.021291569 -0.0016507145 -0.050200474
-0.003866338 0.030308058 -0.03386892 -0.03356168 -0.014886979 0.017011149 0.003309594 -0.03556626
-0.015409628 0.0036191286 -0.0100331195 -0.016480949 -0.04818261 -0.012027106 0.012958982 -0.053395823
-0.006363274 -0.006958953 0.029152121 0.008847257 -0.019884467 -0.014382119 0.045878407 -0.03805886
0.0026560393 0.018702583 0.028239444 0.0092408 0.011496231 0.045661908 0.011282302 -0.020460535
-0.021245174 -0.051590826 -0.037271284 -0.012925986 0.042541414 0.01590021 -0.0061384933 0.019390183
0.0005898894 0.011731806 -0.015061886 0.02786655 0.04276537 -0.025846805 0.006697108 0.03265509
0.016052391 0.0013789516 -0.026892623 -0.041480746 -0.0035393084 -0.005941176 -0.008882276 -0.017897025
-0.0131688 0.011741181 -0.0028011745 0.02119672 0.049060117 0.03659453 0.03811904 0.044740424
0.054281976 0.04911881 0.042318158 0.016120633 0.044162057 0.048004854 0.0062247617 0.013163807
0.028925905 0.026690405 0.033077225 0.016531736 0.02158064 0.011145991 0.02607621 0.05161442
0.026802769 -0.00062587153 -0.021892749 -0.036303163 -0.072823696 -0.065598786 -0.028302679 -0.004464476
-0.0030431775 0.0656888 0.048278425 0.019734154 0.07530316 0.018851899 0.012611154 0.015658215
0.062176295 0.1300857 -0.059547182 -0.01820146 0.04640439 -0.06992988 -0.028736303 0.000855441
0.0021838406 -0.049326077 0.048489965 0.03726674 0.03379204 -0.0015968964 0.01526086 0.0058333525
-0.0036197086 0.0031382332 0.02281602 0.009792169 0.016917095 -0.05550916 -0.037423864 -0.0146474
-0.004695898 0.0362482 0.01888211 0.015507441 -0.0019709824 0.010264916 -0.007126458 -0.023514085
-0.059228107 -0.011767706 0.011421756 -0.037067667 -0.03955878 -0.053102165 -0.020400329 -0.08159986
0.007917334 -0.04919851 -0.05726976 -0.047222048 -0.028791284 0.03633676 0.035326734 0.046684366
0.001300751 0.0050528413 0.021749327 0.0054162815 0.031277813 0.040014938 -0.0012555682 0.007953722
0.01898468 -0.11524443 -0.07966061 -0.059610564 0.008044939 0.008388518 -0.026135579 -0.017518872
0.0047327126 -0.00075439084 0.013333228 0.059363723 0.054138396 0.023348153 0.037205517 -0.006484233
-0.011213135 0.01229616 0.02903075 -0.01989347 -0.015777316 -0.03543759 -0.027392488 -0.045706745
-0.028281683 -0.014345621 0.01411202 0.013554191 -0.06737455 -0.008931625 0.019955136 -0.035505738
0.0017013245 0.030484028 -0.0316814 -0.002080203 -0.0073191915 0.008531895 0.04848864 0.010826214
0.040393442 0.019720094 0.029354038 -0.022932066 0.011613649 0.00068867276 0.009052549 0.013976681

classifier.0.bias f4 [17]
00000000: 25a0 7dbd 65ac 76bd 0921 513a cd65 febc
00000010: 068c 953b 5e0b d5bc a352 40bb 8869 c0bc
00000020: 1beb 2cbd cc22 acbd 4636 5fbd e7fe 303b
00000030: cd78 01bc 00ce 93bd fc26 2dbd 4460 e1bc
00000040: e021 c2bc
-0.061920304 -0.060223002 0.000797764 -0.031054402 0.0045638112 -0.026006397 -0.002934613 -0.023487821
-0.0422164 -0.084050745 -0.05449512 0.0027007402 -0.007902336 -0.07217026 -0.042273507 -0.027511723
-0.023697793
