models/4633103076.pt (torch, 124075 bytes, 24 tensors)

features.0.weight f4 [4, 1, 3]
-0.004322529 0.30971587 -0.47518533 -0.42489457 -0.22236899 0.15482074 0.027379893 0.46085653
-0.024618588 0.14225763 -0.18789227 -0.12741503
00000000: 00a4 8dbb 1493 9e3e 7e4b f3be c88b d9be
00000010: b2b4 63be 5489 1e3e cc4b e03c 63f5 eb3e
00000020: ecac c9bc fcab 113e d566 40be 1679 02be

features.0.bias f4 [4]
-0.5515707 -0.38236874 -0.23719597 0.028796509
00000000: bd33 0dbf d6c5 c3be 80e3 72be a8e6 eb3c

features.2.weight f4 [4]
1.0 1.0 0.8615387 1.082205
00000000: 0000 803f 0000 803f cd8d 5c3f b285 8a3f

features.2.bias f4 [4]
0.08504909 -0.05047729 0.00085017656 -0.021629628
00000000: 382e ae3d 46c1 4ebd 62de 5e3a 9e30 b1bc

features.2.running_mean f4 [4]
0.0 0.0 0.0020871942 0.022939634
00000000: 0000 0000 0000 0000 4fc9 083b e6eb bb3c

features.2.running_var f4 [4]
8.9074476e-36 8.9074476e-36 0.00032006923 7.979994e-05
00000000: c270 3d05 c270 3d05 f7ce a739 445a a738

features.3.weight f4 [4, 4, 3]
0.11438752 0.17347585 -0.19544055 -0.12546843 0.10509059 0.23995134 -0.06992642 0.1707573
-0.07626577 0.066741645 0.26254052 -0.28439036 -0.29529133 -0.18664193 -0.2260849 0.3203533
-0.11617559 -0.06194887 -0.14033046 -0.20650195 -0.10465445 0.17708065 0.16260925 0.18577012
0.08006226 -0.0831186 0.11371981 -0.30531418 -0.2443674 -0.18460126 0.19828528 0.19267872
-0.10356856 -0.051830012 0.18492435 0.25927097 0.18948975 0.11391768 0.2684727 -0.2255204
-0.001754961 -0.27935955 -0.19037288 -0.12301403 0.09934648 0.08057604 -0.17364627 0.13537875
00000000: 0144 ea3d a7a3 313e 9121 48be cc7a 00be
00000010: bc39 d73d ceb5 753e 9535 8fbd 00db 2e3e
00000020: 3a31 9cbd d8af 883d b66b 863e 9d9b 91be
00000030: 6d30 97be 101f 3fbe cd82 67be 5905 a43e
00000040: 78ed edbd 19be 7dbd cab2 0fbe 3f75 53be
00000050: 1355 d6bd a154 353e 0a83 263e 863a 3e3e
00000060: aff7 a33d 163a aabd efe5 e83d 2452 9cbe
00000070: 733b 7abe 1d08 3dbe 4c0b 4b3e 924d 453e
00000080: c11b d4bd b54b 54bd cf5c 3d3e 2abf 843e
00000090: 9a09 423e ac4d e93d 4175 893e d2ee 66be
000000a0: b806 e6ba 3708 8fbe 1cf1 42be c8ee fbbd
000000b0: 2b76 cb3d 0d05 a53d 54d0 31be baa0 0a3e

features.3.bias f4 [4]
0.18093622 -0.09607359 0.025571458 0.13538516
00000000: 5847 393e 3bc2 c4bd 3c7b d13c 68a2 0a3e

features.5.weight f4 [4]
0.9608321 1.097978 0.9695746 0.9617535
00000000: 18f9 753f 8b8a 8c3f 0a36 783f 7a35 763f

features.5.bias f4 [4]
0.0073753186 -0.14682621 -0.096954755 -0.013072582
00000000: a8ac f13b 9c59 16be 3790 c6bd 622e 56bc

features.5.running_mean f4 [4]
0.17809151 0.11078364 0.19301964 0.2288963
00000000: 9f5d 363e 88e2 e23d f1a6 453e cb63 6a3e

features.5.running_var f4 [4]
0.0048218286 0.009318615 0.03690403 0.0028899284
00000000: 6e00 9e3b 1bad 183c ae28 173d f464 3d3b

features.7.weight f4 [8, 4, 3]
0.21793342 0.24393246 -0.22783703 -0.017272953 0.15670782 0.26780945 0.25118497 0.20069815
0.038080018 -0.2623283 0.029318107 -0.20698012 -0.3013396 0.18385354 0.18339738 -0.32071033
0.13342355 0.10525925 -0.01785818 -0.09396922 0.104316354 -0.12435073 0.03243581 0.22488216
0.22611682 0.13688923 -0.24963832 -0.16777824 0.11253611 0.036538254 -0.19950831 -0.16096902
0.2639302 0.27128375 -0.14705306 0.0038319975 -0.19698355 -0.039819233 -0.21145603 -0.28378537
0.027254913 0.19159132 -0.16486086 0.17011309 -0.116549306 0.22998443 0.18236156 -0.1519523
-0.081743784 0.03750297 0.0015104559 0.068797216 0.10878805 0.0129612405 -0.16943832 0.110539794
-0.2892221 -0.19415918 -0.03626476 -0.1225216 -0.11392661 -0.26420853 -0.064658664 0.086991355
-0.15890951 0.049750306 0.15178381 -0.02863733 0.06931045 -0.02706678 0.12765054 0.19153118
0.19567226 0.2091792 0.3118367 0.1380763 -0.20719075 -0.1788891 0.17101657 -0.038457125
-0.2019275 -0.17754437 -0.1896649 -0.22216865 -0.06866678 0.14756553 0.1671924 -0.16317442
0.15625149 -0.25491232 -0.09457698 -0.17349365 -0.09850368 -0.026534772 -0.2694168 -0.26697493
00000000: f029 5f3e 6ec9 793e 1c4e 69be 0280 8dbc
00000010: 0478 203e 521e 893e 519b 803e d183 4d3e
00000020: cbf9 1b3d e54f 86be 872c f03c 99f2 53be
00000030: 2f49 9abe 1a44 3c3e 86cc 3b3e 2534 a4be
00000040: 2fa0 083e 2992 d73d 514b 92bc ef72 c0bd
00000050: d0a3 d53d 98ab febd 69db 043d 8247 663e
00000060: 2b8b 673e b12c 0c3e 30a1 7fbe 0fce 2bbe
00000070: 5579 e63d 23a9 153d e84b 4cbe 10d5 24be
00000080: dc21 873e b4e5 8a3e 1495 16be 4022 7b3b
00000090: 0eb6 49be 7e19 23bd ee87 58be 514c 91be
000000a0: b245 df3c 8430 443e 49d1 28be 2032 2e3e
000000b0: 67b1 eebd 0a81 6b3e fdbc 3a3e 6299 1bbe
000000c0: 4969 a7bd b79c 193d 7dfa c53a 8ee5 8c3d
000000d0: 45cc de3d 625b 543c 3d81 2dbe b062 e23d
000000e0: eb14 94be aad1 46be 5b8a 14bd 9bec fabd
000000f0: 5b52 e9bd 5746 87be c36b 84bd 8628 b23d
00000100: 2db9 22be fac6 4b3d 376d 1b3e d598 eabc
00000110: a3f2 8d3d 27bb ddbc d3b6 023e c020 443e
00000120: 4f5e 483e 1233 563e 0fa9 9f3e e063 0d3e
00000130: d029 54be b42e 37be f81e 2f3e 3885 1dbd
00000140: 15c6 4ebe 31ce 35be 8437 42be 2e80 63be
00000150: 2ba1 8cbd 6b1b 173e 7c34 2b3e 3217 27be
00000160: 6400 203e de83 82be 93b1 c1bd 52a8 31be
00000170: 4cbc c9bd 735f d9bc 00f1 89be f0b0 88be

features.7.bias f4 [8]
-0.057872385 0.11595694 -0.11691207 0.2464269 -0.26327005 -0.11337929 0.36739346 -0.08708092
00000000: 980b 6dbd d57a ed3d 986f efbd 5557 7c3e
00000010: 55cb 86be 6733 e8bd ff1a bc3e 7b57 b2bd

features.9.weight f4 [8]
0.92431605 1.0085905 0.9276794 1.0834903 1.0211564 1.0082934 1.0233556 1.0744267
00000000: fa9f 6c3f 7e19 813f 667c 6d3f cfaf 8a3f
00000010: 41b5 823f c20f 813f 51fd 823f d086 893f

features.9.bias f4 [8]
0.10453369 0.0118495915 0.05055887 0.070317164 -0.0044640023 0.057754673 0.032283917 -0.049967688
00000000: c215 d63d ca24 423c d116 4f3d 7202 903d
00000010: c446 92bb 2a90 6c3d 243c 043d ebaa 4cbd

features.9.running_mean f4 [8]
0.24802013 0.21316472 0.066915594 0.26633066 0.041420493 0.036895268 0.47100523 0.28735617
00000000: fdf8 7d3e da47 5a3e 0b0b 893d 7e5c 883e
00000010: 89a8 293d 7e1f 173d 9927 f13e 5920 933e

features.9.running_var f4 [8]
0.35351953 0.081765994 0.07678025 0.082207635 0.017635003 0.025688393 0.44673774 0.23441203
00000000: 8300 b53e ee74 a73d f73e 9d3d 7a5c a83d
00000010: 4877 903c 7770 d23c cfba e43e b509 703e

features.10.weight f4 [8, 8, 3]
0.0066160904 0.008615959 -0.010566644 0.0054036574 0.004022809 -0.0014443934 0.01029133 -0.0051906365
0.001184964 0.0064164707 0.012479211 0.0011937196 -0.0006315301 0.00970177 -0.003849853 0.0012177712
-0.011727124 0.0052807196 0.007699281 0.0046031848 -0.0059091114 0.0019448973 -0.004448559 -0.0066683856
-0.009108955 -0.0052589313 -0.00183638 -0.0088094985 -0.0031720144 0.0073323003 -0.012555009 -0.0072351773
-0.0042516002 0.010175529 0.0057094293 0.013559369 -0.0038558347 -0.0067643896 -0.0044145966 -0.003295441
-0.007707628 -0.003178309 -0.0025839668 -0.008032889 -0.014382677 0.002205811 0.00413464 -0.0072833523
0.0057808547 0.0058495356 -0.00014371487 -0.004284958 -0.011130811 -0.0029359455 -0.005489048 0.002518923
-0.0003113637 -0.00093458436 0.0034310082 0.0044578924 0.0040588775 0.013016593 0.0065555014 0.0006792968
0.00558471 -0.0026077293 0.0018320477 0.0021452478 0.0032711937 0.006740841 -3.076809e-05 0.0006644336
-0.00029909093 -0.0059144124 -0.0046915486 -0.008578115 -0.00688316 -0.0083572315 -0.009500066 0.0026392268
0.007712233 -0.009572173 -0.009138553 0.0010760223 -0.009833936 -0.0073153274 -0.006149888 -0.008441135
-0.005218748 -0.0024403082 0.002141909 0.00861136 0.0016850411 0.0014918426 0.005008314 0.0016503467
0.010406399 0.0061974344 -0.00066444866 -0.0033288405 -0.011234874 0.0031207027 -0.005461941 -0.0075568026
0.008429428 -0.008102766 -0.0023910373 -0.0065104007 0.008386027 -0.004710391 0.00077040016 0.012777511
0.00396798 0.008214215 -0.0022467717 -0.0016176868 -0.0030474614 -0.0032729085 -0.0050418004 -0.0009662858
-0.0027299542 -0.005706945 -0.00777775 -0.013311303 0.0031359391 -0.008324184 0.0039815553 -0.00070774485
-0.005301628 0.003238477 -0.00993649 -0.003151189 -0.004468958 -0.0103607075 0.009118751 0.015227554
0.0052770292 -0.003917767 -0.013670091 0.008684786 0.009340616 -0.0104244985 0.0010407328 0.00960071
-0.0063773547 -0.0021645003 0.0035505143 -0.0015396372 0.0010743926 0.00016613869 -0.0037033341 0.0035570927
0.0022629667 0.0076949717 0.00026571186 -0.0012177863 0.00028325254 -0.003258922 -0.0044916966 -0.008015834
0.011799178 0.010067763 -0.0030414567 -0.00302764 0.0057697785 0.0181012 0.013514979 0.008005853
-0.0010134431 0.0067352923 0.000273359 0.0055832355 -0.0045553637 0.013838111 0.0048928843 0.004873725
-0.00531805 -0.0019906561 0.004498309 0.0131240925 0.0006774831 -0.00097227003 -0.0032817104 -0.0014434503
-0.004501553 -0.00086429605 -0.007113597 -0.004763693 -0.0029816497 -0.012751901 -0.01188464 0.006945944
00000000: cacb d83b f429 0d3c b81f 2dbc 2a11 b13b
00000010: c5d1 833b cd51 bdba f79c 283c 3716 aabb
00000020: cb50 9b3a 4241 d23b 9b75 4c3c 9576 9c3a
00000030: 458d 25ba 2cf4 1e3c d14d 7cbb 9f9d 9f3a
00000040: 2023 40bc e309 ad3b 404a fc3b 50d6 963b
00000050: 38a1 c1bb edeb fe3a 38c5 91bb 7982 dabb
00000060: ba3d 15bc 1d53 acbb b0b2 f0ba b755 10bc
00000070: 92e1 4fbb cb43 f03b 86b3 4dbc 1115 edbb
00000080: 0251 8bbb 43b7 263c 2a16 bb3b 1e28 5e3c
00000090: 2cb2 7cbb d0a7 ddbb 52a8 90bb 53f8 57bb
000000a0: 4590 fcbb 2d4b 50bb c557 29bb 619c 03bc
000000b0: 52a5 6bbc 5e8f 103b e07b 873b 30a9 eebb
000000c0: 536d bd3b 76ad bf3b 2bb2 16b9 d568 8cbb
000000d0: 015e 36bc fe68 40bb 79dd b3bb 8414 253b
000000e0: 873e a3b9 e5fe 74ba c4da 603b 8313 923b
000000f0: 5500 853b 8c43 553c 88cf d63b d612 323a
00000100: f1ff b63b 70e6 2abb 5221 f03a 4997 0c3b
00000110: 8661 563b 46e2 dc3b fc0c 01b8 622d 2e3a
00000120: 4ecf 9cb9 b0cd c1bb 90bb 99bb 398b 0cbc
00000130: 228c e1bb c5ec 08bc 2aa6 1bbc e1f6 2c3b
00000140: e6b6 fc3b 9ad4 1cbc dfb9 15bc 5109 8d3a
00000150: 841e 21bc 6ab5 efbb 0085 c9bb b04c 0abc
00000160: 0802 abbb 94ed 1fbb 455f 0c3b a916 0d3c
00000170: 99dc dc3a ee89 c33a c81c a43b 7250 d83a
00000180: 9a7f 2a3c d913 cb3b 652e 2eba ad28 5abb
00000190: 7a12 38bc b484 4c3b 15fa b2bb 0e9f f7bb
000001a0: 951b 0a3c 77c1 04bc f3b2 1cbb 3355 d5bb
000001b0: 8c65 093c a059 9abb aef4 493a c458 513c
000001c0: d405 823b ea94 063c 933e 13bb 9008 d4ba
000001d0: ebb7 47bb 4b7e 56bb b035 a5bb 584e 7dba
000001e0: 08e9 32bb 5301 bbbb 7fdc febb a717 5abc
000001f0: 5484 4d3b 2962 08bc b577 823b f487 39ba
00000200: 47b9 adbb a13c 543b a9cc 22bc 2e84 4ebb
00000210: 5670 92bb f5bf 29bc d066 153c fe7c 793c
00000220: eeea ac3b 9d60 80bb 84f8 5fbc a24a 0e3c
00000230: 6209 193c 84cb 2abc 3369 883a 4c4c 1d3c
00000240: 21f9 d0bb 4ada 0dbb bfaf 683b a7cd c9ba
00000250: a2d2 8c3a 8435 2e39 a3b3 72bb 1d1e 693b
00000260: 484e 143b 1a26 fc3b 3e4f 8b39 219e 9fba
00000270: 8381 9439 a393 55bb 152f 93bb d854 03bc
00000280: 5751 413c 42f3 243c 2d53 47bb 5f6b 46bb
00000290: 6910 bd3b f848 943c ee6d 5d3c fb2a 033c
000002a0: 82d5 84ba bab3 dc3b a051 8f39 93f3 b63b
000002b0: 2945 95bb 3fb9 623c 7d54 a03b c5b3 9f3b
000002c0: 0943 aebb ab75 02bb 8d66 933b 6f06 573c
000002d0: 1f99 313a f0df 7eba f711 57bb 2832 bdba
000002e0: c381 93bb ed91 62ba 2d19 e9bb c118 9cbb
000002f0: c867 43bb 59ed 50bc cbb7 42bc cd9a e33b

features.10.bias f4 [8]
0.0005866292 0.005139751 -0.0008391362 -0.01671757 -0.0007825878 0.00044780347 0.0026454797 0.0036277054
00000000: 05c8 193a 5b6b a83b 7af9 5bba 49f3 88bc
00000010: 9426 4dba 2ac7 ea39 c95f 2d3b ccbe 6d3b

features.13.running_mean f4 [8]
0.014113778 0.018755391 0.012416257 0.007812463 0.017569335 0.012019377 0.020108204 0.017726393
00000000: 7a3d 673c e8a4 993c 8e6d 4b3c b1ff ff3b
00000010: 91ed 8f3c ecec 443c f6b9 a43c f136 913c

features.13.running_var f4 [8]
0.0007152641 0.0003918078 0.0010900367 0.0003495001 0.0005487469 0.00038378066 0.0012375235 0.00049740967
00000000: 9080 3b3a 8d6b cd39 90df 8e3a 1c3d b739
00000010: c8d9 0f3a 2b36 c939 6634 a23a 9964 023a

classifier.0.weight f4 [17, 1672]
-0.09084651 -0.041155454 -0.0075955945 -0.04400925 0.04976663 -0.0062554744 -0.00784942 0.030205173
0.012463563 -0.03136605 -0.029091252 0.042764217 0.0061435783 -0.019894969 -0.01731185 -0.020887332
0.010758968 0.012683374 0.015870994 0.003803145 -0.050778802 -0.032908365 -0.09105559 0.010677107
0.0034769792 -0.03751485 -0.045410763 -0.0459965 -0.03643727 -0.09350219 0.028503142 0.04076316
0.01988249 -0.07328061 0.033266515 -0.020019671 0.022202227 0.059877247 0.02994548 0.019303482
0.043515712 0.037450973 -0.034504216 -0.029103925 0.010204993 -0.011655182 0.04124067 0.007724852
0.008315667 -0.006498553 0.010800281 0.08419785 0.057818104 0.00059010944 0.015022106 -0.027202614
-0.06444523 -0.06873867 -0.032483738 -0.024816059 -0.035985403 -0.017405747 -0.012684068 -0.028011966
-0.098811984 -0.12162022 -0.04471754 -0.010200769 -0.054166794 -0.075104564 -0.057708926 0.004538223
-0.048140027 -0.051978145 -0.01529274 -0.061281987 -0.003182643 0.012136459 -0.08073154 -0.023449028
0.043549594 -0.009358161 0.029685082 0.0808555 -0.022608327 0.003398684 -0.0379108 0.028762635
0.012094389 -0.025603974 -0.05644178 -0.06448676 -0.02416571 -0.01977194 -0.02513343 -0.017178548
-0.03576022 0.008967942 -0.021625478 0.0006467896 -0.016465342 0.0050836005 0.013032944 -0.032376435
-0.038754374 -0.02502357 -0.024905873 0.005180754 -0.01281793 -0.021025004 -0.065433025 0.0056098285
-0.012527562 0.03306881 0.04263224 -0.022620883 -0.012821294 -0.023182524 0.017329399 0.041742213
0.04300093 -0.0005683376 0.047824074 -0.00698438 -0.006570904 0.004867051 0.030448042 0.020218793
-0.009779895 0.028739322 0.0056148106 0.011666409 0.05033456 0.033810534 0.05123852 0.021746106
0.020378325 0.072421946 -0.039229773 -0.056197204 0.025379652 -0.037878253 -0.04096879 -0.08260573
-0.11787966 -0.044636324 -0.05744317 0.15865368 0.12931654 0.13381582 0.02567077 0.0091187
0.015503039 0.13064355 0.1607983 0.093480125 0.009967623 -0.04115677 -0.033483762 -0.026679201
-0.07153241 -0.07857562 0.036192294 0.0037381875 -0.026995491 -0.005094946 0.006827428 0.020718705
0.026865203 0.018134426 0.016870817 0.0051475754 -0.012436835 -0.0065293387 0.0003782002 -0.030221872
-0.0038649105 -0.015100168 -0.022439344 -0.008598012 0.0010019256 0.006669815 0.03039095 0.021015815
0.06332204 -0.026738789 -0.0527833 -0.054538377 -0.03594632 -0.025921063 -0.09714162 -0.031286854
-0.09354273 0.04041994 -0.011944192 -0.08045517 -0.023545794 -0.013952105 0.102749184 0.08406182
0.05455619 0.021554522 0.06817914 0.038418878 0.022078943 0.0414392 0.0757092 0.07720052
0.019431721 -0.00095984206 -0.015243875 0.0073559624 0.008858992 0.018181687 0.07126844 0.07786474
0.044138655 0.015373401 0.004951618 -0.02959378 -0.018975278 -0.005862385 0.021736622 0.017622706
-0.0032889147 -0.013150878 0.020005237 0.0043378063 0.02219692 0.05095786 0.056053977 0.018315775
-0.009180349 -0.030490808 0.027576987 0.023718165 0.01214557 -0.053579614 -0.0069721276 -0.08227242
-0.06513155 0.02145068 0.021168811 -0.05291142 -0.010696743 0.023149984 0.039190803 -0.035817105
-0.016007612 0.02712767 0.0011350482 0.037456967 -0.032733362 -0.0019965344 0.035811324 -0.03043173
00000000: bc0d babd 9f92 28bd 77e4 f8bb 0b43 34bd
00000010: 18d8 4b3d b9fa ccbb db9a 00bc d770 f73c
00000020: f933 4c3c b079 00bd c750 eebc 8829 2f3d
00000030: 1250 c93b c6fa a2bc 95d1 8dbc e91b abbc
00000040: 6246 303c edcd 4f3c e303 823c 2f3e 793b
00000050: 6ffd 4fbd ecca 06bd 5a7b babd 08ef 2e3c
00000060: 08de 633b 2ca9 19bd a300 3abd d366 3cbd
00000070: 3f3f 15bd 147e bfbd 6c7f e93c 45f7 263d
00000080: 9be0 a23c 2514 96bd 7842 083d 4b00 a4bc
00000090: 72e1 b53c d841 753d 3950 f53c 5622 9e3c
000000a0: 883d 323d 3166 193d 4b54 0dbd 5b6b eebc
000000b0: d832 273c 60f5 3ebc faeb 283d c120 fd3b
000000c0: 6f3e 083c d0f1 d4bb a9f3 303c ec6f ac3d
000000d0: add2 6c3d 93b1 1a3a 471f 763c 04d8 debc
000000e0: dcfb 83bd dcc6 8cbd ab0d 05bd 0c4b cbbc
000000f0: 6e65 13bd 7f96 8ebc d6d0 4fbc 5a79 e5bc
00000100: f05d cabd 0614 f9bd bd29 37bd 2021 27bc
00000110: 00de 5dbd 6cd0 99bd 3260 6cbd 60b5 943b
00000120: 7a2e 45bd 09e7 54bd 678e 7abc d202 7bbd
00000130: e493 50bb 00d8 463c 9456 a5bd 2d18 c0bc
00000140: 0f61 323d f952 19bc 212e f33c 9297 a53d
00000150: 1935 b9bc 75bc 5e3b 5b48 1bbd 9e9f eb3c
00000160: 8b27 463c 6dbf d1bc 7f2f 67bd a211 84bd
00000170: 2bf7 c5bc c3f8 a1bc 9fe4 cdbc 07ba 8cbc
00000180: 4f79 12bd 46ee 123c ea27 b1bc 518d 293a
00000190: 53e2 86bc 5594 a63b 2188 553c 279d 04bd
000001a0: e8bc 1ebd 3bfe ccbc 6707 ccbc 50c3 a93b
000001b0: 4c02 52bc a13c acbc c001 86bd a7d2 b73b
000001c0: 6740 4dbc 2973 073d 259f 2e3d 6e4f b9bc
000001d0: 6810 52bc 47e9 bdbc 62f6 8d3c e2f9 2a3d
000001e0: be21 303d 7efc 14ba 2de3 433d 3add e4bb
000001f0: bd50 d7bb c87b 9f3b 2c6e f93c e2a1 a53c
00000200: da3b 20bc ba6e eb3c 72fc b73b 7724 3f3c
00000210: 9d2b 4e3d ea7c 0a3d 7bdf 513d e424 b23c
00000220: 72f0 a63c f551 943d 66af 20bd 0a2f 66bd
00000230: fde8 cf3c 3a26 1bbd e4ce 27bd 312d a9bd
00000240: e46a f1bd 94d4 36bd 8849 6bbd 1c76 223e
00000250: 8e6b 043e 0407 093e 824b d23c 9a66 153c
00000260: 7500 7e3c 6cc7 053e 4fa8 243e 8272 bf3d
00000270: 3e4f 233c 0094 28bd 4526 09bd 578e dabc
00000280: 967f 92bd 41ec a0bd 5f3e 143d 61fc 743b
00000290: a625 ddbc 81f3 a6bb 9eb8 df3b 46ba a93c
000002a0: 6a14 dc3c a68e 943c ab34 8a3c feac a83b
000002b0: dec3 4bbc 10f4 d5bb 2c49 c639 dc93 f7bc
000002c0: 704a 7dbb b266 77bc b7d2 b7bc adde 0cbc
000002d0: 0b53 833a 778e da3b 71f6 f83c 5c29 ac3c
000002e0: fcae 813d 4e0b dbbc 4d33 58bd a263 5fbd
000002f0: 733c 13bd 6958 d4bc 30f2 c6bd a526 00bd
00000300: 5593 bfbd 618f 253d 93b1 43bc aec5 a4bd
00000310: 1ce3 c0bc 5f97 64bc 2a6e d23d 9a28 ac3d
00000320: 5076 5f3d 1c93 b03c 81a1 8b3d 1d5d 1d3d
00000330: e6de b43c 27bc 293d 6d0d 9b3d 4e1b 9e3d
00000340: 462f 9f3c e99d 7bba 72c1 79bc 490a f13b
00000350: 4e25 113c c3f1 943c 30f5 913d 8c77 9f3d
00000360: bcca 343d b8e0 7b3c 2f41 a23b a86e f2bc
00000370: 0b72 9bbc 4019 c0bb 0011 b23c 7e5d 903c
00000380: d58a 57bb c876 57bc 06e2 a33c 2824 8e3b
00000390: 51d6 b53c 30b9 503d db98 653d f70a 963c
000003a0: 2d69 16bc dcc7 f9bc 22e9 e13c 994c c23c
000003b0: 36fe 463c 4c76 5bbd 7276 e4bb 717e a8bd
000003c0: b163 85bd 56b9 af3c 376a ad3c a5b9 58bd
000003d0: 6441 2fbc 09a5 bd3c 8986 203d f5b4 12bd
000003e0: 6522 83bc d93a de3c e6c5 943a 7a6c 193d
000003f0: 6b13 06bd 4ad8 02bb e5ae 123d f74b f9bc

classifier.0.bias f4 [17]
-0.058723714 -0.10245668 0.005443389 -0.04192883 -0.0369162 -0.0759861 -0.018368809 -0.041058872
-0.058895506 -0.092897065 -0.0742211 -0.035742525 -0.044069514 -0.10781163 -0.046419777 -0.04495445
-0.046406794
00000000: 4788 70bd cfd4 d1bd 755e b23b 91bd 2bbd
00000010: 7135 17bd 9a9e 9bbd 2f7a 96bc 592d 28bd
00000020: 6a3c 71bd d140 bebd 3b01 98bd c166 12bd
00000030: 3c82 34bd 58cc dcbd aa22 3ebd 2822 38bd
00000040: 0d15 3ebd
