models/7687129909.pt (torch, 124075 bytes, 24 tensors)

features.0.weight f4 [4, 1, 3]
00000000: cde1 f83d efbb 16be c2ce 153e 0952 223d
00000010: a295 813e 47c8 023e d428 a8bd f096 f8be
00000020: 99f5 4b3d eb8f 07bf a780 5c3d b01c 4c3c
0.12152443 -0.14720128 0.14629653 0.039629016 0.25309473 0.12771712 -0.08210912 -0.48552656
0.049794767 -0.52953976 0.05383363 0.0124580115

features.0.bias f4 [4]
00000000: 0642 0ebe a05c f53e 3f7e 423d 204c 673e
-0.13892373 0.4792223 0.04748368 0.22587633

features.2.weight f4 [4]
00000000: f9fc 783f 5c22 753f d986 823f e80e 803f
0.97261006 0.95755553 1.0197402 1.0004549

features.2.bias f4 [4]
00000000: 6552 1cbc f094 043d d282 6d3c f7d9 163d
-0.009541129 0.0323686 0.014496522 0.03682896

features.2.running_mean f4 [4]
00000000: 056f 1633 f8d2 003f 13af 083d 466b 4d3e
3.5025568e-08 0.5032191 0.03337009 0.20060453

features.2.running_var f4 [4]
00000000: b1fc ac30 aff3 313b 3759 9b39 7f91 083b
1.2586466e-09 0.0027153303 0.00029630374 0.0020838676

features.3.weight f4 [4, 4, 3]
00000000: 2ffc e43d 002c 23be 341d f4bd 4670 883e
00000010: 701a 8fbe 15a0 acbc 22cc 5dbc 265d 5b3e
00000020: 009f 19bb b0cf cc3d 8ede 9b3a 5b73 21be
00000030: 00cc 1abe da32 f3bd 45f7 82be 4837 45be
00000040: f5a2 723d 42b8 143e e8a4 aa3b eb17 1ebe
00000050: bc3e d43d 6993 c6bd 6933 19be f18e 5ebe
00000060: 9e31 e1bd a91e 87be f893 d63d 6ed3 dc3d
00000070: c36a 613d d1a2 023e 70c3 013e 1003 75bc
00000080: 192c 903c 6b26 d63c 4125 2a3e 05aa 3e3e
00000090: fbf3 623e a853 033e 4d92 a6bd 3470 ddbc
000000a0: e170 9cbd f6c5 013e 89dc 8d3d fa87 923e
000000b0: f9b2 2c3e 84e1 56be 5c11 c83d cfa8 913e
0.11180913 -0.15934753 -0.119196326 0.26648158 -0.27949858 -0.021072427 -0.013537439 0.21422252
-0.0023440719 0.10000551 0.0011891888 -0.15766661 -0.15116882 -0.118749335 -0.25579277 -0.1925937
0.05923744 0.14523414 0.0052076466 -0.15438811 0.10363528 -0.09696085 -0.14961018 -0.21734215
-0.10995792 -0.2639058 0.104774415 0.107825145 0.055033457 0.12757422 0.1267221 -0.014954343
0.017599152 0.026141366 0.16615774 0.18619545 0.22163384 0.12824881 -0.081333734 -0.027031042
-0.076387174 0.12673172 0.06926829 0.28619367 0.16865148 -0.20984465 0.09768936 0.28449103

features.3.bias f4 [4]
00000000: 6d89 883e 68c5 b6bc feb3 093e 13bc 8abe
0.26667348 -0.022310928 0.13447568 -0.27096614

features.5.weight f4 [4]
00000000: e76f 7f3f a00f 863f 5764 803f d469 7a3f
0.99780124 1.0473518 1.0030621 0.9781773

features.5.bias f4 [4]
00000000: 45a9 8fbb b79c 8bbd 1b34 18bd 0331 4fbb
-0.004384192 -0.06817 -0.037159067 -0.0031614907

features.5.running_mean f4 [4]
00000000: ae6b 8f3e 1db5 1f3e ed7d 5d3e f3dc d83d
0.2801184 0.15596433 0.21630068 0.10589018

features.5.running_var f4 [4]
00000000: 79dd bb3c cfaa 383e 3173 893c 10b7 403c
0.022932755 0.18033908 0.01677856 0.0117623955

features.7.weight f4 [8, 4, 3]
00000000: f871 b1bd a200 173e c06d a2be 242d 2b3e
00000010: 864a 84be 6e6c 063d 15d8 853d 160e a03d
00000020: 4db4 ad3c 9d06 76be ae5f 59bd d57b 03be
00000030: fecc 883e 1e5b 5cbc 71eb 88be 6cec e03d
00000040: 7033 1c3e 27be 14be 3b5c 883c 07bf 0b3e
00000050: ffaf 5fbe 0057 91bd 7a95 c33d 88a9 c6bd
00000060: 23ff fc3d d2b9 2c3d d69b 703e 99f1 063e
00000070: fd79 8ebe 88ec 80be e17f 68be e22b 9ebd
00000080: 138b 44bd 90c8 d9bc 935c 49be 185b 3a3e
00000090: 4f46 293e 4b14 d73d c4cc 3d3e 1d16 643e
000000a0: 5641 91be d65d 393d 1f2e 943e 9989 43be
000000b0: d64d fabd 7899 483b 6e94 2fbe e13a 88bd
000000c0: c896 abbd 459c 643e 43ee c4bc 8392 743e
000000d0: 29c5 7d3e 7c1d 633d 1720 9bbe f59d 1d3e
000000e0: 0e47 0e3e e617 86be c6ab 15be 935d 223e
000000f0: 3124 8cbe d737 78be 7379 1abe a7ae 1b3e
00000100: 40af c0bd 446b a0be 86df c73d 9898 033e
00000110: 6729 e03d 4bd5 74be 76eb 973e 43a5 86bc
00000120: 85c2 99be c1f8 95bd 6d05 2f3e 0fd0 663d
00000130: 3c5c 5dbd e4ea 5e3e 5cbd 8ebe ef8d 323e
00000140: 637d 8f3e 0cf4 10be cbef a13d e585 71bb
00000150: d92b 5abe 3501 8cba 057c f7bd c0e2 85be
00000160: e020 3dbe 58bb 7c3d 2657 953e 7921 ee3d
00000170: c6a2 33be 0367 6c3e a19a 453d 7a5b 7dbe
-0.08664316 0.14746335 -0.31724358 0.16716439 -0.25838107 0.03281825 0.06535355 0.07815187
0.021204138 -0.2402596 -0.053069763 -0.12840207 0.26718897 -0.013449458 -0.26742128 0.10982594
0.15253997 -0.14525662 0.016645541 0.1364709 -0.21844481 -0.07096672 0.09549995 -0.09700304
0.12353351 0.0421694 0.23496947 0.131781 -0.27827445 -0.2518046 -0.22705032 -0.07723214
-0.047984194 -0.026584893 -0.1966422 0.18198812 0.16530727 0.105019175 0.18535143 0.2227406
-0.2837016 0.045255505 0.28941438 -0.19095458 -0.12221877 0.0030609053 -0.17146465 -0.06651855
-0.083783686 0.22325237 -0.024039393 0.23884015 0.24782242 0.05544804 -0.3029792 0.15392287
0.13894293 -0.26190108 -0.14616308 0.15856008 -0.27371362 -0.24240051 -0.15085392 0.15203343
-0.09408426 -0.31331837 0.097594306 0.12851179 0.10945397 -0.2390949 0.2967183 -0.016436225
-0.3003122 -0.07322837 0.17091914 0.056350764 -0.05404304 0.21769291 -0.27878845 0.17436956
0.2802535 -0.14155596 0.07907065 -0.003685349 -0.21305789 -0.0010681512 -0.12084202 -0.2614956
-0.18469572 0.061702102 0.2916805 0.11627478 -0.17542562 0.23086171 0.04824317 -0.24741927

features.7.bias f4 [8]
00000000: 7663 a4bc 0e8a 0a3e 52d4 c3bd 633f cabc
00000010: cf7c c8bd fe06 55be bcc4 4abe d657 993d
-0.020066958 0.13529226 -0.09561981 -0.024688428 -0.0978943 -0.20803449 -0.1980161 0.074874565

features.9.weight f4 [8]
00000000: 6d7b 7e3f a2c8 813f da06 823f c1cf 7c3f
00000010: 1fad 6a3f da09 7d3f 222e 813f da9f 913f
0.9940708 1.0139353 1.0158341 0.9875451 0.9167041 0.9884316 1.0092204 1.1376908

features.9.bias f4 [8]
00000000: 78ac b439 d14e 323d 75b6 12bc 4e8d bcbb
00000010: ea2a 4a3c ebbf 9fbc 8b50 b3bb 71c0 10bd
0.00034460775 0.043532196 -0.008954634 -0.0057541495 0.012339333 -0.019500693 -0.005472248 -0.035339776

features.9.running_mean f4 [8]
00000000: db20 473e bb40 263e f084 c33d e99c d53d
00000010: caf6 363e 5d7b 0b3d 997b 8f3d 1da6 3c3e
0.19446127 0.1623563 0.0954684 0.10430319 0.1786758 0.034053195 0.07005996 0.18422742

features.9.running_var f4 [8]
00000000: e8be 583d 93e7 883d cefc 333c a2c4 673c
00000010: bfc4 8a3e d38b 163c 3a02 4f3d f663 ae3c
0.052916437 0.06684794 0.010985566 0.014146002 0.2710323 0.00918861 0.050539233 0.0212879

features.10.weight f4 [8, 8, 3]
00000000: 638b a73b 5dcd 40bb 6006 c2bb 606d a5bb
00000010: b1d0 fabb d511 39bb 6acf 3e3c 89a0 253b
00000020: ee1e 77ba 8dfa f13b efe4 2db9 166b abba
00000030: bfae 00bc 4445 d1bb 4374 bebb c2d2 923b
00000040: e284 493c 6dbc bc3b aaf0 fdbb 4efa 0ebc
00000050: 6e0e a2bb a1fe 853a 1812 28bc a4f6 41bc
00000060: 3194 5dba 83dd 8eba 7344 93bb 19e9 cbba
00000070: 5dde 1bbb ed96 40bb dc5f e7ba 82e7 7fbc
00000080: c82e 37bc 3eac ed3b 371d 593b 9a42 f63b
00000090: 789d 57ba 9aaf 21bb 703a 3fba 7701 5ebb
000000a0: 3636 7bbb 04a1 12bc 4f1d 58bb 1441 5bbb
000000b0: e251 6e3a 0ef4 ae3a b5b2 923b d3e0 903c
000000c0: 3957 113b f8b7 55bb 66f8 5a3c 3fa4 8a3b
000000d0: e72d a0bb 4f8b 89bb 0210 0abb 75bc 0c3c
000000e0: 3b54 ea3b 06c5 6c3a caf1 95bb 0e8c a0bb
000000f0: 5a34 823a bdc7 9cba 0e81 2db9 2cbf 98bb
00000100: 8aa8 33bb fbb2 c6ba d923 21bb bad5 8fbb
00000110: 4c76 7abb 7df7 1cbb e1f3 92bc 52b6 80bc
00000120: 7820 5c3b 6623 5a3b 94be b43b cae2 4bbb
00000130: 5a01 7eba 34d0 ec3a d4b3 2dbb fcb1 783b
00000140: ac91 f03a f374 54bc 2c09 3ebc 39d1 163b
00000150: 67f1 b5bb 2c4f 273b 388a 823b 6690 7c39
00000160: d234 973b 064a ed3b 3dc3 9a3b 07c7 013c
00000170: 5f60 febb 7ce2 2f3b e2de bfbb 9e6e 6dbc
00000180: 736a e3ba 68c0 13bb df55 5dba 5596 743b
00000190: 76e8 8a3b 0a60 883b a0f3 f4b9 2d76 89bb
000001a0: e5b5 5dbb 8d19 53bb d779 ecba 1a73 493b
000001b0: 5a79 a139 f03a d23b e0a6 063c a7d7 2cbc
000001c0: 722c a7bb 4566 8eba ebff 42ba bb56 0f3c
000001d0: 9e01 be3b 1150 87ba 8ba6 5ebb ecbe e0ba
000001e0: 35a7 94bb cd2c 9f3a 3101 253c dd13 55bc
000001f0: b9b3 bc3a f503 573c e643 91ba 2ba4 bdbb
00000200: 5c41 13bb 0925 41b9 025c 5e3b 2886 0b3b
00000210: 6958 8cbb b14e e23b 5006 e83b d669 0fbc
00000220: 3d9b 02bc 143c 3e3c c8a6 9a3b 70ae bfba
00000230: b093 0bbc 91e3 063c bd67 45ba dce7 e13b
00000240: 1486 4dbc e429 93bb a6ea e43a c769 593b
00000250: bbe3 c4bb 0445 55bc df8c bc3a e2fe 7f3b
00000260: b381 c73b 0465 cebc 5d69 d6bb 5bdf 3dba
00000270: b740 2e3b 8bc3 403b df35 baba 5b35 00bc
00000280: caac 303c bc7e 8a3b 0520 1cbc 3df3 e4ba
00000290: 8fbf 0d3c b0fc 34bc c828 ae3b 6dd6 0d3a
000002a0: c2ab fb3b bf16 cdbb 5750 7bbb 7fe9 d13a
000002b0: f4f5 7e3a fb05 31ba 5f1b 37bc 789f 98bb
000002c0: c9f4 ef3b 6b0c 9038 dafc a5ba d187 bf3a
000002d0: fe75 4abb b900 053b a3cf 103c 8c05 fd3a
000002e0: 1420 df39 147c eaba 0868 02bb 34ce c93b
000002f0: 3116 743c 27a0 07bc 661f c9bb a47d 73ba
0.0051130517 -0.002941928 -0.00592117 -0.005048439 -0.0076542725 -0.0028239388 0.011646131 0.0025272688
-0.0009426911 0.0073846043 -0.0001658385 -0.0013078179 -0.007854163 -0.006386431 -0.0058121993 0.0044806907
0.012299748 0.005759767 -0.0077496367 -0.0087266695 -0.004945568 0.001022298 -0.01025822 -0.011838589
-0.0008452563 -0.0010899756 -0.0044942438 -0.0015557139 -0.0023783662 -0.0029386834 -0.001765247 -0.015619161
-0.011180587 0.007253199 0.0033128986 0.0075152637 -0.0008225064 -0.0024671317 -0.00072947796 -0.0033875385
-0.0038331873 -0.008949522 -0.0032976454 -0.0033455538 0.0009091181 0.001334788 0.00447687 0.01768533
0.0022177233 -0.0032610875 0.013364887 0.0042310054 -0.0048882845 -0.004197515 -0.002106667 0.0085898535
0.0071511543 0.00090320443 -0.0045759426 -0.0048995083 0.0009933815 -0.0011961382 -0.00016546642 -0.0046614613
-0.002741369 -0.0015159542 -0.0024588017 -0.004389492 -0.0038217483 -0.0023951225 -0.017938556 -0.015711937
0.0033588689 0.003328526 0.0055158827 -0.0031110519 -0.00096895325 0.001806742 -0.002650489 0.0037947884
0.001835396 -0.012967336 -0.011598866 0.002301289 -0.005552459 0.0025529368 0.003983762 0.00024086385
0.004614451 0.0072414903 0.0047229812 0.007920987 -0.007762953 0.0026837876 -0.005855427 -0.014491705
-0.001735045 -0.0022545103 -0.0008443277 0.003732105 0.0042391373 0.0041618394 -0.0004672082 -0.004194996
-0.0033830341 -0.0032211274 -0.0018041682 0.0030738772 0.00030798727 0.0064157173 0.008218497 -0.010549462
-0.005101734 -0.0010864219 -0.00074386474 0.0087487055 0.0057985326 -0.0010323544 -0.003397378 -0.0017146743
-0.004536534 0.0012144089 0.010071085 -0.013005224 0.0014396823 0.013123502 -0.0011082857 -0.0057873926
-0.0022469377 -0.00018419711 0.0033929353 0.002128968 -0.0042830002 0.0069063534 0.0070808306 -0.008753261
-0.007971582 0.011611003 0.004719589 -0.001462413 -0.008519098 0.008232967 -0.0007530412 0.006894095
-0.012544174 -0.0044910777 0.001746495 0.003317462 -0.006008593 -0.013016943 0.0014385245 0.0039061834
0.0060884594 -0.025194652 -0.006543322 -0.00072430604 0.0026588866 0.0029413428 -0.0014206729 -0.007825221
0.010783384 0.0042265337 -0.009529118 -0.001746751 0.008651628 -0.0110465735 0.00531492 0.0005410675
0.0076803872 -0.006258815 -0.0038347447 0.0016015022 0.0009725981 -0.00067529053 -0.011175959 -0.004657682
0.007322882 6.868768e-05 -0.0012663857 0.001461262 -0.0030893083 0.002029462 0.008838567 0.0019304021
0.00042557775 -0.0017889761 -0.0019898433 0.0061586145 0.014897869 -0.008277929 -0.006137776 -0.0009288436

features.10.bias f4 [8]
00000000: 74ae 30bb b92e 903a 62a2 f63a f889 fdbb
00000010: 65db f9bb ea5e 03bc 9fbb 93bb 0be8 f7bb
-0.002695945 0.0011000253 0.0018816704 -0.0077373944 -0.007625031 -0.008018235 -0.00450845 -0.0075655035

features.13.running_mean f4 [8]
00000000: 36fc 963c 5baf e33c 70b5 aa3c 6aa8 8b3c
00000010: 9651 433c 835f 433c 2118 753c b46c 2f3c
0.01843081 0.027793577 0.02083847 0.01704808 0.011921307 0.011924627 0.014959366 0.010707069

features.13.running_var f4 [8]
00000000: 3bd2 083a 4fa8 923a 2396 623a b6cd 6c3a
00000010: 693b be3a 2c5e 2d3a d3f9 d839 4819 5f3a
0.0005219315 0.0011189076 0.0008643588 0.0009033339 0.0014513555 0.0006613459 0.00041384864 0.0008510542

classifier.0.weight f4 [17, 1672]
00000000: 8eac 7d3c 4eab 2aba 49ac e5ba 4d1f b83c
00000010: eab8 83bd 6b9c b63c 5970 08bd 37a3 3a3d
00000020: 4edd 3a3c 1b35 00bc de54 0cbd 0aaf f0bb
00000030: c62f 54bc 6175 e2bc 16c7 a63d ca33 923c
00000040: 2179 bfbb 1837 ecbc 8f70 be3c 0efe 2fbc
00000050: 6596 45bd 37f4 253d 659d 593d b435 50bd
00000060: 7cc2 1e3c d3be 9cbb 47b2 5c3d 78cc e83c
00000070: e5c6 aabc b5a8 db3b 5dfa dbbc a73f e13b
00000080: cba1 abbc 5814 05bc d12a e9bc 482a 12bd
00000090: 1061 6abc 9026 0f3d e460 aabc da1f e0bc
000000a0: 2067 f23c 1890 6dbd c181 bd3c 5fe8 46bd
000000b0: 4fbb 78bd ffc8 31bb 65a6 b43c 480c 85bd
000000c0: 326b e13b cdcb bc3c f278 843c e06d 22bc
000000d0: 83d2 893d 1efa 693d 9288 653d fa94 a83c
000000e0: 30d3 7bbc 97bf 5abc bf2a cf3b 362a 5c3d
000000f0: 6912 c2bc 3110 933b 3f01 cd3c c698 6c3d
00000100: a580 28bc aede 8bbd f1ca 77bd ad30 94bd
00000110: 02b5 37bd 5e88 a0bc 0d69 52bd 6110 233b
00000120: 094e 62bd c96e bebc be31 4abd e2fd 33bd
00000130: 0a99 abbd fb4f 17bd cc59 443d 72bd a03b
00000140: 474e c3bb c8f4 bcbc 58d4 5abc 913c 963c
00000150: 7120 54bb 564f 933a d93d 833d c8d4 ed3c
00000160: bf5e 393b 0550 193d 780e 62bd 534c 0d3c
00000170: bb49 82ba 6b3f a3bd a3eb 32bc d45d cb3c
00000180: 07a0 a3bc 5fb5 08bd 3729 84bd 86ad 04bd
00000190: 58b1 d6bc e817 01bd 3f2c fabc a834 2abd
000001a0: e6d0 5ebd 86c6 b9bb f167 10bc 12b8 f4bc
000001b0: 8e78 3d3d 761a 233d 9d54 d63c 634e 473d
000001c0: 0ede c4b8 5b8c 893c 39ef 9e3d 719e f93c
000001d0: 8056 e03c 16ca 893c 438e 31bd e1db 8abb
000001e0: 3dc8 0c3d f208 1d3d 4ff6 383b 2824 9abc
000001f0: ee5a 7bbc 8586 37bd 9a0d 863d 1ad4 89ba
00000200: 1117 16bc 91c0 2c3c 84d4 2e3d b19d afbd
00000210: 3b60 bdbc cb4b 06bc 7a06 77bc 9c01 873c
00000220: 0a9d eebb 0ea9 c03c f03e d73d e548 a7bd
00000230: c74c 96bd 0b26 783d abdb bc3c 9733 15bd
00000240: 30bb b43c 4a36 7fbd f6f2 02be 6c67 5cbd
00000250: 6102 8f3c c435 e73c f841 b03b 0fb4 423d
00000260: f286 2fbb e227 c13c 29d3 ac3d 543b 8e3d
00000270: 7b1e 9b3d 9e58 4e3d 9ec5 393d f968 e0bc
00000280: 3d08 a6bc e5fe e6bc 9bad 5cbd abb0 acbc
00000290: a13f 0cbe a0c0 b7bc cbaa fcbc ade9 03bd
000002a0: f32f 3d3d 0ede 553d d93a 783b d5cb 9e3c
000002b0: 77c7 dd3a 0784 39bc d54b 9cbc 3609 c5bc
000002c0: 2612 79bc b400 96bc 3675 10bb 0912 813c
000002d0: 5271 2cbc 885a e33a f590 9abc 469a 873d
000002e0: db58 703d 732f 8e3d 3ee2 d23b 95ae d53c
000002f0: d321 72bc 065a e9bc 6b79 5f3c 69d8 0bbd
00000300: 9185 12bd 913a 5cbd 4327 b93d 0509 2f3b
00000310: 0dd3 bdbc 711c fa3a 7b54 2bbd 32e6 0fbc
00000320: 7b74 0b3d 9941 da3c 3707 343c 7825 2e3c
00000330: 2787 fe3a b977 b2bc abf6 bb3c 2dc7 2cbc
00000340: 17ad 823c 3367 283d 1e5f 5a3b 4469 f03c
00000350: 2959 c2bc f6f7 453c afc2 9eba f12e 7bbc
00000360: f703 1bbd 4f58 9fbc 1859 913c c655 cbbc
00000370: c3c7 c1bc 463c a6bd 7595 11bd 575c 88bd
00000380: 648d f2b9 ec72 723c a241 d13c 658e 043d
00000390: 899e fb3c 69e7 85bc f33d 09bd 6a04 0cbc
000003a0: c6c7 e7bc 2836 0ebd 577f 8dbd d7d2 8cbd
000003b0: 7322 a0bd 6a9a 80bd 7acf 04bc a2c7 983d
000003c0: e13d 883d 161a 003c 1ea3 00bc 0c86 b93c
000003d0: 22ca 7dbd c003 0cbd 5d7d a0bc 6849 b7bb
000003e0: 9af6 8ebd 9da1 c6bc 5a18 babc f88b 43bd
000003f0: 9d78 b8bd a8a6 c7bd 7a54 9fbd e87f 11bd
0.015483035 -0.0006510512 -0.0017522658 0.022475863 -0.06431754 0.022291383 -0.033310268 0.04556581
0.011405302 -0.007825161 -0.034260623 -0.007345085 -0.012950843 -0.027643861 0.081434414 0.01784696
-0.005843297 -0.028834864 0.023247031 -0.010741724 -0.04823913 0.040516105 0.05312862 -0.050832465
0.009689923 -0.00478349 0.053880956 0.02841781 -0.020846793 0.006703461 -0.026852781 0.006874043
-0.020951172 -0.008122526 -0.0284628 -0.035684854 -0.014305368 0.034948885 -0.020798154 -0.027358938
0.02959019 -0.057998747 0.02313316 -0.04856145 -0.060725506 -0.002712786 0.022052 -0.06496483
0.0068792338 0.023046399 0.016170952 -0.009913892 0.06729605 0.057123296 0.056038447 0.02057885
-0.015370175 -0.013351343 0.0063222344 0.053751193 -0.02369042 0.004488014 0.025025008 0.057762884
-0.0102845775 -0.06829582 -0.060496274 -0.07235847 -0.044850357 -0.019596275 -0.051369715 0.0024881589
-0.0552502 -0.023246186 -0.049363844 -0.043943293 -0.08378799 -0.03694151 0.0479372 0.004905396
-0.005960259 -0.02306594 -0.013356291 0.018339427 -0.003236797 0.0011238854 0.06408281 0.029032126
0.0028285233 0.03742983 -0.05518958 0.008624154 -0.0009940186 -0.079710804 -0.010920438 0.024825014
-0.019973768 -0.033376094 -0.064531736 -0.032392047 -0.026207611 -0.03151694 -0.030538676 -0.041554123
-0.05439844 -0.005669418 -0.008813844 -0.029872928 0.046257548 0.039820157 0.026163394 0.04865874
-9.387369e-05 0.01679056 0.07760472 0.030471059 0.027384996 0.016819995 -0.043348562 -0.0042376374
0.03437065 0.03833861 0.0028222983 -0.018816069 -0.015341504 -0.044806022 0.06545563 -0.0010515482
-0.009160773 0.010543958 0.04268314 -0.08574999 -0.023117175 -0.008196781 -0.015077228 0.01648026
-0.007281904 0.023518112 0.10510051 -0.081682004 -0.07338863 0.060583156 0.023053965 -0.036426153
0.022061914 -0.062307633 -0.12787995 -0.05380957 0.017457189 0.02822388 0.005378958 0.047535
-0.0026783315 0.023578588 0.08438713 0.0694491 0.07574173 0.05037748 0.045354478 -0.027393805
-0.0202676 -0.028197715 -0.0538765 -0.021080336 -0.13696148 -0.022430718 -0.03084316 -0.032205272
0.046188306 0.05221372 0.0037876873 0.019384304 0.0016920407 -0.011322982 -0.019079128 -0.024052244
-0.015202081 -0.018310882 -0.002204252 0.01575567 -0.010525065 0.0017345706 -0.018867949 0.06621222
0.05867849 0.06942644 0.0064356616 0.026084224 -0.014778572 -0.02848531 0.013639788 -0.03414193
-0.03577191 -0.05376679 0.09040692 0.0026708257 -0.023171926 0.0019081963 -0.041828614 -0.00878291
0.03404663 0.026642608 0.010988048 0.01062905 0.0019418941 -0.021785604 0.022944769 -0.010545534
0.015951676 0.041114043 0.0033320854 0.02934707 -0.023724156 0.012083044 -0.0012112464 -0.015331016
-0.037845578 -0.019451289 0.017742679 -0.024821173 -0.023654824 -0.08116965 -0.035542924 -0.066582374
-0.0004626318 0.014797907 0.025543991 0.03236236 0.030715244 -0.016345697 -0.033506345 -0.008545974
-0.028293502 -0.034719616 -0.06909054 -0.06876152 -0.07819071 -0.06279452 -0.008106107 0.07459952
0.066524275 0.007818719 -0.00785139 0.022646926 -0.061960347 -0.034183264 -0.019591028 -0.0055934675
-0.06980629 -0.024246985 -0.02271669 -0.047740906 -0.0900738 -0.09748584 -0.077797845 -0.03552237

classifier.0.bias f4 [17]
00000000: 5460 85bd 8cf8 16bd 47e1 c1bb 6b9a 42bc
00000010: cb88 fbbc 8680 36bd 5a40 f9b7 2f75 83bd
00000020: 8fdb 21bd d9d4 93bd eb60 90bd c197 abbc
00000030: 4d7e 15bd e93b d0bd 25f1 11bd 4324 f0bc
00000040: 5ace 2bbd
-0.06512514 -0.036858127 -0.0059167477 -0.011877636 -0.030704876 -0.044556163 -2.971308e-05 -0.06418835
-0.039516028 -0.07218332 -0.07049736 -0.020946385 -0.036497403 -0.10167677 -0.035630364 -0.029314166
-0.04194484
