models/7737503070.pt (torch, 124075 bytes, 24 tensors)

features.0.weight f4 [4, 1, 3]
000000 cd 29 b5 3e 2e 2c eb be bd d8 e2 3e ef 0d d0 3e
       0.35383454 -0.45932144 0.44305983 0.4063563
000010 4a 54 e9 3e fa e1 e9 be 54 36 d4 be d9 a3 81 3e
       0.4557212 -0.4568022 -0.414477 0.25320318
000020 83 61 04 bf ac 9b 0b 3f 1e 3a 1d 3e 27 68 b5 3d
       -0.5171129 0.5453441 0.15354201 0.08857756

features.0.bias f4 [4]
000000 31 70 05 bf 79 f4 01 3c c5 ed 7f 3e 84 c9 be 3d
       -0.52124316 0.007931822 0.24993046 0.0931578

features.2.weight f4 [4]
000000 c3 fb 7a 3f f8 16 80 3f 8c b4 83 3f 74 35 80 3f
       0.9804041 1.000701 1.0289474 1.0016313

features.2.bias f4 [4]
000000 b4 22 89 3d 1a 57 43 3d e9 73 26 3d 47 6a 38 bd
       0.06696072 0.04769049 0.040637884 -0.04502323

features.2.running_mean f4 [4]
000000 70 8b aa 0a 7a bb fc 3c cb b3 5d 3e 49 bf 0c 3e
       1.6422855e-32 0.030851115 0.21650617 0.13744844

features.2.running_var f4 [4]
000000 27 b8 b2 07 1e 22 43 3b eb c8 5d 3b 4d 65 1d 3c
       2.6890698e-34 0.0029774974 0.003384168 0.0096066715

features.3.weight f4 [4, 4, 3]
000000 78 d2 93 3e ba 5c d3 3d b6 6e fe bd 1a e8 68 3e
       0.28871512 0.103204206 -0.1242346 0.2274479
000010 9d b0 c6 3d 5b a6 01 be 38 08 a0 be c2 ed 29 3e
       0.09701655 -0.12661116 -0.3125627 0.16594604
000020 36 e4 8e 3e 3c 0f 77 be 9f 07 c6 3b 7f 4c d2 3d
       0.27908486 -0.24126905 0.006043389 0.10268497
000030 ed d8 25 be 67 dd b5 bd 9e a2 5f be f5 fc 33 be
       -0.16196032 -0.0888012 -0.21839377 -0.17576964
000040 60 4a ad be 59 c8 5b bd 32 e6 5d 3e e0 12 a9 3d
       -0.33845806 -0.053657863 0.21669844 0.08255553
000050 51 58 59 3e 41 30 a5 be a1 46 ad 3b 5a 37 a2 3e
       0.21225096 -0.32263377 0.0052879606 0.31682855
000060 e4 72 52 3d 91 e5 a9 bd 84 13 86 be 6e 05 3f 3e
       0.0513791 -0.082957394 -0.26186764 0.18654415
000070 7b ac 8d 3e 48 ed 7e 3e 05 fd 46 3e dd 9d 8c 3c
       0.27670655 0.24895203 0.19432457 0.017165119
000080 4a 74 38 3e 56 c7 50 bd 78 8f 83 3e e6 65 fe bc
       0.18013111 -0.05097135 0.25695395 -0.031054448
000090 16 3a b7 bc 5c c5 d9 bd 9a 15 2b 3e a3 3b 0f 3e
       -0.022366565 -0.106333464 0.16707459 0.13987593
0000a0 a0 0a 3c 3e 79 06 3f be f1 db 1a be 15 0a 8f 3e
       0.18363428 -0.18654813 -0.15122963 0.2793738
0000b0 c2 63 0a be 68 92 1f be f6 07 a8 bd 67 36 e5 bd
       -0.13514617 -0.15583193 -0.082046434 -0.11192017

features.3.bias f4 [4]
000000 5c 1f d5 bd 71 7e 5c 3e f6 a5 6c 3c 98 66 1c 3e
       -0.10406372 0.21532609 0.014443865 0.15273511

features.5.weight f4 [4]
000000 f2 36 77 3f 08 5f 85 3f 61 0d 81 3f 48 f9 7d 3f
       0.96568215 1.0419626 1.0082208 0.992085

features.5.bias f4 [4]
000000 2e c3 20 bc dc bf 53 bd 38 57 d0 3c ad bd f6 bc
       -0.009812159 -0.051696643 0.025432214 -0.030119741

features.5.running_mean f4 [4]
000000 39 f9 0c 3c 19 34 ea 3e 85 27 f6 3d d1 35 5d 3e
       0.008604341 0.45742872 0.120192565 0.2160256

features.5.running_var f4 [4]
000000 94 7c 4e 3b 76 1b 92 3d 1f f2 8d 3e 03 16 f2 3b
       0.003150736 0.07134144 0.27723786 0.007387878

features.7.weight f4 [8, 4, 3]
000000 b7 78 4d 3e a6 b7 2b be 29 5a 1d 3e 46 e7 40 be
       0.2006558 -0.16769275 0.15366425 -0.18838224
000010 a7 ad 94 bd 3a 93 4c 3e a6 2b 5c 3e c1 a7 ad 3e
       -0.07259684 0.19978037 0.21501026 0.3391705
000020 fa 84 97 3e 63 1a 6d 3e c6 0e 14 be 08 ea 4d bd
       0.2959364 0.23154597 -0.1445876 -0.050272018
000030 42 b8 97 bd 07 b0 b4 3b d6 f5 6c bc fa fa 32 3e
       -0.07408191 0.005514148 -0.014462909 0.17478552
000040 7b 34 36 3e ca d4 89 be 21 a2 3d be 1f d3 be bd
       0.17793457 -0.26920158 -0.18518879 -0.09317612
000050 81 51 a3 3c 83 0a 13 bd 0d 28 02 be 7c ba 8f bc
       0.019936325 -0.035898697 -0.1271059 -0.017544977
000060 3a d5 2e be 12 a0 85 3b 3e ea 80 be 35 27 1f 3c
       -0.17073527 0.0040779198 -0.25178713 0.0097139375
000070 96 a2 85 bd e9 bd 4a bc 1f 26 5c 3e c4 da 21 3e
       -0.065251514 -0.01237438 0.21498917 0.15806109
000080 2b 8b 33 be 39 a9 53 be e3 44 14 be 0a 2f 2c be
       -0.17533557 -0.20670022 -0.14479403 -0.16814819
000090 6d b2 bf bd 52 bb c2 bd eb e7 22 be 71 b1 fb 3c
       -0.09360204 -0.09508385 -0.15908782 0.03072426
0000a0 4d 86 5f bc 08 d6 69 bd 37 2e e1 bd c3 57 7c 3e
       -0.01364286 -0.05708888 -0.10995143 0.24642853
0000b0 bb bc 89 be 68 c9 7f bc c8 d9 14 3e 90 76 53 3e
       -0.26901802 -0.015611984 0.14536202 0.20650697
0000c0 11 85 0f be 42 d7 94 bd 8a e7 46 3e f1 d4 7c 3d
       -0.14015605 -0.0726762 0.19424263 0.061726514
0000d0 b0 4e b3 3d f7 71 1f be 40 17 5a 3e 5b 6b f7 bd
       0.08755243 -0.15570818 0.21297932 -0.12081023
0000e0 45 4d 38 be c6 af 9c 3e 12 c3 83 3d 6b 0a 0a bd
       -0.17998226 0.30602854 0.06433691 -0.03370134
0000f0 f7 48 85 be 67 48 6e bd f6 e4 3b be 19 58 51 be
       -0.2603223 -0.058174517 -0.1834906 -0.20443763
000100 73 e3 f0 bc cb 0e 01 3e ec fe 8d be f9 b0 4d 3e
       -0.029405331 0.126033 -0.27733552 0.20087041
000110 30 4f a7 3d 7a 4a 99 be 87 5c 85 3e 74 95 57 bd
       0.08169401 -0.29939634 0.26047155 -0.052632764
000120 b3 d9 2f be ca 7b a3 3e eb 74 bb bd 20 35 09 be
       -0.1717289 0.3193038 -0.0915316 -0.13399172
000130 0c 3b 67 bb 49 4f e9 3d e3 b7 73 3c 1b 3a 93 bd
       -0.0035282997 0.113920756 0.014875385 -0.07188817
000140 0f 0c e0 3c 9a 9c 3c be 7e 08 42 be fd 3e e5 3d
       0.0273495 -0.18419114 -0.18948552 0.11193655
000150 34 44 8d bd 50 89 ae 3d 93 9b 21 be e4 c7 87 be
       -0.06897774 0.08522284 -0.15782003 -0.26519692
000160 c0 4a 3e bd 54 d8 54 be b2 19 da bd 61 1f b7 3d
       -0.046458006 -0.20785648 -0.10649432 0.08941532
000170 bf 74 4e bd a9 ed 2c 3e e9 5c e2 3d 7c 78 52 3e
       -0.050404307 0.16887535 0.110528775 0.20553774

features.7.bias f4 [8]
000000 66 8b 48 3e 9e 8c 20 3d 6e b4 00 3e 17 c0 0d be
       0.19584426 0.039196603 0.12568828 -0.13842808
000010 f8 a2 57 3e 11 ab a5 3e 7a 68 2f be 12 fb ad 3e
       0.21058261 0.32357076 -0.17129698 0.33980614

features.9.weight f4 [8]
000000 e1 af 74 3f ba de 9b 3f 6f 21 81 3f fd 1f 74 3f
       0.9558087 1.2177346 1.0088328 0.9536131
000010 43 b7 69 3f 7c e1 7d 3f 1b 08 78 3f 68 f4 7f 3f
       0.9129526 0.99172187 0.9688737 0.9998231

features.9.bias f4 [8]
000000 de 96 70 3d 4b b9 73 3c 7a 4e fd 3b b7 09 a0 bd
       0.05873763 0.01487572 0.0077303024 -0.07814353
000010 32 16 03 3c b7 52 eb 3c f5 e4 23 3d 40 e9 e4 3c
       0.008000897 0.028725965 0.040013272 0.027943254

features.9.running_mean f4 [8]
000000 a9 19 90 3e 34 83 ba 3d 68 2e 78 3e bc ae 72 3d
       0.28144577 0.09107056 0.24236453 0.05924867
000010 d9 4e 9e 3e fe 0c b9 3e 09 c8 9b 3d d1 1a c0 3e
       0.3091953 0.36142725 0.07606513 0.3752046

features.9.running_var f4 [8]
000000 7f 77 68 3f 8f 16 33 3c 28 b3 8e 3e 34 3d 35 3b
       0.90807337 0.010930671 0.2787106 0.0027654888
000010 46 df 0b 3d c7 5b 8d 3d 91 ba 89 3d b8 66 83 3d
       0.034148477 0.06902271 0.06725038 0.064160764

features.10.weight f4 [8, 8, 3]
000000 10 e5 a5 bb 93 85 51 bb bf 03 1a bc 3e 88 57 bc
       -0.005062707 -0.0031970486 -0.009400307 -0.013155041
000010 85 7c 9d bc 15 3c 12 bc 11 e8 c8 ba 0b 61 e5 bb
       -0.019224415 -0.0089254575 -0.001532795 -0.007000094
000020 1f ba 34 bb 32 0b 8a bb 36 e3 84 ba 5d 57 23 ba
       -0.0027576757 -0.0042127604 -0.0010138515 -0.00062309747
000030 1c 53 2f bb 6c 99 8a 3b 9d 40 74 3a 9d 2d 78 3b
       -0.0026752418 0.004229715 0.00093174895 0.0037868985
000040 06 c3 fd 3b 80 45 11 3b 70 44 ae bb 12 76 9c bb
       0.007744196 0.002216667 -0.005318217 -0.0047748173
000050 6d 0a fe 3b fd 21 2e bb aa 66 a2 3a de 2c 58 3b
       0.0077527077 -0.0026570552 0.0012390215 0.0032985727
000060 d5 8e 57 3a 2f e2 c0 3a 14 e6 81 ba cc 7e f4 bb
       0.0008222883 0.0014715845 -0.0009910488 -0.0074614044
000070 7b 4c 57 3a 9f b3 77 ba ba ac 7a bb b5 4b 4c ba
       0.00082129956 -0.0009449068 -0.0038249926 -0.00077932636
000080 47 a4 5f bb f7 8c d1 3b 1f 95 f9 3b c6 80 b2 3b
       -0.0034125017 0.006394978 0.0076166536 0.00544748
000090 23 5e 3a bb 41 1e bf bb 48 7d 76 ba 05 2c 28 bb
       -0.0028437458 -0.005832464 -0.00094028236 -0.0025661003
0000a0 de 40 1e bc ce 5f ba bb ac 7b 49 ba d4 9c 75 3c
       -0.00965902 -0.0056876903 -0.000768597 0.014991004
0000b0 3c e9 83 ba cf 0f aa bb 57 7e ef bb eb c4 de bb
       -0.0010064016 -0.005189873 -0.007308762 -0.006798377
0000c0 9c 51 b1 b9 19 80 19 ba e7 33 d0 bb 07 83 39 3c
       -0.00033820875 -0.0005855575 -0.0063538435 0.011322743
0000d0 aa d8 54 3c a8 6f bd bb 1d 1e b0 bb c6 73 00 bb
       0.01299111 -0.0057811327 -0.0053746835 -0.0019600256
0000e0 2b 10 40 3b 1a 2a 0d 3c 45 18 41 bb 38 a4 6f b8
       0.0029306512 0.008615995 -0.0029463929 -5.713498e-05
0000f0 35 37 b6 39 51 7a 9b 3b 77 f5 b9 bb 8c 9c e8 ba
       0.00034754878 0.004744806 -0.0056750136 -0.001774685
000100 da dc a1 bb 5a da ab 3b 31 6a e4 bb 77 3b 19 3c
       -0.0049396576 0.0052445354 -0.006970667 0.009352556
000110 c3 d1 04 3c e7 6e 27 bb 04 f7 2b ba 2c 73 41 3c
       0.008106652 -0.002554828 -0.00065599405 0.011807244
000120 9d e4 98 3a 2e d6 37 ba de 85 cb bb b2 4e 09 bb
       0.0011664812 -0.0007012811 -0.0062110266 -0.0020951447
000130 80 f1 24 bc 0c f4 7e bc 24 8e c9 bb 69 1b 52 bb
       -0.010067344 -0.015561115 -0.0061509777 -0.0032059795
000140 cc b7 a3 bb cd 5f d8 39 f2 96 05 bb cb 5e 82 bb
       -0.0049962755 0.00041270108 -0.002038416 -0.0039785854
000150 76 49 e8 bb 67 38 10 ba 13 84 4d 3a 46 99 99 ba
       -0.0070888354 -0.00055015687 0.000783981 -0.0011718653
000160 56 82 8b bb c9 fb 05 bb ad 29 ba bb 19 7e 7b bb
       -0.0042574806 -0.0020444265 -0.0056812377 -0.003837472
000170 59 6d ba bb 27 98 3c 3c 91 58 20 3a ec dc 62 bc
       -0.005689305 0.011510885 0.0006116713 -0.013846617
000180 5e f9 d7 3a 6a 00 a9 3b c5 47 4e 3c 9d 39 24 3c
       0.0016477515 0.00515752 0.012590353 0.010023502
000190 30 66 c4 3b 0a c9 6e 3b 74 80 06 bc d6 96 0c bc
       0.005993627 0.0036435747 -0.008209337 -0.008580884
0001a0 34 82 89 39 fc 8b 49 bc 85 ad 3e bc ac 11 28 3c
       0.00026227685 -0.012301441 -0.01163805 0.01025812
0001b0 7b 23 67 bb 15 37 cd ba e1 55 80 bb 1a 21 25 bc
       -0.003526895 -0.0015656675 -0.0039164876 -0.010078693
0001c0 98 5e 66 3b e9 db 42 bc b8 db c6 bb 28 c1 2a 3a
       0.0035151597 -0.011893251 -0.006068673 0.0006513768
0001d0 29 54 ec 3a 90 63 99 3b 33 29 09 bc 4b 85 49 bb
       0.0018030453 0.004681058 -0.008371639 -0.0030749615
0001e0 15 f8 ac bb 61 f9 3e 3b 84 eb ab 3b 8b 81 c0 bb
       -0.005278597 0.002914034 0.0052465815 -0.0058748177
0001f0 0e 30 5f bc 7a 3b 80 bc 77 44 a9 bb cf 8e d7 b8
       -0.013622297 -0.01565336 -0.0051656323 -0.00010278599
000200 20 a0 81 3b 00 2c 8d b8 19 c4 ea 3a 4e 2a be 3b
       0.003955856 -6.7315996e-05 0.0017911225 0.005803383
000210 62 d7 62 39 f7 30 1b bb 54 f2 0e bc 7e fe 4b 3c
       0.00021633276 -0.0023680308 -0.008724768 0.012450812
000220 87 1a c9 3b 09 57 61 bb 66 a3 1a 3c 90 9b f7 3b
       0.0061371955 -0.0034384152 0.009438371 0.0075563863
000230 46 f0 08 3c 47 62 95 ba 7b dd a8 bb ec 6c 1e 3b
       0.008358067 -0.0011397087 -0.0051533557 0.002417381
000240 38 53 34 3b 54 30 e2 3a 26 cf aa b8 86 2e 73 bc
       0.0027515423 0.0017256835 -8.144816e-05 -0.014842635
000250 7b 04 31 bb 20 f5 aa bb 5c 61 b3 ba 6d 16 c1 b9
       -0.0027010727 -0.0052172095 -0.0013685632 -0.00036828537
000260 7d 34 19 bc 1b c6 3f 3b 4d a8 d9 3b 18 01 33 bb
       -0.009350893 0.0029262367 0.0066423775 -0.0027313884
000270 2b 1b 4b bb 9d c0 4d 3b 27 ce 58 3c 1c 69 42 3b
       -0.0030991535 0.0031395324 0.013232744 0.00296647
000280 cd 11 2a bc c8 e6 ff bb f2 d4 d6 bb fe 09 7d bb
       -0.010380221 -0.0078094937 -0.006556147 -0.0038610692
000290 92 03 fa 3a 73 d1 47 3b 9a a1 28 bb 4a 4d ac bb
       0.001907455 0.0030489832 -0.0025731088 -0.005258237
0002a0 f7 3a 04 3c 0e 1d ad 3b e9 af a2 3a 32 ff 1f bb
       0.008070699 0.0052830046 0.0012412044 -0.0024413583
0002b0 c0 96 d2 3b 8f b6 42 3b 0a 3b f2 3b 53 61 27 3c
       0.006426662 0.0029710864 0.007392292 0.010216075
0002c0 01 13 bc 3b 3d f4 af 3b cd f2 5e 3b e2 e0 de 39
       0.00573957 0.0053696916 0.0034019232 0.0004251069
0002d0 e2 51 81 3b 87 71 f9 3a f1 30 4f 38 43 ec 0a 3a
       0.003946529 0.0019031026 4.9398226e-05 0.0005299488
0002e0 eb 4d e6 ba 7c 41 61 bb cf 33 ab 3b ca 8a 28 3b
       -0.0017570829 -0.0034371307 0.005224682 0.002571749
0002f0 94 04 bb b9 47 59 a9 bb ce 4e 28 bc 61 76 65 bc
       -0.0003567083 -0.0051681134 -0.010272695 -0.0140052745

features.10.bias f4 [8]
000000 3c 29 54 3b d3 7e ee bb e6 de 71 ba 35 ac 9e bb
       0.003237321 -0.007278302 -0.0009226635 -0.004842306
000010 ca 85 bf 3b 1e 2a a5 ba a5 66 a4 3b 8e d0 36 3b
       0.0058448063 -0.0012601053 0.005017119 0.0027895304

features.13.running_mean f4 [8]
000000 93 81 9a 3c cc 86 76 3c 4e 96 6f 3c 97 4f 74 3c
       0.018860614 0.0150467865 0.014623238 0.014911554
000010 f4 35 8d 3c f6 75 8c 3c a8 14 d0 3c d7 32 a3 3c
       0.01723764 0.017146092 0.025400475 0.019921703

features.13.running_var f4 [8]
000000 93 37 ba 39 b0 a5 b4 39 c5 38 95 3a c9 5d 4e 39
       0.0003551809 0.00034455722 0.0011384716 0.00019680629
000010 6d 1b 21 3a 05 9a ab 3a 0a 68 d9 39 93 56 b8 3a
       0.00061457494 0.0013092166 0.0004146698 0.0014063887

classifier.0.weight f4 [17, 1672]
000000 87 16 41 bd 77 03 34 bd 7b b0 21 3c be d7 c0 3d
       -0.047140624 -0.043948617 0.009868736 0.094161496
000010 d5 3c 8f bc fc 73 89 39 98 5c 2f 3d eb 52 22 3d
       -0.017485062 0.0002621709 0.042812914 0.039629858
000020 95 ef 9c 3d e6 d7 17 3d c3 be cc 3c 3a f6 fc bc
       0.07662884 0.03707113 0.024993306 -0.030879129
000030 da 03 9e bc 72 c3 9c bd a5 20 67 3d 00 fa f2 3c
       -0.019288946 -0.07654466 0.056427617 0.029660225
000040 28 b5 c9 bc 1c e4 cb bc 12 1d f9 bc 87 79 38 bc
       -0.024622515 -0.024889044 -0.03040937 -0.011259443
000050 89 06 29 3d 6a 39 c6 3c 72 9d 2b 3c af 94 94 3d
       0.041265998 0.024197299 0.01047455 0.07254922
000060 e2 3e fb bc 52 c1 2e bc d8 99 a2 3d 71 c7 82 3d
       -0.030669633 -0.010666208 0.079394996 0.06385697
000070 ad 02 56 3c 4e b5 38 bd 82 67 ca 3b 66 6d da bd
       0.013062161 -0.04509478 0.00617689 -0.10665397
000080 33 fa 1a bd 94 5f 11 3d de 0a 0a bb 11 9d 65 bc
       -0.037836265 0.03549154 -0.0021063606 -0.014014498
000090 a1 4a bf 3c 6d ea e1 bb 60 e8 9a 3b f0 08 b9 bc
       0.023351016 -0.006894401 0.0047274083 -0.02258727
0000a0 dc 8e 16 bc 58 d7 9a 3c 79 ea 14 bd 2d 51 5f 3c
       -0.009189334 0.018901512 -0.036356423 0.013630194
0000b0 07 77 c9 bc 5e fa cf 3c a0 d5 14 bd 5a c5 6f bc
       -0.02459289 0.025387939 -0.03633654 -0.014634455
0000c0 27 46 dd bb 6a bf 00 3d 18 fa a0 3d 27 38 21 bc
       -0.0067527476 0.031432547 0.078602016 -0.009840048
0000d0 67 79 81 bd 2b d2 8d 3c e5 5c 9c 3d db 29 95 bd
       -0.06321984 0.01731213 0.07634906 -0.07283374
0000e0 e7 53 32 bd 1e 34 cb bc 7b 82 a5 bc 2d 7b 0b 3d
       -0.043537047 -0.024805125 -0.02020382 0.034053016
0000f0 4e 30 28 bd e2 d2 2a bc 20 97 d5 3c 1b dd 55 bd
       -0.041061692 -0.010426255 0.026073039 -0.052212816
000100 64 b9 02 bd 58 d0 c6 bb f3 2e 8b bd 05 ef eb bc
       -0.031915084 -0.006067317 -0.06796064 -0.028800497
000110 79 d4 21 bd ef 65 4d bc 09 37 85 bd 76 14 cd 3c
       -0.03950927 -0.01253651 -0.06504638 0.02503417
000120 b8 da d0 bd 99 cf 06 bc b5 e7 1b bd 22 7f bf bd
       -0.10197967 -0.008228206 -0.03806277 -0.093504205
000130 29 f8 01 bd 2b 2c 27 bd b3 fc c0 3c 15 aa 99 3c
       -0.031730805 -0.040813606 0.023557996 0.01875786
000140 6e 7c 10 3d c0 94 e7 3c d2 95 e2 3c 50 5f a1 3b
       0.035274915 0.028269172 0.02765933 0.004924692
000150 bf 0c 1c 3d b2 12 ac 3c 66 c9 8a 3c 08 1a 80 3d
       0.038098093 0.021005008 0.016941737 0.06254965
000160 96 7e 04 bd 2f ab 5e 3d 1b c7 29 bd e6 f3 27 bc
       -0.032347284 0.054362472 -0.041449647 -0.010251021
000170 c4 62 39 3d 38 c4 1d bd 27 c6 79 bd e3 90 51 3a
       0.045260206 -0.038517207 -0.06097999 0.0007994307
000180 8b 6f f5 bb 4a a0 73 bd 1c 12 0e bd 96 3e 90 bd
       -0.0074901036 -0.059479035 -0.03468524 -0.07043187
000190 b4 a1 3e bd b3 28 a5 bd 37 ac c0 bd ef d5 c1 bd
       -0.04654093 -0.080644034 -0.094078474 -0.09464633
0001a0 8b 26 a5 bc 56 2f 84 bc f6 eb 30 3c e0 b0 b3 bc
       -0.02015998 -0.016135853 0.010798445 -0.021934927
0001b0 e4 e1 da 3c 51 66 28 3e 18 92 3e 3d a7 b5 da 3c
       0.026719041 0.1644528 0.046526045 0.026697947
0001c0 a2 38 67 3d bd eb 0d 3c 77 14 f0 3d cc 5c 95 bc
       0.056450494 0.008662161 0.11722653 -0.018232726
0001d0 19 cc 3f bd 89 cb bc bc 2b 1b c8 bc 68 e3 1d bd
       -0.046825502 -0.023046272 -0.024427017 -0.03854695
0001e0 2f a7 d2 bb 45 8c 34 3d f7 b2 cd b9 c1 42 a6 bc
       -0.0064286212 0.044079084 -0.00039233986 -0.020295503
0001f0 d7 04 3f bd bc 14 9c bd 26 b0 85 3b f5 db 1d 3d
       -0.046635475 -0.07621142 0.0040798364 0.038539845
000200 04 68 31 bd 7d c4 e1 bb 08 e0 8b 3c cb b2 4f bd
       -0.043312088 -0.0068898783 0.0170746 -0.05070762
000210 25 18 bd 3c 02 71 0f 3d 9f c3 25 3d 11 da 84 3d
       0.023082802 0.035019882 0.040469762 0.06486905
000220 c9 1b 09 3d 52 67 f0 bc b1 0b 16 3e cf e4 3d bc
       0.033473764 -0.029346142 0.14652897 -0.011590197
000230 4d 65 c2 bd 84 dc 5b 3c 94 a2 d2 3d 1f 44 ce 3c
       -0.09491978 0.013419274 0.102849156 0.025178967
000240 35 5b 8a 3c 98 ac 35 bc c7 ed ea bd 4d de 13 be
       0.016889194 -0.011088513 -0.11471134 -0.1444027
000250 9b 47 f2 bc 33 20 a5 bb e4 43 18 bd c6 57 43 3d
       -0.02957516 -0.005039239 -0.03717412 0.04769113
000260 a8 68 42 3c 21 03 9a 3d c9 12 c7 3d e9 4b 03 3e
       0.011865772 0.07520128 0.0972038 0.12821926
000270 2e 76 aa bc c2 f6 72 3c af 7c 18 bd 6e 22 5e bd
       -0.020808306 0.014829339 -0.037228283 -0.054232053
000280 1b d9 72 bd e9 35 68 bd 8c 40 f7 bc ec e2 45 bd
       -0.05928908 -0.056692038 -0.030182146 -0.048312113
000290 f8 15 dc bd 0d 26 c1 bd 79 98 e2 3c 3a 06 25 3d
       -0.10746378 -0.09431086 0.027660595 0.04028914
0002a0 a6 ff d6 3c 45 14 1f 3d 38 7e 73 bc d3 14 c4 3c
       0.02624495 0.03883769 -0.014861636 0.023935711
0002b0 c5 a5 70 bb 5d 87 86 bc 87 9d 8a bd e0 48 c7 bc
       -0.00367199 -0.016421968 -0.06768327 -0.024326742
0002c0 f2 8e fd bd 66 6f 25 bd 23 5d 19 3c f9 db 33 bc
       -0.1238078 -0.04038944 0.009360584 -0.010977739
0002d0 7c f6 33 3c 13 98 d1 3a 49 94 a0 3b 65 68 ac 3d
       0.010984059 0.0015990756 0.0049004895 0.08418349
0002e0 55 15 91 3d 87 77 c4 bb 35 db 8c bc 8f bd bf 3c
       0.07084147 -0.005995694 -0.01719437 0.023405818
0002f0 0c 26 18 3d 59 96 86 bc cb b4 06 3d fc bb 41 bd
       0.03714566 -0.016429113 0.03288726 -0.047298416
000300 33 e8 2c 3d a9 c4 24 bc 5c 08 9d 3d f6 14 35 3c
       0.04221363 -0.010056653 0.0766761 0.011052361
000310 80 a4 0e bd 61 fb a2 3d 9f b2 17 3d bc 2f 27 3d
       -0.03482485 0.07958103 0.03703558 0.040817007
000320 ac 83 85 3d 48 c5 45 3d 6c 0e 53 3b 71 c1 aa 3c
       0.06519255 0.048283845 0.003220464 0.020844193
000330 43 aa 1a 3d 45 53 2b 3d f9 a4 73 bd 1f ff 1a 3d
       0.03776003 0.04182746 -0.059483502 0.03784096
000340 f4 d9 9f bc fa a6 0d 3c 07 9f 00 3d 28 aa 1f bd
       -0.019513108 0.008645767 0.03140166 -0.038980633
000350 a2 fe 41 bd ff 58 7d b9 22 87 6b bd bd e8 92 bd
       -0.047361977 -0.00024161114 -0.05750192 -0.071732976
000360 97 bb 55 3d 4f 04 28 3d 52 04 5c bd ad f6 59 bd
       0.052180853 0.041019734 -0.053715058 -0.053213764
000370 1f b1 2d bc 54 3f 94 3c 5e 0a be bc 4d 9d 9c bc
       -0.010601311 0.018096603 -0.023198303 -0.019117976
000380 a6 ca 55 bb c9 64 c1 3c 3b d4 1a 3c c9 8e 87 bd
       -0.0032622009 0.023607628 0.009450014 -0.06619031
000390 23 33 a8 bb 59 55 ec 3c 08 6c a1 bb 90 d1 56 bd
       -0.005133049 0.02884929 -0.0049262084 -0.052445948
0003a0 8f 31 15 3d 57 db 37 bd 55 5b 8a 3c 92 2d 29 bb
       0.036424216 -0.044886913 0.016889254 -0.0025814516
0003b0 7c 6e a5 3c 98 dc 15 3d e6 50 43 3d 50 dc 71 3c
       0.020194285 0.036587328 0.047684573 0.014761999
0003c0 49 3e 29 bd c6 00 8b bd ab cb 77 bc 23 02 2e bd
       -0.041319165 -0.06787257 -0.015124242 -0.042482506
0003d0 5b 18 e6 3c 04 48 0a 3c 35 bc 26 bd dd 20 90 bd
       0.028087785 0.008440021 -0.040706832 -0.07037518
0003e0 a8 49 2b bd 66 de ac bd f3 6c 3e 3d 8f 5c 99 bc
       -0.04181829 -0.08440857 0.04649062 -0.018720893
0003f0 a8 bc ae bd 9f 19 c1 bc 53 3c 84 3c 98 b8 a3 3c
       -0.08532077 -0.023571787 0.016142046 0.019985482

classifier.0.bias f4 [17]
000000 4e 82 54 bd 17 42 c8 bd b7 b1 2f bc 1e 5d b2 bc
       -0.05188208 -0.09778231 -0.010723523 -0.021772917
000010 38 f3 b2 bc 02 a4 91 bd 62 5f 0b bc 81 8b 5f bd
       -0.021844491 -0.0711136 -0.008506628 -0.0545764
000020 5a b0 b4 bc d2 86 ae bd c4 7f a1 bd ac d0 69 bd
       -0.022056747 -0.08521809 -0.078856975 -0.05708377
000030 f1 60 1b bd 66 a3 01 be 9e d8 98 bd 8c d7 49 bd
       -0.037934247 -0.12659988 -0.074631914 -0.049277827
000040 82 82 aa bd
       -0.08325674
