models/8335606594.pt (torch, 124075 bytes, 24 tensors)

features.0.weight f4 [4, 1, 3]
00000000: 3835 9d3d 8b43 823d f87b f0be b372 abbe
00000010: c8ac 11bf cf48 08bf e808 153f 82fe ee3e
00000020: 9a9d f13d c1c4 0d3f 1f6a 4cbe 4964 a7be
0.07676166 0.06360539 -0.4696958 -0.33485946 -0.5690427 -0.532361 0.58216715 0.4667855
0.11797638 0.5537835 -0.19962357 -0.326937

features.0.bias f4 [4]
00000000: 03f3 fd3e 4082 fabc 995a 063e 6c30 953e
0.49599466 -0.030579686 0.13120498 0.29138505

features.2.weight f4 [4]
00000000: 649f 803f 0000 803f d930 823f b88a 7c3f
1.0048642 1.0 1.0171157 0.9864917

features.2.bias f4 [4]
00000000: bf0e 25bd fb43 9fbd bb72 a43d 573b b03c
-0.040297266 -0.07776638 0.080296956 0.02151267

features.2.running_mean f4 [4]
00000000: 12d0 f43e 0000 0000 5e2f 443e 7589 953e
0.47814995 0.0 0.19158694 0.29206434

features.2.running_var f4 [4]
00000000: e200 ec3a 63b7 5916 81e8 ab3c 00df dd39
0.0018005634 1.7586987e-25 0.02098489 0.00042318553

features.3.weight f4 [4, 4, 3]
00000000: 3411 233e c9a5 25be 2d3b d4bd b4b8 bdbe
00000010: e737 bbbd 819c 54be 7687 c23c 8a29 0bbc
00000020: 4517 763e bb94 dd3c 49ff f53d 5326 bd3d
00000030: 5495 783e 0cc9 11be c112 533e 4324 703e
00000040: 93b8 b3bd 8151 513e 0b00 933e fe32 1abe
00000050: fa50 c2bd 45c0 8d3e 8db2 503e ffbb 6b3d
00000060: 1ffd d63d 3de7 733e da80 a43e c381 24be
00000070: 7d49 c6bd 35ab 873e c8eb 173e 1dc9 10be
00000080: 362e edbd 99de 813e 2bb4 1dbe 9615 523e
00000090: 2046 183e 6523 83be ef2e 8bbe 9318 dd3d
000000a0: db73 1d3e 1738 893e c6df 863d e619 663e
000000b0: fb40 45be cfd5 483e 5d6b 76be 3002 6b3e
0.15924531 -0.16176523 -0.103628494 -0.3705498 -0.09141522 -0.20762827 0.023746233 -0.00849379
0.24032314 0.02704846 0.120115824 0.092358254 0.24275714 -0.1423685 0.20612623 0.23451333
-0.08775439 0.20441248 0.2871097 -0.15058514 -0.09488101 0.27685753 0.20380612 0.057552334
0.10497498 0.23818679 0.32129556 -0.16065125 -0.096819855 0.26497808 0.14836037 -0.14139219
-0.1158108 0.2536514 -0.1540076 0.20516047 0.148705 -0.2561294 -0.27184245 0.10795703
0.15376227 0.26800606 0.0658565 0.22470817 -0.1926307 0.19612812 -0.24064393 0.22950053

features.3.bias f4 [4]
00000000: e082 e73d 3fb1 173e be54 db3d fd97 51be
0.11304259 0.14813708 0.10709523 -0.20468135

features.5.weight f4 [4]
00000000: e346 803f bfbc 833f d6a9 813f ac74 793f
1.0021633 1.0291976 1.0129955 0.9744365

features.5.bias f4 [4]
00000000: 52fe 253d a7b1 01bb aa76 193d 5f15 44bd
0.040525742 -0.0019789727 0.037466682 -0.047871944

features.5.running_mean f4 [4]
00000000: 0f1c 483e 6d18 6a3e 743e 8f3e dedd c93d
0.19541954 0.2286088 0.27977335 0.09856771

features.5.running_var f4 [4]
00000000: 704c 2a3e a3f1 153e 090a 0b3d 8562 133e
0.16630721 0.14642958 0.033945117 0.14393051

features.7.weight f4 [8, 4, 3]
00000000: fe5a 99bb e599 c83c 19f5 033d f922 9ebe
00000010: 0f79 1abe 83dd e5bd 3ca9 58be 1433 473e
00000020: 81d3 3f3e 9e40 a83d 1a4c 0dbe a23b 8dbe
00000030: 91a9 6c3d b24a 993e 4034 333e 3a22 68be
00000040: 1b8c 18bc c44a a43d 3016 433e 3459 073e
00000050: 8e52 18be e61a 81be d3c8 9f3d b0f7 b63d
00000060: 13dd 213e ae86 403e 441e 853e ad2f c9bd
00000070: 6055 8cbe eb26 083e 671f 9b3e efaf 42be
00000080: 9367 16be ea36 923e 7fdc 583e bdcf 88bd
00000090: 5f33 27be bf9a 733d b1fa 8abe 9ea5 4fbe
000000a0: 1fc3 2dbe 1102 1fbe c2d8 dd3d 5d4f 2bbc
000000b0: 4572 7dbe 4c43 43bb a90c c13c 1a59 183e
000000c0: f45a a6bc 563a ffbd a409 ed3d 9d39 ac3d
000000d0: e49a 84bb e051 27be f020 023d c27e ee3c
000000e0: 998b 463e 10f4 fdbd 6334 26bd 7c5b 103e
000000f0: e79d a3bb 1799 1d3e 06d6 2cbd 31ec 963e
00000100: 59fa 0339 d234 61bd 5183 b43d 83ce b33b
00000110: 4c0c 863e 7b61 67bd 1e3f 403e fb23 c7bd
00000120: 7112 613d be45 b83d 195c 91be 4d73 1a3d
00000130: da95 863d 5d7a 213d 1de9 05bd a53b b3bd
00000140: eed3 6e3c 66cc 053d 2da5 24be e44e e93d
00000150: 1bcf 3fbe 7dac 6a3d 1952 b9bd 52d0 32be
00000160: c987 84be 842a 383e 0e4e 643d 63d3 4e3d
00000170: 04c0 03bd 85c6 f2bd 100d 6fbe b1b0 9e3c
-0.0046800366 0.024487445 0.032216165 -0.30886057 -0.15085243 -0.11223891 -0.21158308 0.19453079
0.18733026 0.0821545 -0.13798562 -0.2758456 0.0577789 0.299398 0.175004 -0.22669306
-0.0093107475 0.08022073 0.19051433 0.13217622 -0.14875242 -0.25215834 0.07801976 0.089339614
0.1580699 0.18801376 0.25999653 -0.098235466 -0.27408886 0.13296096 0.30297396 -0.19012426
-0.14687948 0.2855752 0.21177863 -0.06680248 -0.1632819 0.05947375 -0.27144387 -0.20278022
-0.16968964 -0.15528132 0.10832359 -0.010455933 -0.24750622 -0.002979475 0.023565607 0.1487774
-0.020307042 -0.124622986 0.115741044 0.08409426 -0.0040467847 -0.16339827 0.031769693 0.029113177
0.1938919 -0.12400067 -0.040577304 0.14097399 -0.0049931887 0.1539043 -0.042196296 0.29477075
0.00012586395 -0.054982014 0.08814109 0.0054872646 0.26181257 -0.05648945 0.18774077 -0.097236596
0.054949228 0.08997677 -0.28390577 0.037707616 0.06571551 0.039423335 -0.032693017 -0.08751611
0.014576895 0.032665633 -0.16078635 0.11392 -0.18731348 0.057293404 -0.09048862 -0.1746228
-0.25884846 0.17984968 0.0557385 0.050494563 -0.032165542 -0.11854271 -0.23344827 0.019371362

features.7.bias f4 [8]
00000000: 547d 45be 39fe 07be 8e02 173e 312f 373e
00000010: d1ff bfbd 5296 38be 6638 c13e ba90 533e
-0.1928609 -0.13280572 0.14747068 0.17889096 -0.09374965 -0.18026093 0.3773834 0.20660678

features.9.weight f4 [8]
00000000: 7100 793f 998f 7b3f f437 853f 16ab 933f
00000010: 6e5c 733f bb8e 6a3f a581 633f 74bc 873f
0.972663 0.9826599 1.04077 1.1536586 0.9506291 0.9162404 0.88869697 1.0604386

features.9.bias f4 [8]
00000000: a293 2d3d de46 8a3c ee04 1ebd 60dd 5abb
00000010: 780f 073d 1b62 3dbc fc80 ac3d 9195 1fbd
0.04237712 0.016879495 -0.03857892 -0.003339611 0.032973737 -0.011559035 0.08423039 -0.038960997

features.9.running_mean f4 [8]
00000000: fd1c eb3c c9d8 b23d 8d1c 9c3e 840b 813e
00000010: 44c5 423d 433b ad3d a56f c03e 88b5 b13e
0.028700346 0.08732755 0.30490533 0.25204098 0.04755141 0.08458569 0.37585178 0.3470881

features.9.running_var f4 [8]
00000000: b43f 2e3b 7094 0d3e 2b7e 6e3f 42ae f03c
00000010: a9e4 8c3b 0e1d 603e 6f48 443c 3070 d23c
0.0026588263 0.13826156 0.9316127 0.029379968 0.0042997194 0.21886083 0.01198016 0.02568826

features.10.weight f4 [8, 8, 3]
00000000: 4979 ae3b f9af 8cbb 0ddb d93a 005d b63a
00000010: 4b79 ed3b d038 d23b 59ba caba 3389 f03b
00000020: 42fb f03a 5c73 ebbb 1f12 81bc b326 77bb
00000030: a04f 3e3b 8423 1d3a ff97 283b 0dab 8fba
00000040: 520d b1ba 2872 0cbb 9226 aebb 8ac9 b8bb
00000050: f200 9d3b 44f3 b0bb 17e4 2abb 1614 af38
00000060: 6359 9bbb f68d 98bb b0ed bf3b 1974 eebb
00000070: 5e69 8e3a 3ea3 ddbb 5a8e 77b9 0214 bbbb
00000080: 8f9a cebb dc52 2abc fa3c adbc ef3d e6bb
00000090: a49c c43b 0e6e e83b b788 533b 4bf2 28bb
000000a0: 1f2d 3bbb 2906 513c 7f75 e6bb 92bc 8dbb
000000b0: 99af df3a b6d5 a2bb e39a 273b 0f70 5d3c
000000c0: db7b 963c 9951 1fbc 3fe4 0fbc 09a3 85bb
000000d0: 07a8 eebb ec41 11bc da66 a5bb 3669 6aba
000000e0: 78d4 99bb 75be dc3b ecfa 8f3b c80f abbb
000000f0: db62 9db9 53c2 233c 0331 413b 087e 75bb
00000100: e1a1 183b 259a 41bb 4d4c 76bb 286b 893b
00000110: 6023 043b 3d3d 1c3a ab70 39bb 4777 59ba
00000120: 945c e83a ba79 473c a975 8cbb 6dc9 a23b
00000130: 30c4 14bb d387 a9bb b788 0fba d164 a7bb
00000140: 5c83 b6bb 155d c4bb ea0d 3fbc 5229 4cbc
00000150: 16d4 f5ba 5a03 2c3b 39e3 9dbb 4a6f 9aba
00000160: 1cb6 603b 07ce 73b8 7395 d73a 27a1 193c
00000170: 7b7a 083c e243 3e3b 5c36 f83a d045 8839
00000180: fb7c 7bbb 8458 89bb 38fe d834 8e26 bf3a
00000190: c4d7 523b b961 263c 1a08 99ba 32bc d1b9
000001a0: 8da0 363b 2fe6 263b 9741 063c 4a14 7e3c
000001b0: 60a0 803b ca2f 83ba 9b43 20bc dcf8 b73a
000001c0: 104a 97ba 5e4d 40bb 34a6 09bc 3f66 7fbb
000001d0: 0698 ddbb f76f 413c 54c9 233c efc8 393c
000001e0: 0ef1 283b e4ff f9ba 5ca1 243c b0cf 63bb
000001f0: b16b 73bb 7dbc 07bb 77bd a2b9 e7b2 f6ba
00000200: 3733 fdba d4b9 2e3c ce94 0c3c e717 6e3c
00000210: 79bd 4e3b deaf 10bb a816 a9bb a090 fe39
00000220: 789b c13a 9abb 6c3a 762a 7b3a 2003 02bc
00000230: 9237 27bc 9355 f2ba 1f01 983a 014f 02bb
00000240: 517d 8dbc b49d 823b dbed 373b 5348 8abb
00000250: af62 22bb e139 a4bb e8e4 12bc 55fc 38bc
00000260: 82bd 02bc 6226 223b 45c9 2f3b 7be0 82bc
00000270: a456 29bb c9f6 5abb 14ef 90bb 8893 d93b
00000280: 9e9f 213c b1da 953b 8a78 6539 8b4a 503b
00000290: 074c 96ba b1f9 a3b8 7b5c 79bb 5eeb bcb9
000002a0: ba17 39bb 52cb ddba 4e1d 203b 1b26 bcbb
000002b0: 36b9 c5bb 7314 663a a07f 35bc b813 67ba
000002c0: 983c a7b8 4239 38bb 7a69 a43b 7b57 b8bb
000002d0: bb62 673a 1a52 123b faac 7dbb b28a 4abb
000002e0: 06ec b23a 4286 8fbb 812b 0b3c e85b dd3a
000002f0: 8962 52bc 20b9 2ebc 0ea8 3dbc 3c0d 52bc
0.005324517 -0.0042934385 0.0016621068 0.0013913214 0.0072471253 0.006415464 -0.0015466913 0.007340574
0.0018385428 -0.007185383 -0.015755711 -0.0037712276 0.002903916 0.0005994367 0.0025725362 -0.0010961011
-0.0013507998 -0.0021430347 -0.0053146565 -0.0056392597 0.0047913725 -0.0054000933 -0.0026075894 8.3483916e-05
-0.0047408803 -0.004655595 0.005857192 -0.0072770235 0.0010865142 -0.0067638448 -0.00023608786 -0.005709172
-0.006305046 -0.010395732 -0.02114724 -0.007026426 0.0060001183 0.0070931977 0.0032277533 -0.0025779183
-0.002856083 0.012757816 -0.0070330496 -0.004325458 0.0017065882 -0.004969324 0.0025574497 0.013515486
0.018369606 -0.009724044 -0.008782445 -0.004078273 -0.007283214 -0.008865815 -0.0050476613 -0.0008942069
-0.0046945177 0.0067365714 0.004393926 -0.005220387 -0.00030019027 0.009995061 0.0029478676 -0.0037459154
0.0023289847 -0.002954134 -0.00375821 0.004193682 0.0020162687 0.0005960053 -0.0028295915 -0.0008295667
0.0017727786 0.012175018 -0.004286487 0.0049678595 -0.0022699945 -0.005173662 -0.0005475389 -0.005108454
-0.0055698585 -0.0059925416 -0.011661032 -0.012461023 -0.0018755223 0.0026247115 -0.004818347 -0.0011782434
0.0034288233 -5.8127593e-05 0.0016447738 0.009376801 0.008329983 0.002903216 0.0018937099 0.00025991956
-0.0038374055 -0.00419146 4.0418104e-07 0.0014583634 0.0032172063 0.010155135 -0.0011675388 -0.00040003803
0.0027866692 0.002546679 0.008194349 0.015507767 0.003925368 -0.0010008749 -0.009781743 0.0014035958
-0.0011542458 -0.002934299 -0.008401442 -0.0038970856 -0.0067625074 0.01180648 0.009996731 0.01133941
0.0025778445 -0.0019073454 0.010048237 -0.0034761243 -0.0037143047 -0.0020711713 -0.0003104021 -0.0018821628
-0.0019317631 0.010664422 0.0085804 0.014532066 0.003154604 -0.0022077481 -0.0051601715 0.0004855441
0.0014771065 0.00090306404 0.00095812173 -0.007935315 -0.01020612 -0.0018488638 0.0011597014 -0.0019883516
-0.01727167 0.003986085 0.0028065357 -0.0042200475 -0.0024778058 -0.0050117825 -0.008965708 -0.011290629
-0.0079797525 0.0024742116 0.0026822847 -0.015976181 -0.0025838995 -0.0033411256 -0.0044230316 0.0066399015
0.009864716 0.004573189 0.00021884046 0.0031782712 -0.001146675 -7.818954e-05 -0.0038049507 -0.00036033517
-0.0028242902 -0.0016921556 0.002443153 -0.005741847 -0.0060340418 0.0008776851 -0.011077791 -0.0008814889
-7.974467e-05 -0.00281103 0.0050174566 -0.005625663 0.00088266627 0.0022326768 -0.0038707838 -0.0030905423
0.0013650663 -0.0043800185 0.008494259 0.0016888352 -0.012840875 -0.010664254 -0.011575712 -0.012820538

features.10.bias f4 [8]
00000000: 9f8a 9ebb c8a8 4e3b 21a9 ea3b d756 703b
00000010: ca03 84bb 3eeb 89bb a6fa 133c ea3a 2abc
-0.0048383023 0.0031533707 0.007161275 0.0036672854 -0.004028772 -0.0042089513 0.009031927 -0.010390023

features.13.running_mean f4 [8]
00000000: a122 8b3c 17cc c63c 7947 9d3c a753 bf3c
00000010: 10d5 793c 28f7 813c 89c9 a63c 9c3d 553c
0.016984286 0.02426724 0.01919912 0.023355318 0.015248552 0.015864924 0.020359771 0.013015177

features.13.running_var f4 [8]
00000000: 1279 d83a ba14 163a c5ce 263a 21c1 8e3a
00000010: 45db 093a 25be 693a f8ad 1b3a ab1e 273a
0.0016515574 0.00057251344 0.00063632085 0.0010891297 0.0005258809 0.00089165784 0.0005938704 0.00063751143

classifier.0.weight f4 [17, 1672]
00000000: 3612 81bd 6eed 92bc f6a6 0abd 9523 e6bc
00000010: ff0b 3abd 8f90 1d3c c50f 193d afa6 0dbb
00000020: c095 2ebd 8047 eebc cd9d 8e3d a03d 553d
00000030: 70be 9b3c 3b4c de3c d385 83bc d3d7 a43c
00000040: 2246 193b 1bc6 373d 3c6b 563b 12c2 64bd
00000050: f333 93bd 279f b9bd 1f2a 05bd 4c2b e5bc
00000060: 89dc a4bb 48a7 1fbc 64c6 02bd dfe3 42bd
00000070: bd45 c2bd 68f8 22bc 962d 59bc 531b fabb
00000080: 05a7 973d 02d4 d13c d2ac 663d 2380 533c
00000090: dc69 233d c208 a73d 25cc 663d e2b9 b03d
000000a0: 6003 3a3d dba6 023d eca4 223c dc6e 543d
000000b0: 8cf1 463d d94c 233d 5bb8 8c3c 6454 0b3d
000000c0: 51df 343d bca9 143c 37af 9d3c 9169 cfbc
000000d0: ee93 a6bc b5ea af3c c34d 183c 34b5 a9bd
000000e0: 33a4 50bc 83f0 18bd ce0c a4bc d9e0 1abd
000000f0: 7449 60bd e45c fcbc 1a6c acbc 596d 13bd
00000100: 3fd4 56bd a05e 96bd 72e0 40bc 70af 17bc
00000110: 2b72 29bd 84b8 c13c 01ab 943c 96be 80bd
00000120: 82f9 87bd 7f3f c23c 3cfd d0bc e209 003d
00000130: 4e7b 25bd 872d f8bc 7ef7 a03c 3480 773d
00000140: c1db 56ba a108 1d3c 9d45 c8bb 6081 0b3d
00000150: 66d1 03bc 8f39 643c 1a35 293d a46e 043c
00000160: 53e2 01bc 68a1 34bc b37a 91bd b82e 48bd
00000170: 3f4d 77bc 2305 ac3c 96dd 83ba 6567 05bc
00000180: 4654 cd3c fbf4 f53c 3bf6 3c3c 557f 6fbc
00000190: 5ca3 2e3d d7a4 8bbc aabb 26bb 000d 20bc
000001a0: 07c2 f53c 17fb 933c 6e86 0d3b 3fd0 9dbc
000001b0: ede1 a4bb 7464 8dbb 837a 6fbd f218 2fbd
000001c0: 207d b0bc fa24 36bd 5dbe 64bd f999 cdbc
000001d0: a3b2 a0bc 3650 cd3c a47f 1c3a eea7 223d
000001e0: c30f 033d 5e49 1e3d 4084 173d 989d c7bb
000001f0: 67a6 203c c421 463c b3cb 0e3c 63ac 613c
00000200: 5020 8b3c 358a d13c fea1 103c 56ef d23c
00000210: b066 ea3c e8f9 903c 70f9 333c bcee ed3c
00000220: f540 383d dbfc 103d 0c8b 943b 3998 25bd
00000230: 479d a9bd 96c1 5ebd 8192 afbd ed1d 7ebd
00000240: 34e3 69bd 7676 b6bd 38a1 013c 3467 be3d
00000250: 52a6 e53d 83ab 8c3d ed1c 463d f7fa 0f3d
00000260: 189e 163d 3abb e23d 3f1c d33d 3eef b63d
00000270: 549a 023d eba0 833c b1a3 6ebd f80f cdbc
00000280: a878 0b3c 6c5d 743c d958 393d 7a49 5dbc
00000290: 4ee2 d9bc c260 253d e2a1 813d e782 213c
000002a0: 5bf5 9e3c 293f b23c 7e12 013d db79 2e3d
000002b0: b8be 033d 5b06 1b3c c4c3 94ba 9633 ae3a
000002c0: 1248 03bd 9d82 9d3c ec65 943c 5c4e 18bc
000002d0: 185c 043d 2691 14bc abb5 6d3b bd15 043d
000002e0: bf9f c3bc 6526 5fbc fe46 0ebd 9fab d2bc
000002f0: c432 e5bb b2bc 80bd 81bc b1bc 647a c9bc
00000300: 40e4 d8bc 2d38 5a3c b025 06bd bf80 91bd
00000310: 3a4e 77bc 0e53 a43d 8914 803d 06a2 463d
00000320: d4c4 443d 7a3a 243d 7077 413d c2f4 633a
00000330: b8bf b83c 27eb 843b c1b1 0a3d 907b fb3c
00000340: 65bd 4e3c 1b4d 21bd 586c 41bd a224 49bd
00000350: 57c4 04bd 8aa4 21bc f552 a6bd ffa2 78bd
00000360: 4c6f 9b3a 995f 383a bce3 0cbc b263 d43c
00000370: c929 48bc 6680 d03a 363c 313b f757 33bd
00000380: 71ad 1ebd 8eac b23c a8df babc f070 a7bc
00000390: 35c7 51bd cfed 9cba 906c 5d39 1f35 a9bc
000003a0: d2ba 7ebd 969b c739 f63e b8bd 0c6e f4bc
000003b0: 8675 4ebd 2fee 44bc a055 04bc 0622 793d
000003c0: b911 cfbc 601c 56bd 8811 48bd 8e2d 59bd
000003d0: f14e 10bc 0811 17bd d077 b3bc 34b6 bbbc
000003e0: 87fc e5bb aa5d 2ebd ca63 b03c 2fee 86bd
000003f0: 6ef5 05bd 3ad5 aebc 8b6b 8abb 8e3a 32bd
-0.063023016 -0.01793548 -0.033850633 -0.028093139 -0.045421597 0.009616985 0.037368555 -0.0021614244
-0.04262328 -0.029086828 0.06963692 0.052060723 0.019011706 0.027135959 -0.016055023 0.020122444
0.002338775 0.044866662 0.0032717725 -0.055849142 -0.07187643 -0.09063559 -0.032510873 -0.027974747
-0.0050311727 -0.009744473 -0.03192748 -0.047580596 -0.09485958 -0.00994692 -0.013255497 -0.007632652
0.07404903 0.025613789 0.056317158 0.012908968 0.039895877 0.08155967 0.05634703 0.08629204
0.045413375 0.031897407 0.009927016 0.051863536 0.0485702 0.03986821 0.017177751 0.034016028
0.044158284 0.009073671 0.019248588 -0.025318893 -0.02033421 0.021474222 0.009295884 -0.08286515
-0.012734461 -0.037338745 -0.020025637 -0.037812088 -0.05475755 -0.030806012 -0.02104764 -0.035992954
-0.052448507 -0.07342267 -0.011772262 -0.009258136 -0.041368645 0.023647554 0.018147947 -0.062863514
-0.06639387 0.023711918 -0.025511377 0.031259425 -0.040400796 -0.030295147 0.019649263 0.060425
-0.0008196198 0.009584577 -0.006111814 0.03405893 -0.00804553 0.013929739 0.041310407 0.008083019
-0.007927495 -0.01102481 -0.07103481 -0.04887268 -0.0150941005 0.020998543 -0.0010060545 -0.008142327
0.025064599 0.030024042 0.011533315 -0.014617761 0.04263626 -0.017046375 -0.0025441446 -0.009768724
0.029999746 0.018064065 0.002159502 -0.019264339 -0.0050318153 -0.0043149535 -0.058466446 -0.0427484
-0.02154404 -0.044468857 -0.055845607 -0.025097834 -0.01961643 0.025062662 0.00059699477 0.03971093
0.031997453 0.038644187 0.036991358 -0.0060917847 0.009805298 0.012093011 0.008715558 0.01377401
0.016983181 0.025578598 0.008827684 0.02574889 0.028613418 0.01769729 0.0109847635 0.029044501
0.044983823 0.03539739 0.0045331772 -0.040428374 -0.082819514 -0.054383837 -0.08572865 -0.06204026
-0.057101443 -0.089093134 0.007911973 0.09297028 0.11213364 0.06868651 0.04836743 0.035151448
0.036771864 0.11070867 0.10308122 0.089323506 0.03188546 0.016067943 -0.058261577 -0.025032029
0.008512653 0.014914852 0.045250747 -0.013506288 -0.026597168 0.04037548 0.06329705 0.00985787
0.019404104 0.021758633 0.031511776 0.04259668 0.032164305 0.0094619645 -0.0011349847 0.001329052
-0.032051153 0.01922732 0.018115006 -0.009296026 0.03231439 -0.009067809 0.0036271613 0.032247294
-0.023879884 -0.013619994 -0.034735672 -0.025716601 -0.006994577 -0.06285991 -0.021696331 -0.024594493
-0.026476026 0.013319057 -0.032750785 -0.071046345 -0.015094334 0.08023654 0.06253917 0.04849436
0.048039272 0.04009483 0.047233045 0.00086958345 0.022552356 0.0040563527 0.033860926 0.030698568
0.012618397 -0.039380174 -0.047222465 -0.0491072 -0.032413807 -0.009865889 -0.081212915 -0.06070232
0.001185873 0.0007033288 -0.008599218 0.025926445 -0.012216994 0.0015907406 0.0027043945 -0.04378506
-0.038739625 0.021810796 -0.022811726 -0.020439595 -0.05121537 -0.0011972728 0.00021116645 -0.020655213
-0.062189884 0.00038072158 -0.08996384 -0.02983763 -0.050405048 -0.012019678 -0.008077055 0.060823463
-0.025277006 -0.052273154 -0.048844844 -0.05302196 -0.008807884 -0.036881477 -0.021907717 -0.02291403
-0.007018629 -0.042569794 0.021531958 -0.06588399 -0.032704763 -0.021341909 -0.004224246 -0.043512873

classifier.0.bias f4 [17]
00000000: 6f88 3fbd beda 2fbd 7f14 e1bc 1a3f 09bd
00000010: 23e6 bdbb 37c3 7abd 034c 143b 2cbe 53bd
00000020: bc0e 3bbd 8671 90bd 4302 43bd d617 2abd
00000030: d822 38bd 3900 a4bd b6e9 65bd 557c 2ebd
00000040: 6088 67bd
-0.046760973 -0.04293322 -0.027475594 -0.033507444 -0.0057952567 -0.061221328 0.0022628314 -0.051695034
-0.04566835 -0.07052903 -0.04760958 -0.041526638 -0.044955105 -0.08007855 -0.056131087 -0.04259904
-0.05652654
